Assets/brain/ArmAgent-64999559.onnx (onnx, 543986 bytes, 9 tensors)

network_body._body_endoder.seq_layers.0.weight f4 [256, 7]
00000000: 4cb0 ae3e 81da be3e d177 94be 2e04 b13e
00000010: 8bcf 2b3e 8628 323f dd04 ddbd 0b08 73be
00000020: 9c44 b0be 1561 b23e c1f5 593e dec9 00bf
00000030: 99e8 843e 4b42 2a3e 05e2 bcbc 4d2e f43e
00000040: 79ce a63e e3f3 653e 0e08 1dbe ac56 443d
00000050: e57f 0bbf 53db f03e bd8b da3e 22ee bf3e
00000060: d080 253e e06c 97bb 56fe 4dbe 4330 30be
00000070: a410 8fbe 4552 073f 62fe 923e bd9f e83e
00000080: a2c8 00bd a11f b43e 6226 263f 0d32 463f
00000090: 24c8 e13c c48b 0e3e 5098 1d3f a109 10bd
000000a0: 3d95 a0bd 2f59 483e 43df c0bd c1e2 123f
000000b0: f406 1dbf 24b4 2cbe cfb5 e8be 433b 953f
000000c0: 662a 7dbd 56dc 393f 3f90 083f 1d17 29be
000000d0: 248d 793e 37d3 ca3e 082b 2e3e 8a1c 42be
000000e0: e6c8 6cbe 73e0 a8bd 9762 a43e 157b e4be
000000f0: cad9 f53e 0247 b83e 1254 4e3e a304 3bbf
00000100: 8e82 52be 3f62 f13e b4e7 74bf cd60 8cbf
00000110: 591a 9d3e 9575 96be f4a1 39bc febc 173f
00000120: ece0 1e3e 2199 5e3f 2f5b 143f a89b 0fbe
00000130: ec60 09bd caa4 57be 6265 afbd 10e2 463e
00000140: 2343 cabe ac11 f33e b4fa 113e 70a5 80bf
00000150: 3d9c 33bf 09fa a03c 180e 75be ddd3 8d3e
00000160: d5a1 67be 6d81 3f3e 5655 08be d87a a8be
00000170: 6501 36bd e6cc 32be ce54 14bf 6e8b ca3e
00000180: 4fd4 7ebe e17f 9c3d b9f7 dcbe 5b38 0c3f
00000190: 3398 78be 2dec a2be 45c9 09be 0131 783f
000001a0: b060 4bbf 1035 273e c030 30bf 6eab 003e
000001b0: a5e5 2a3e 239b d93e 93e6 b6be 86c2 a7be
000001c0: 1bbf ba3e ee78 2d3d 5fe6 29be edab 7a3d
000001d0: a0e1 c5be 352d b43e 55c4 e13e 1608 25bd
000001e0: a302 85bd f7d3 893e 4aac 7abe 0a67 6e3f
000001f0: 8188 d03e 9036 a6be d045 98bf 56b8 543e
00000200: be4d 363e 91d8 823e d5a8 723e baf3 d43e
00000210: 551e ea3e d6f0 d13e 2a04 e0be 3bd9 0c3e
00000220: 3632 17bf 65b2 d73e 3e3c 033e 53d8 7cbd
00000230: 412d ab3f a118 fb3e 1251 373e b493 b53e
00000240: 616e 813f f546 93be 3710 963e b84f 8abe
00000250: b035 34bd 3280 b2be 221b db3e d46f c0be
00000260: 5cee d3be 03c8 7cbf 19ea 8abd 3624 a23e
00000270: 28b8 a7be 944d 163f bb6a 6abe a6fe a7be
00000280: 3d4f 45be 4ccf c83e fe2e b93d 6892 f8be
00000290: b2ea 40bf 9286 a2bc 204e 32bf 65a7 563f
000002a0: 01c9 87be e291 2b3e fab0 34bf 40e3 eb3d
000002b0: 8ddc 983e ae55 1dbe 1f70 b83b e9e2 f23e
000002c0: f9e6 70bf 5c2b ecbd aa8c 26be eb3c 4fbe
000002d0: 5d09 b13e a028 cf3e dd9e 34bd 34bc 04bf
000002e0: 4c9e 92be 7fd3 993d c1c4 1f3e 5baa 293f
000002f0: 6311 afbe 0e13 b23e e602 f0be edb4 31be
00000300: 5591 0e3e eef7 b9be 7874 cbbd 1cbb bf3e
00000310: 0f15 b4be e80e 3ebe caec 56be eb90 6f3e
00000320: 48e4 b73e 317e 9e3c 36da 083f cca5 b23c
00000330: c3e2 19bf 2de0 acbe 1bcc bebe 27ce f3bd
00000340: 3640 833f 3c83 16be bedb 31be 7332 eb3d
00000350: b6f6 323f c10d 763e 828c e4be ebdb c03e
00000360: fec8 2cbf 6cdb 98bd 515a 133f b588 293f
00000370: 9825 d93d 5893 b13e 28f4 b0bc 134c 233f
00000380: d2f1 b2be 44ce f7bd 3c6b d2bc b5b7 9d3e
00000390: 3526 f5bd 43be f33d 6917 aebe 7d15 113f
000003a0: f1fb 12bf bbeb 17bf c5fd b63e 7057 dfbd
000003b0: f54e 6ebf d711 edbc e936 34be 810f bf3d
000003c0: 9443 87bf c34a 3abb b57d 19bf 6699 4e3e
000003d0: 739a 2e3f 154d c33d 72c8 8fbe b26d c2be
000003e0: 79c3 34bd 4e27 acbe 6db0 2dbe 4e0d 503e
000003f0: 89df 2fbf b18e bb3e 9bec 4839 b8b2 d03b
0.3411888 0.3727608 -0.28997663 0.345735 0.1677839 0.69593084 -0.10791943 -0.23733537
-0.34427345 0.34839693 0.21285154 -0.50308025 0.25958708 0.16626851 -0.023056993 0.47691575
0.325794 0.22456317 -0.15335104 0.04793422 -0.54492027 0.4704233 0.42684737 0.37486368
0.1616242 -0.004621133 -0.20116553 -0.1720591 -0.27942383 0.5285991 0.28709704 0.4543437
-0.03144134 0.3518038 0.6490232 0.7742012 0.027561255 0.13920504 0.61560535 -0.035165433
-0.07840965 0.19565271 -0.09417584 0.5737725 -0.61338735 -0.16865593 -0.4545121 1.165871
-0.061808012 0.7260183 0.533451 -0.16512723 0.24370247 0.3961427 0.17008603 -0.189562
-0.23123512 -0.08245935 0.32106468 -0.44625154 0.48017722 0.35991675 0.20149258 -0.7305395
-0.20557615 0.47145268 -0.9566605 -1.0967041 0.30684164 -0.29386583 -0.011330117 0.59272754
0.15515488 0.86952406 0.57951635 -0.14024222 -0.033539698 -0.21058956 -0.08564259 0.19422174
-0.39504346 0.4747442 0.14255792 -1.0050488 -0.70160276 0.019650476 -0.23931158 0.277007
-0.22620328 0.18701716 -0.13313803 -0.32906222 -0.044434924 -0.17460975 -0.579419 0.395595
-0.24885677 0.076415785 -0.43157747 0.5477349 -0.2427681 -0.31820813 -0.13455684 0.96949774
-0.7944441 0.16328835 -0.68824387 0.12565395 0.16689165 0.42501172 -0.3572279 -0.32765597
0.36473927 0.042351656 -0.16591786 0.061199117 -0.386487 0.3519074 0.44095102 -0.040290914
-0.064946435 0.2691953 -0.24479786 0.93125975 0.40729144 -0.32463503 -1.1896305 0.20773444
0.17803094 0.25555852 0.23697217 0.415922 0.45726267 0.41004056 -0.43753177 0.13754742
-0.5906099 0.42128292 0.1281595 -0.06172974 1.3373185 0.49042228 0.1790202 0.3546425
1.011181 -0.28765073 0.29309246 -0.27013946 -0.043996513 -0.3486343 0.42794138 -0.37585318
-0.4139279 -0.98742694 -0.06782932 0.31668252 -0.32757688 0.58712125 -0.22892277 -0.3281147
-0.19268508 0.39220655 0.09042166 -0.485492 -0.75358117 -0.019839559 -0.6965046 0.83849174
-0.2652054 0.16754869 -0.70582545 0.11517954 0.29855767 -0.15364715 0.0056286003 0.47438744
-0.94102436 -0.11531708 -0.16264597 -0.20238082 0.34577456 0.40460682 -0.044096816 -0.51849675
-0.28636396 0.07511043 0.156024 0.66275567 -0.34192953 0.34780163 -0.4687721 -0.17354174
0.13922627 -0.36321968 -0.09934324 0.3744744 -0.35172316 -0.18560374 -0.20988765 0.23395126
0.35916352 0.019347282 0.53457963 0.021807574 -0.60111636 -0.33764783 -0.37265095 -0.11904555
1.0253971 -0.146985 -0.17368981 0.11484232 0.699077 0.24028684 -0.4463845 0.37667784
-0.6749419 -0.074637264 0.57559687 0.66224223 0.106028736 0.34682727 -0.021600798 0.63787955
-0.3495012 -0.12099889 -0.025685899 0.3080422 -0.11970178 0.11901524 -0.34002236 0.56673414
-0.5741568 -0.5934407 0.35740486 -0.10905349 -0.9308923 -0.02893917 -0.17599072 0.09329129
-1.0567498 -0.002842591 -0.5995744 0.20175704 0.6820442 0.095361866 -0.28082615 -0.37974316
-0.04413173 -0.33623737 -0.16961832 0.20317575 -0.6870046 0.36632302 0.00019161629 0.006368961

network_body._body_endoder.seq_layers.0.bias f4 [256]
00000000: 1d4d 1fbc 4ae1 6abd 77f9 973d df3e ffbc
00000010: 6fe6 b53c 4425 8bbc 5488 82bd 67eb 263d
00000020: 6807 143d f484 90bc 03ff bd3d eefc 063d
00000030: 200a 43bc ba41 463d 2c79 87bb 6322 bc3d
00000040: a587 2fbd e14f ce3d d0de 773c f9e4 4c3d
00000050: a3ce 523c 9437 263d 8528 5ebd 476b 14bd
00000060: 79d1 ce3c aef5 02bd 2c83 b53b 9463 8ebd
00000070: 4db1 3c3d c902 0ebd 3efb 77bc 2eee 963d
00000080: 8429 7d3b 8e9c eabd 05b2 f4bc 3ecf 52bd
00000090: 9c86 bd3c bb30 8d39 15ff fe3a 2167 3d3b
000000a0: 3186 22bd d3a1 803c c02a c73c 8c01 423c
000000b0: cfea a73d eada 36bb fc34 11bd 1832 833c
000000c0: 2891 b7bc 085e 52bd be54 783d d8af 76bc
000000d0: d23f 903c ce79 5bbd 77f5 e23c 14af febb
000000e0: 3673 273c 4bf1 6b3c bd32 e4bc 015e 1a3d
000000f0: d7f7 a1bc 053b 27bd 98a5 69bd 236e 4bbd
00000100: fdbc 1cbd 6227 62bc 7039 00bd bf6a ee3b
00000110: f21d 453d db5c bd3d 077f 933d 7a7f 883d
00000120: e810 84bc 2316 d3bc e53c b3bc e017 7f3d
00000130: 9242 f23b 1a7e 13bb a478 893c fb57 e4bc
00000140: 29b3 0dbd c082 183c 614e 81bd c945 5a3c
00000150: efe5 3cbc 9bb3 243d 9568 fe3b c86f 813d
00000160: ca35 40ba 1458 3abd e213 4a3d ceb3 69bc
00000170: 5cf2 bf3d 9719 c33d 0b0a caba 773e 053e
00000180: f905 c03c 42e9 32bc 6246 7e3c 09c1 d5bb
00000190: 786b 52bc 5f25 df3c 762b 61bb 675a 863d
000001a0: a517 333c 2674 503d 3b36 be3c b88e 733c
000001b0: ac5e 5bbd d008 0f3d 661f ac3d 0c63 393d
000001c0: a1c6 493c c76a b23b c7ad 73bd cac9 fc3a
000001d0: 56c8 37bc 0443 d3bc c071 8c3d e6b1 f4bc
000001e0: 7730 9abc 0f67 2bbc 2ef8 6dbd a387 ff3c
000001f0: 31c6 633d 993e a0bc 2366 333b acc6 38bc
00000200: 3163 653b 13e4 313d dc94 13bc 508d 49bd
00000210: ff2d 76bd 7c27 37bc 6df5 803c 8278 c43c
00000220: c5f3 863c 356c 593d d8e0 6ebc ef1b debc
00000230: 376b d33d 9e47 a0bc 119a b2bd 0144 94bd
00000240: 3567 b83d b385 1f3d d4c8 993b 84a1 1d3d
00000250: 39eb 83bd fcee 443d 2a95 7b3d bb08 babc
00000260: c235 383d a7fd bf3c 74bb 0cbe 57f5 36bd
00000270: 0c8e 70bd 2253 333c 8a83 843d f834 4c3d
00000280: 5c2f 8e3d 572a 0abc 231a 43bd 6bac 903c
00000290: 15e6 8fbd b5ab 843d b9d8 af3c 3784 06bd
000002a0: 9f93 323c a7a4 a83b 105b f2bc 5123 d7bc
000002b0: d2af 753d 9efe 973c 1a46 c63d a96d 63bd
000002c0: 78da 763c 7543 893d b889 943b d17b 143d
000002d0: ac89 003d 30dd ba3c a0a4 493d fd20 873d
000002e0: 29d5 1cbc b4df 463d 04a5 06bd 8204 0abb
000002f0: 72f4 afbc 7bc5 abbc 3d98 8b3c a24c db3d
00000300: fdb8 253d b1af 55bd 36c2 9e3c 1e17 babd
00000310: d765 84bc de5c d1bd b4f4 08bd 28aa 6f3c
00000320: 9585 353d da13 7fbc c4ae b1bb b4bf 983d
00000330: 526a efbc 7792 8dbd 33c1 94bd 5bfd 33bd
00000340: 3043 a03d d88c f63b bdb4 3c3d a752 4d3c
00000350: e364 fa3c b55e d43c 6b86 8bbd 8654 e6bc
00000360: f450 363d 5e2e ecbc dda6 4ebc ddaf 893d
00000370: 7577 2f3d 1a96 cbb9 8ede bcbd 6923 babb
00000380: 2586 e0bb d705 323d 0820 ab3d f93c 893d
00000390: 8a52 103d eb25 8abd b29d 44bb 45ec 943d
000003a0: 7e0e 893d c174 abbd 5932 a1bb fb60 8b3c
000003b0: cce7 943c 9d65 ffbc 60d4 2c3c ff27 293d
000003c0: fc62 ca3c aa26 1abd 80d7 32bd 0e5d 57bd
000003d0: 8f2d 223d 8abd 893d 8538 0a3e 58d7 573c
000003e0: 3be3 c43b caea d6bc 0128 9bbd 7504 cabc
000003f0: 8d7b 6d3d ef8f c33c e960 51bd 26b2 b03c
-0.009722975 -0.05734376 0.074206285 -0.031157909 0.022204606 -0.016985543 -0.06373659 0.04075184
0.036139876 -0.017641522 0.09277155 0.032956056 -0.011904269 0.048402525 -0.004134318 0.09186246
-0.04285397 0.100738294 0.015128806 0.050023053 0.012866649 0.040580347 -0.05423786 -0.03623512
0.025246369 -0.03197258 0.0055393185 -0.06952587 0.046067525 -0.034670625 -0.015135584 0.07369648
0.0038629482 -0.11455642 -0.029870043 -0.051467173 0.023135476 0.00026929923 0.0019454682 0.002890058
-0.039678756 0.015702164 0.024312377 0.011841189 0.08199083 -0.002790148 -0.03545092 0.016015097
-0.022408083 -0.051359206 0.06062769 -0.015056573 0.017608557 -0.05358296 0.027704937 -0.007772336
0.0102203395 0.01440079 -0.027856225 0.037687305 -0.0197715 -0.04082777 -0.057042688 -0.04966558
-0.03826617 -0.013803335 -0.031304777 0.0072759087 0.04812426 0.092462264 0.07201963 0.06664939
-0.016121343 -0.025767392 -0.021879623 0.06227863 0.0073931897 -0.0022505582 0.016781159 -0.027873984
-0.03459469 0.009308517 -0.06313778 0.013322302 -0.01152943 0.040210348 0.007763932 0.06320149
-0.0007332234 -0.045494154 0.049335368 -0.01426406 0.09372398 0.09526365 -0.001541437 0.1301211
0.023440348 -0.010919871 0.01551971 -0.0065232557 -0.012843005 0.0272395 -0.003435818 0.06560212
0.01093093 0.050892018 0.023219218 0.01486557 -0.053557083 0.034920514 0.08404426 0.045260474
0.012315423 0.0054448578 -0.0594919 0.0019286212 -0.011217197 -0.025788791 0.068576336 -0.029869985
-0.018821938 -0.010461583 -0.05809801 0.031192606 0.055608932 -0.019561099 0.002737411 -0.011277836
0.003500175 0.0434304 -0.009007659 -0.04920703 -0.06010246 -0.011178847 0.015742028 0.023983244
0.01647366 0.05308171 -0.014579974 -0.02711293 0.10323184 -0.0195654 -0.08720792 -0.07239533
0.0900406 0.038945865 0.00469313 0.03848411 -0.064413495 0.048079476 0.06142155 -0.022709241
0.044973142 0.02343638 -0.13743383 -0.044667568 -0.058729216 0.010945113 0.064704016 0.049855202
0.06942627 -0.008432946 -0.047632348 0.01766034 -0.070263065 0.06478063 0.021465646 -0.032840934
0.010899453 0.005146581 -0.029584438 -0.026261957 0.05998213 0.018554028 0.096813396 -0.055524502
0.015066735 0.067023195 0.004533019 0.036250893 0.031381294 0.022810549 0.049229264 0.06598089
-0.009572306 0.048553184 -0.032872215 -0.0021059816 -0.021478865 -0.02096819 0.017040366 0.10707976
0.04045962 -0.052169506 0.019379716 -0.090864405 -0.016161842 -0.10222791 -0.033436492 0.014627971
0.044316847 -0.015568698 -0.005422445 0.074584395 -0.029225502 -0.069127016 -0.07263412 -0.04394279
0.07825315 0.007524114 0.046070803 0.012531913 0.030565685 0.025924066 -0.068127476 -0.028116476
0.044510797 -0.028830703 -0.0126130255 0.067229964 0.042838532 -0.00038831012 -0.092221364 -0.0056804908
-0.006851929 0.0434626 0.08355719 0.06701083 0.035234965 -0.067455135 -0.003000122 0.07271627
0.06692217 -0.083718784 -0.004919332 0.017014017 0.018176936 -0.031176383 0.010548681 0.04129791
0.024705403 -0.03763453 -0.043662548 -0.05257898 0.03959423 0.06725605 0.13498123 0.013173901
0.0060085333 -0.026235003 -0.075759895 -0.024660328 0.057979155 0.023872344 -0.05111781 0.021569323

network_body._body_endoder.seq_layers.2.weight f4 [256, 256]
00000000: 055f 8ebd f1f6 1abd 4fd7 b2bd 9965 573d
00000010: 0cb6 31bd 015d 963d b0d4 2fbd ab9a 40bd
00000020: d455 053d 775f e63c 6051 2cbd 611f e43d
00000030: 91a1 ba3d 10a0 313e 4a97 903c ab80 acbc
00000040: 0d6d 973c c643 4b3d 6f2b b2bb c9f6 40bd
00000050: 1070 f9bd 183a caba 1dcf 223e 49c5 3cbd
00000060: 5777 8e3c 8184 263d ea82 483d cedf d6bc
00000070: 784d efbc b461 babd 3f5d 34bd 97d5 89bd
00000080: f1bb 673d 69b6 ef3c 71ae da3d ea56 ab3b
00000090: 032d 9c3d 54af 483d 02af 953c 4eeb 283d
000000a0: 1795 253d 0520 78bd 8356 ec3d ad90 d53c
000000b0: 93c8 213d f58a 683c 5d12 1cbd c5a3 033c
000000c0: bbd5 f53c 17a1 c33d 4879 b93d c36a 873d
000000d0: 8202 023b 04ee 6cbd 8561 203a 2ce0 5c3d
000000e0: e686 10bc 41c1 25bd b3dc 9f3c c6d2 a83c
000000f0: 4310 7cbc a634 a5bd c7cd cdba c14a 7abd
00000100: b83a 0e3e 444c e4bd e18e 433d aacb 123e
00000110: 0ef6 413d c37b 873c 2272 b7bc 1046 80bd
00000120: 594c 353c 2d23 c53c c00c 1f3d 976b c5bd
00000130: 54a5 9f3c 98da 09bd e3aa 0f3c fad1 7b3d
00000140: bea3 11bd ad51 6abc 7a4b 95bd 974a 02be
00000150: 2f88 fc3c cb0c da3d 3e14 5e3e efda d6bd
00000160: 56a7 7abd 834c e13d 1986 2d3e 5da3 933c
00000170: eac5 2abd a285 d23d 2a90 b13d 2eb3 793a
00000180: 2623 9e3d cf97 c7bd 5f0e c93c b2b6 103e
00000190: 11e9 f13c b55e ad3c 1bad b03d 1edd e63d
000001a0: 3277 dfbd ad5e b4bc 8898 ba3d 8a9e 6c3d
000001b0: 3ef7 efbc 9602 fa3d 1b99 1d3e 9f67 b13a
000001c0: 9b81 1f3d e7f0 c83d 1c76 2cbd 84cb 043e
000001d0: 43d6 bfbc 551c 003e c762 49bc 0620 4cbd
000001e0: f064 3ebc f744 82bd d721 8cbd 21d4 183d
000001f0: ef69 123e 8244 2c3d 6150 a23d 561b 0fbd
00000200: 8ac0 1cbd 9249 71bb 20d6 d0bd 2447 a2bd
00000210: eec9 3c3d e0a7 d039 db77 c3bd c2d9 29bc
00000220: f1a4 0c3d 2cbd 92bc 7842 50be 456f acbb
00000230: e214 f4bc eb83 033e 0d6f bd3d ba7f 8d3d
00000240: bfa7 193d d30c 0d3c df58 ac3d f8f2 dc3d
00000250: 0344 50bd aa76 c8bc 36c6 89bc b9a8 f6bd
00000260: 1c5f 4f3d 03ed 76bd 8b88 243d 657c 36bc
00000270: 1d32 c9bc 42cd 70bd 8bf8 1fbd d8ae 163e
00000280: 5544 e53d fbf4 ae3d f8e5 2a3d b024 d9bd
00000290: 948d b23c 2212 f43d 8c5d 69bd 5545 c9ba
000002a0: 12f0 91bd 48c5 aa3d 06b9 a03d b5c8 cd3d
000002b0: d697 88bd 8a01 1dbd ba4c 1dbd 162d 833d
000002c0: 0a54 383d 713c 483d 1e7b bd3a 9110 083d
000002d0: 07e2 0dbc 7c2b 33bc 5f39 ad3b 3d15 593d
000002e0: a659 383d bf7e 953b 7db3 033d 36a1 913b
000002f0: 4ee2 75bd 9c19 cebc 740d 96bd ff13 d0bd
00000300: 0173 6d3d 0ecc 92bd c0ab 88bd 3d87 aa3c
00000310: 0d0f af3d 12fa 683d abc6 6dbd c079 aa3d
00000320: d682 9c3b bc50 923d 3b4f 723d d2a7 66bd
00000330: 515d 783c 5263 bf3d b0eb 683d dd58 6dbc
00000340: c422 f33d 4448 3c3c c8cf d83d a9ed 893c
00000350: f149 903d d1ee 55bc c555 97bd 738e 3dbd
00000360: bb93 9e3d 473a 303d a4c4 4ebd 1725 9e3b
00000370: d756 4ebd d8f9 aa3d 5ffe aabc f4fe 073e
00000380: b82e a83d 4007 183d 4dc7 913c 9908 3abd
00000390: 2dcd f33c 6c87 b33c 1f5a e43c fc14 34bd
000003a0: d3a8 773b 6d37 c0bd 2af7 98bc 7397 bc3d
000003b0: ac91 0b3c bc4b 13bd 57cf 853d 7933 f33d
000003c0: 2346 103e 38d2 a1bb 3a2c e43b 0606 d4bc
000003d0: a5b1 1e3e 76bc ff3d 4ddc a4bd 5c0e b0bd
000003e0: 07dc 43be 3cb7 4bbd fefe 4cbc c783 203d
000003f0: d124 d13c 0524 ac3d b96b 53ba 357c e03d
-0.06951717 -0.037833158 -0.08732473 0.052587125 -0.043386504 0.07341958 -0.042927444 -0.047022503
0.032552555 0.028121693 -0.042069793 0.111387976 0.091128476 0.17346215 0.017650265 -0.021057447
0.018484617 0.04962518 -0.0054373066 -0.047110353 -0.12179577 -0.001542869 0.1589932 -0.046086583
0.01739089 0.04065371 0.048952974 -0.026229765 -0.029211745 -0.09100667 -0.04403424 -0.06730192
0.05657572 0.029261785 0.10677803 0.005228867 0.07625773 0.04899533 0.018271927 0.04124003
0.040425386 -0.06057741 0.11539938 0.026069963 0.039497923 0.014193286 -0.03810345 0.008034651
0.030009141 0.0955221 0.09056336 0.0661216 0.001983792 -0.057844177 0.0006118047 0.053924724
-0.008821225 -0.040467504 0.019514417 0.020608317 -0.0153847365 -0.080666825 -0.0015701585 -0.061106447
0.13889587 -0.11147359 0.04774368 0.14335504 0.047353797 0.016538506 -0.02239329 -0.06263363
0.011065566 0.024064625 0.03883052 -0.09639662 0.019488014 -0.033655733 0.00876877 0.061479546
-0.035556547 -0.0143017 -0.07289787 -0.12723766 0.030826656 0.10646971 0.2168741 -0.10490977
-0.06119474 0.110009216 0.16945685 0.018022234 -0.04169265 0.10279395 0.08670075 0.0009525296
0.07721548 -0.09745752 0.024542985 0.14132193 0.02953008 0.021163324 0.08626767 0.112726435
-0.109114066 -0.022017801 0.09111124 0.057768382 -0.029292699 0.122075245 0.15390436 0.001353491
0.03894196 0.098115735 -0.042104825 0.1296826 -0.023417598 0.12510808 -0.012291617 -0.049835227
-0.011620745 -0.0636081 -0.06842392 0.037311677 0.14298223 0.04205752 0.07925487 -0.03493818
-0.038269557 -0.0036817533 -0.10197091 -0.07923725 0.046091013 0.00039797928 -0.09544345 -0.010366859
0.034336988 -0.01791247 -0.20337856 -0.005262288 -0.029795114 0.12843291 0.09249697 0.069091275
0.03751349 0.008609015 0.08415388 0.1078853 -0.05084611 -0.024470646 -0.016818147 -0.120439
0.050627813 -0.060284626 0.04016928 -0.011138056 -0.024560029 -0.0587895 -0.03905539 0.14715135
0.11194674 0.0854282 0.04172322 -0.10602701 0.021796025 0.11917521 -0.05697398 -0.0015355746
-0.07125868 0.0833841 0.078477904 0.100480475 -0.066695854 -0.038331546 -0.03840325 0.06405084
0.04500202 0.048885766 0.0014456247 0.033218924 -0.008659846 -0.01093566 0.00528638 0.05299877
0.04500737 0.0045622285 0.032153595 0.0044442667 -0.060030274 -0.025158696 -0.07326785 -0.10160064
0.057971004 -0.071678266 -0.06673384 0.02081644 0.085477926 0.05687911 -0.058050793 0.08324003
0.004776339 0.07144305 0.05915759 -0.05631239 0.015158967 0.09345116 0.056865394 -0.014486519
0.118718654 0.011491839 0.10586506 0.016836958 0.07045353 -0.013057427 -0.07389406 -0.04627843
0.07743021 0.043024328 -0.0504805 0.004826199 -0.050375786 0.08348435 -0.020873247 0.1328085
0.08212036 0.03711629 0.01779523 -0.045418356 0.029760921 0.02191516 0.027875004 -0.043965325
0.0037789836 -0.09385572 -0.018672545 0.09208574 0.008518618 -0.035960898 0.065336876 0.11875052
0.14089255 -0.00493839 0.00696328 -0.025881778 0.15497454 0.12487118 -0.080498315 -0.08596489
-0.19126903 -0.049735293 -0.012511967 0.039188173 0.02553025 0.08405308 -0.0008065063 0.109611906

network_body._body_endoder.seq_layers.2.bias f4 [256]
00000000: 97c0 0bbc 3ef6 093d 9c5f 7abc 22e2 ba3c
00000010: 329f 133d 5d73 a53c ebe7 363d 6d5d 7fbd
00000020: 244a a2bc 18ed 1abd e01e f63b 974d 11bd
00000030: f2a2 4ebd e32e 35bd b6fd 183c 08f0 20bc
00000040: fbff 39bd 786f f4bc 97ac a0bd 5874 14bd
00000050: 6ce2 ae3d 05e3 f23c a37d 703c 4dda 45bd
00000060: e341 c43c 2b3a bcbc fc2c f2bc a295 afbd
00000070: e143 1bbd 7919 6a3d e611 9ebd fea3 c1bc
00000080: bcac 753c 46d4 9b3c e6b4 453d ecef ddbb
00000090: 6ba7 383a 774e 8e3c f2f6 a9bd daea eb3a
000000a0: e173 fdba 45e1 48bc 5407 19bd 096a 20bd
000000b0: a6e6 8fbc 285e 413d 289a baba 6732 16bd
000000c0: 11f5 babd 1aeb 20bd ebb7 8cbd c588 683d
000000d0: a2f4 4c3d 2b11 64bd 5a9d d43a 0cbc c13b
000000e0: 45c7 60bd 806d ef3c 9229 cbbb 653d 8abd
000000f0: 1256 9fbc b31f adbd da8c 853c 13e8 02bd
00000100: e166 16bc eb99 c9bc 2fd2 89bc 52cc febd
00000110: 63f3 333c 55bf 7fbc c848 b63d 95fb f13c
00000120: a199 15bd 6c94 493d 5931 78bd 8c42 bb3d
00000130: 0d81 843d 56cf ec3c b56b ac3b 7c29 a43c
00000140: 457e 9abc 345a 1cbd 124d 81bc db01 343c
00000150: cf51 dabc cec3 80bd f518 95bc 1d66 89bd
00000160: a3fe 22bd 54e3 d739 20c4 2cbd 2b93 983d
00000170: 629d 10bd 4939 003d 35cb 95bc c6a4 07bc
00000180: cb7f a3bd bece 903d c94c 16bd 257a fd3c
00000190: 8b38 1b3d 5f1f 863c 767f 82bd ded6 10bd
000001a0: 73e2 103d 6971 dabb 6099 f7bc 56e3 75bd
000001b0: 852c 56bd 3232 6fbc d15d e33d 70ac d33c
000001c0: 9f04 e33b 6fca 0b3d f146 c0bc 606c 8b3d
000001d0: 07dc 34bc d041 043e c2cf 643d 3ff4 003d
000001e0: ba24 d5bc 427b 543b a0ce 6d3c 11fe a6bd
000001f0: 0cd4 10ba 1484 003d 86ac 8ebc 6da6 ae3c
00000200: a0ee 973c d5f4 303d 8a1a 59bd d39e a33d
00000210: 6196 923d 317a 75bb 864e b13c eb22 3e3d
00000220: 21b5 083c bbb6 b4bc d6b8 f8bc b923 f43b
00000230: a8ca 69bd e283 05bd 9fc5 5cba 952d 9b3b
00000240: 7456 debd 7c8c 13bd e389 98bd 169a ac3d
00000250: 109a 8cbd 6fee 783d fa58 0e3c 1724 edbd
00000260: 103e 2bba a6c8 1fbd c14e 8e3a fdb4 863d
00000270: 8363 e1bc e5b4 0dbd 4639 0b3d 1f17 a3bd
00000280: 3415 263d 898c 393c 04bf 3fbc 11cd 06bd
00000290: 855e c8bc 37fe 233d f3cd 323d e40c 963c
000002a0: f59b ae3c ed32 7c3d 6a8b 71bd f341 053d
000002b0: 643d 96bc 2f24 04bd 90d1 36bc bd82 cbbc
000002c0: 877b 173d 1678 f0bc 16aa 5dbd ea42 c93b
000002d0: 9d85 e3bb f2e4 3cbc c8e6 1b3d 74c1 8fbc
000002e0: 2d92 3dbd 6c9b c53c e227 86bd f871 5fbd
000002f0: 14f6 813d 2051 4e3d 1579 bcbc cc17 cfbc
00000300: 1b7e 57bb 5b14 26bd 151d bb3d f9cc 8dbc
00000310: ecc8 17bc 365e f9bb bfa0 553c 156b e23c
00000320: 5368 12bd 1ef6 70bb 116c 353d 5cff d8bc
00000330: 79e4 053d 677b e5bc 568e f23b ce9a 6e3c
00000340: fedd edbb 6751 963c a6cc 4f3d 015d 98bc
00000350: 146d 683d 3683 81bb 61eb 4fbd 9aec 9a3c
00000360: c0b3 05bd 36ee 32bd 1e81 603c cf0b 7abd
00000370: 3d55 273d 3e2a b1b9 9461 27bc 05cd cebb
00000380: f307 a33c eba0 93bd fc49 8cbc 170c 4abd
00000390: 65e6 423d 9876 91bc 8054 7d3c c667 b43b
000003a0: 6ec5 83bd 2e08 dabb 3e16 113c df6c a2bd
000003b0: d10a e33b 6259 84bd 5e11 993d 7894 2d3c
000003c0: fba5 353d d01d b2bb 41e2 3f3d 3280 a4bd
000003d0: e74b 27bd 870e 4dbd c605 f2bb 9cc6 1c3d
000003e0: 6bcb 883c 8976 a5bd 905b 8fbd 4d2d 57bc
000003f0: ecdb 01bd 9cec 1d3c ecff 1fbd b90b 54bc
-0.008529804 0.0336821 -0.015281584 0.022812907 0.036040492 0.020196611 0.044654768 -0.062344957
-0.019810744 -0.037823766 0.007511005 -0.035474386 -0.050448366 -0.044234168 0.009337833 -0.009822853
-0.045410138 -0.029838309 -0.07845419 -0.036243767 0.0853928 0.029649267 0.014678392 -0.04830389
0.023957198 -0.022976955 -0.029562466 -0.08573462 -0.03790653 0.0571532 -0.077182576 -0.023637768
0.014994796 0.019022118 0.04826822 -0.0067729857 0.000704399 0.0173714 -0.08299054 0.0017999068
-0.0019336903 -0.01226074 -0.037360504 -0.039163623 -0.017566036 0.047208935 -0.0014236616 -0.03666916
-0.09128774 -0.03928671 -0.06871017 0.05677106 0.050037988 -0.055680435 0.0016221211 0.0059123095
-0.05487754 0.029227018 -0.006200024 -0.06749991 -0.019450221 -0.08453312 0.016302515 -0.031959604
-0.009179802 -0.024609527 -0.016823856 -0.12441315 0.010983321 -0.015609582 0.08900601 0.029538909
-0.036523465 0.04921381 -0.060593937 0.09143552 0.06469927 0.02890746 0.005261863 0.020039313
-0.018859038 -0.038171962 -0.01578382 0.0109867705 -0.026650338 -0.06287347 -0.018200377 -0.0670893
-0.03979362 0.00041177368 -0.042179227 0.07449945 -0.035306342 0.03130463 -0.018285373 -0.008279031
-0.07983359 0.07070683 -0.03669432 0.030942032 0.03789572 0.01637238 -0.063719675 -0.035361163
0.03537221 -0.0066663516 -0.030224502 -0.060031258 -0.05228855 -0.01459937 0.111018784 0.02583906
0.006928041 0.034128603 -0.023471327 0.0680778 -0.011038787 0.1291573 0.055862196 0.03148293
-0.02601849 0.00324221 0.014514595 -0.08153928 -0.00055247615 0.03137596 -0.01741625 0.021319592
0.018546402 0.04320224 -0.053003825 0.07989278 0.07157589 -0.0037456865 0.021643888 0.04642002
0.008343966 -0.022059789 -0.030361574 0.0074505475 -0.057078034 -0.032596476 -0.0008421782 0.0047356584
-0.108563334 -0.03602265 -0.07448175 0.08427827 -0.068653226 0.060774263 0.008688206 -0.11579149
-0.00065323804 -0.039009713 0.0010857211 0.065774895 -0.027513271 -0.034596343 0.033990167 -0.079633944
0.040547565 0.01132501 -0.0117032565 -0.03291041 -0.024459133 0.04003736 0.04365344 0.018316694
0.0213146 0.061572004 -0.058970846 0.032533597 -0.01833982 -0.03226107 -0.011158362 -0.024842614
0.03698304 -0.029354136 -0.054117285 0.00614201 -0.006943418 -0.011529194 0.038061887 -0.0175483
-0.046281982 0.024121962 -0.06550576 -0.05455205 0.06345764 0.050370336 -0.023006955 -0.025279902
-0.0032881561 -0.040546756 0.09136406 -0.017309653 -0.009264212 -0.007610108 0.013038813 0.027638951
-0.035744023 -0.003676779 0.044292513 -0.026488952 0.03268859 -0.028012944 0.0074022217 0.0145632755
-0.0072591295 0.018349363 0.050732277 -0.018599035 0.05674465 -0.003952409 -0.050761584 0.018911649
-0.032642126 -0.043684207 0.013702659 -0.061046418 0.040852774 -0.00033791544 -0.0102161355 -0.0063110613
0.019901251 -0.07208427 -0.017125122 -0.049327936 0.047583003 -0.017756745 0.015462041 0.005505535
-0.06434141 -0.006653807 0.008855401 -0.07930922 0.0069287797 -0.06462361 0.07474016 0.01059448
0.044347744 -0.005435683 0.046846632 -0.08032264 -0.04084387 -0.050062682 -0.007385942 0.038275346
0.01669856 -0.080792494 -0.06999886 -0.013133359 -0.031703874 0.009638932 -0.039062425 -0.012942248

network_body._body_endoder.seq_layers.4.weight f4 [256, 256]
00000000: fb44 943d 2219 47be c501 d3bd 51d4 f1bd
00000010: 0bf8 35be d502 2d3d 8261 abbd 7f77 b93d
00000020: e2c3 1abd 3f5b 9abd b96a eabc 5cf3 cc3d
00000030: 0831 ecbd 34ed 92bc cc3d 82bb 9663 0cbc
00000040: 9847 56bd c88a d23c ce7b 04be e8ce 0e3b
00000050: b5b8 44bd 9f00 c93c 8004 b23c 7abb 23bb
00000060: ba89 2abd 3ca0 fb3d 4675 b7bd 4de9 e93d
00000070: 4889 5b3c d51c abbb 9c51 d4bc 1763 29be
00000080: 8b4f 63bd 9642 08be c1dd 8dbd 3edf a33d
00000090: eb4a c33c 93a4 13be 5266 923d 950a 8c3c
000000a0: bde0 53bd a827 0fbe b7c8 98bd 1bf0 403d
000000b0: e43e b73d b37c 943d 6b69 e73c 2128 053d
000000c0: 864a 593c 349b f5bd 1404 43be 43af 7cbd
000000d0: cb6f c4bd eefb bfbc cabd 15be 7b7a 18be
000000e0: ea96 79bb c103 623d bff1 02bd c5bb c93d
000000f0: c916 923d c0b7 233e b6b3 74bd 05d7 763d
00000100: 0db2 36bc 7b5f 1d3e 0458 56bd 5f62 db3d
00000110: 7efe a93b 97b0 3abb 178b a2bc 2f77 063d
00000120: 8f12 49bd fb1f 0c3d 92b3 8bbc 0d44 6cbd
00000130: 9c37 dd3c 6cf5 40bd b4ea ad3b db5f 39bb
00000140: 42e4 9d3d d163 31bd b6c4 97bd 8f6c 863d
00000150: 071e 303e 623f 493c 689f 593d 735d d33d
00000160: 8660 df3d 321a d7bd afca 573a 7ccb 9f3d
00000170: 5e1b 683c eac8 77bd 9749 2ebd d92a 2cbd
00000180: 89f9 31b9 db7a b5bb 7a52 98bd 9148 c7bd
00000190: a9f9 3e3d 744a 3f3c 968d a03d 5c9c 23bc
000001a0: 0ca7 963c ea1e 163e 9951 d43d 1988 bb3b
000001b0: a5ac 063d a6d0 fa3a 3a37 56bd 4ce6 0bbe
000001c0: 36c4 42bd da02 a63c 07d2 923b d7d8 bfbd
000001d0: b927 82ba c97b 53bd 2f18 fc3d 1d31 623d
000001e0: 6e96 6f3c 1114 61bd 78f7 ad3d 5f90 843c
000001f0: fa85 573d 6ecc 033d 8307 78bd a221 04bc
00000200: 3dff b9bc bb4a a1bc dc5c 03be 3d68 253c
00000210: eae8 c0bc 2812 97bd c265 e9bd 9f13 a83d
00000220: 114a 63be 9df1 8b3d 2447 d23d 3a3b c13d
00000230: 985c 3fbc 90f7 d13b 58db 493d 05f2 5f3d
00000240: 876e f83c 00ca 0c3c a42b 843c 767b 8bbd
00000250: 6d5b c9bd 6dff d03c 6374 413a 5019 fc3d
00000260: 3c78 71bd 8fd2 d73d 0fde 1ebe 5ea7 453c
00000270: 9fd8 183e 431f 28bd 1aaf 64bd cd2e 123e
00000280: 799e 04be 016c 4c3d b01d 2cbd 44ae b03b
00000290: bf8f 573d 10fc 09bd d728 303d 8c8b e6bc
000002a0: 4217 41bd 9771 1b3d 4bb2 d0bc b1d8 e63d
000002b0: bf28 a73d dc5e f03d ec6a 0f3d 02db 84bd
000002c0: 7b27 efbd 4579 8f3d 9a53 2e3c 939c 08bd
000002d0: 22ce 51bc 1a08 a33d 30d1 43bc 938b 143e
000002e0: 4943 79bd 5da4 02be 061d f83d ac90 7cbc
000002f0: 7c9c 073d 253c adbd 30f4 57bc 2f5a 80bd
00000300: 5602 44be 5fe7 0ebe a2eb fcbd 7b69 083d
00000310: 5243 dabb 3371 913d 6394 96be 6c3e acbd
00000320: 31eb 133d b662 2bbc 1567 503d b341 42bd
00000330: 201a dcbc b659 1b3d 2c62 a83d e43e 49bc
00000340: 0b93 cd3d 9590 7fbd 3833 e9ba d72c a8bd
00000350: 8c47 dcbd ead4 dbbd 2f4e 90bc 605e 6238
00000360: e1d4 80bd 8140 33bd aeb5 17bd 5670 573b
00000370: f2d5 47be e7c2 0f3e 9eb5 69bd 5ecb e1bd
00000380: 1855 103e b72d 9c3d 934a 283d 66d2 aa3d
00000390: f51d e53d 6acf 20be 1e3c a63c 381e 2abd
000003a0: abbb 163e f106 02bd 3c1c 87bd 4620 eb3d
000003b0: cb52 5cbd 8954 52bb 1e05 54be 335f 163c
000003c0: 0d2d bd3d 4d7d acbd 2297 26be 64f1 92bd
000003d0: 9084 413c 8599 00bd 0f40 00bd 106c 013d
000003e0: be41 d63c b8b1 47bd 1cdf 9c3d 5695 803d
000003f0: 919a 78be c6a9 653d c934 25bc 2432 90bc
0.072397195 -0.19443181 -0.10303072 -0.11808074 -0.17770402 0.04223903 -0.083682075 0.09055995
-0.037784465 -0.07536935 -0.028615342 0.100073546 -0.115327895 -0.017935373 -0.003974652 -0.008568665
-0.05231437 0.025700942 -0.12937853 0.0021790806 -0.048027713 0.024536429 0.021730661 -0.002498357
-0.041635253 0.12286422 -0.08957915 0.11421452 0.01339943 -0.005221943 -0.02591782 -0.16541706
-0.05549578 -0.1330665 -0.06927062 0.080015644 0.023839435 -0.14418249 0.07148422 0.01709489
-0.051728 -0.13979971 -0.07460158 0.047103982 0.08947542 0.07250347 0.02824851 0.032508973
0.013262397 -0.11992493 -0.19044524 -0.06169058 -0.09591635 -0.02343556 -0.1462318 -0.14890473
-0.0038084337 0.05517936 -0.03196883 0.09850267 0.07133252 0.15988064 -0.0597417 0.060263652
-0.011150849 0.15368454 -0.052330032 0.10712122 0.0051878085 -0.0028486603 -0.019841714 0.032828506
-0.049089964 0.034210186 -0.0170534 -0.057682086 0.027004056 -0.047109053 0.00530752 -0.0028285894
0.07709552 -0.043308083 -0.074105665 0.06563675 0.17198955 0.012283178 0.053130537 0.103205584
0.10907082 -0.10503043 0.00082318013 0.078024834 0.014166681 -0.06049434 -0.04255065 -0.04203305
-0.00016972994 -0.005538327 -0.07437606 -0.09730638 0.046624813 0.011675466 0.078395054 -0.009986009
0.018390201 0.1466023 0.10367126 0.005723011 0.03287949 0.0019135668 -0.052298762 -0.1366207
-0.047550403 0.020265032 0.0044806036 -0.09367531 -0.0009930051 -0.051631723 0.123093 0.05522262
0.014623268 -0.054950777 0.084944665 0.016182123 0.052618004 0.03217738 -0.06055404 -0.008064659
-0.022704715 -0.019688955 -0.12828392 0.010095653 -0.023548562 -0.0737651 -0.11396362 0.082068674
-0.22196223 0.068331935 0.10267475 0.09435125 -0.011679791 0.0064076856 0.049281448 0.054674167
0.030326141 0.008593082 0.01613409 -0.06810658 -0.09831891 0.025512422 0.00073797087 0.123095155
-0.058952555 0.10538208 -0.15514396 0.012063829 0.14926384 -0.04104544 -0.055831052 0.14275666
-0.12951078 0.049907688 -0.0420205 0.005391868 0.05262732 -0.03368765 0.043007698 -0.028142713
-0.04714132 0.037950125 -0.025475642 0.11271799 0.081620686 0.11736843 0.035014078 -0.06487085
-0.11677452 0.07005552 0.010640049 -0.033352446 -0.012805494 0.079605296 -0.01195173 0.14506368
-0.060855184 -0.12758012 0.12114911 -0.015415352 0.03310822 -0.08458737 -0.013180777 -0.06267201
-0.19141516 -0.13955449 -0.12349631 0.03330372 -0.0066608572 0.07101669 -0.29410085 -0.084103435
0.036112968 -0.010460546 0.050879557 -0.047425937 -0.026867926 0.037927352 0.0822185 -0.012283061
0.10037812 -0.062393744 -0.0017791754 -0.082116775 -0.10755834 -0.107339695 -0.017615406 5.3970492e-05
-0.062906034 -0.043762688 -0.037038498 0.0032873354 -0.19515207 0.14039193 -0.05705797 -0.11025117
0.1409496 0.07625907 0.041086745 0.083409116 0.111873545 -0.15704122 0.020292338 -0.041532725
0.14720027 -0.0317449 -0.06597182 0.11480765 -0.053789895 -0.0032093844 -0.20705077 0.009177971
0.092371084 -0.08422337 -0.1626859 -0.07174948 0.0118113905 -0.031396408 -0.03131109 0.031597197
0.026154395 -0.04875347 0.07659742 0.062784836 -0.24277712 0.05607011 -0.010083386 -0.017602034

network_body._body_endoder.seq_layers.4.bias f4 [256]
00000000: 54ce 95bd 52df edbc a407 9dbd 6773 eebb
00000010: 1d83 103d 2b52 443c ab06 fb3c b75d cd38
00000020: 15bb 91bd 2fe7 03bc e897 013d 17cc 243c
00000030: eac5 ae3c 450c c9bd d020 3d3d 022f 283d
00000040: 6cf0 983d ad03 5bbd cc6a b03c 22c6 91bd
00000050: c0b8 cfbd 3844 9b3d 610d 163c e105 813c
00000060: 23e1 e4bd e5c6 e23d 990a 20bd a813 5d3c
00000070: c239 153d adc6 77bd 357b 93bc dae7 34bd
00000080: a334 39bd d3a9 34bc ccb5 9e3c ae34 74bd
00000090: 5e21 96bc 8592 60bd 8c95 bf3c 6142 cf3c
000000a0: 813f 69bb c6af 8dbc e441 5b3d 48e6 703d
000000b0: 2bd5 8abc 8f90 b43d c234 0e3d ab82 6b3c
000000c0: 18ed ac3b 4dba 29bd 3ae4 ff3c fcf9 d7bb
000000d0: c6e3 87bd e56d bdbb a195 023d cb61 d73b
000000e0: e7dc 47bd d93f 7cbd 3e85 5cbc 5bd8 113d
000000f0: 33ff 20bd 819a afbc 0583 053d 101f 6abb
00000100: 38be 8ebb fb64 563c 64a2 863d 2f53 df3d
00000110: 55f4 9cbd 2156 0fbc 012c 2dbd cb3f e33c
00000120: c21f 503d 5787 8cbb fc9e b83d 1237 cd3c
00000130: 99d7 433d b0fe 02bd c619 43bd 56ab bebd
00000140: b34b 14bc 5697 603b ca4b 5f3c 1257 29bd
00000150: e7a7 9f3c 5823 533d 367b 403a 3c0f ce3c
00000160: 877e ac3c 953a 0dbd ed4d 1abd 05ad 3a3d
00000170: b155 67bd abf2 42bd e9c7 0abd 3de2 003d
00000180: 715e 1f3d 5b95 b6ba 2c5e 953d f1f6 ca3c
00000190: 66dd 03bd 56e5 e9ba 9b97 cfbd 0988 a4bd
000001a0: 34a8 dcbc 6c1b 193d f881 a3bc a4ac a0bc
000001b0: b5fe 5e3d 189d b0bd 971b 9dbd 353d 5e3d
000001c0: 6006 493d b2dc 213d e7e3 8fbb 1f5e 30bd
000001d0: f9a8 10bd 69e2 073c 54fc 4f3c 61fa 9abc
000001e0: da79 1dbd a43c 6c3c 7d3e 81bc 0193 133d
000001f0: ef1d 7fbc ce6e 4cbb e734 e43d 9a5a adbd
00000200: a2cf e3bb ae82 5abc b729 6dbc 6252 a73c
00000210: 2558 a23c fd25 023e b68c 253a 44ae 8e3d
00000220: 310c 373d 372f 92bd dcd4 0e3d 9105 b2bc
00000230: 0ca9 0f3d 2e48 68bc 6142 8d3c 6b3b de3c
00000240: 4a53 7a3c 3a21 8a3c 4096 7b3d 78c8 2e3c
00000250: 3454 ac3d eb53 80bd c7b3 ab3c 59e7 4abc
00000260: 68d4 4fbd 1d50 ac3c bba6 003d d490 bcbc
00000270: a4e4 5fbd f1d7 62bb f3c0 dc3c 77a7 c13b
00000280: 2d25 a53c 4071 9a3d f4eb 143c c2de 06bc
00000290: 8f57 3ebc 7a01 7ebd c630 cf3c 2979 9ebd
000002a0: 9458 6abc d781 44bd 9c22 b13d 2a49 52bd
000002b0: d18d 083d ca90 f9bc 09f6 c83d 6578 053d
000002c0: 4d76 7b3c 4cec 67bb 49b5 b8bc dade a83d
000002d0: c423 643d acc1 1b3d 1a85 853d 7f02 6ebb
000002e0: 32e8 53bd 6703 e6bc ebb0 b8bb 0f46 f9bb
000002f0: 0efb 29bc 769c e83b 5b72 6f3c 8d0b 3b3d
00000300: eefa 9ebd aac7 843c 0951 a6bd ddcc 99bc
00000310: cdf4 a1bd f311 b73c f892 0b3d 1318 2c3d
00000320: ea63 693d 3103 82bc f4b3 68bd 3f9c 8abc
00000330: ba99 733d 4c8f a2bc 14e6 2fbd 0dbb a63c
00000340: 3abf 89bd 774a 09bb bf19 88bc cde6 c13c
00000350: 004d bf3d 6b45 773c 6274 dbbc f03c 24bd
00000360: 67d3 653c e113 143d 5f2e aebc ee38 40bd
00000370: 50d5 7cbd b76d 7d3d 65cc bcbd daca 1d3d
00000380: 9fc8 9dbb 30b8 953c 0bdb 273d 796c 22bd
00000390: 9af3 993d c63b e739 1a3a 51bd 0ac6 45bd
000003a0: 91a1 ed3c fea5 5cbd 6a06 d13c 9c75 dabd
000003b0: aeec efbc 0731 d6bc f7ce 4ebd 7fcb ec3d
000003c0: d0cf 8abd 335c 92bd 580e 86bc 7bd8 2bbd
000003d0: 38af 213d 8b3e c63c 1bc0 ec3d d341 c03c
000003e0: 916c 3fbd f654 bbbc 971e ef3c 5fe5 49bd
000003f0: e83c 1c3d fc7b c53d 1c11 383d 27bd 0ebd
-0.073147446 -0.029037151 -0.07667473 -0.0072769406 0.03528129 0.011982481 0.030642828 9.7926175e-05
-0.07115761 -0.008050724 0.03163901 0.010058424 0.021334607 -0.09816793 0.04617387 0.041060455
0.07467732 -0.053470302 0.0215353 -0.07117869 -0.1014266 0.07581371 0.009158463 0.015749874
-0.11175754 0.11073092 -0.039072607 0.013493456 0.036432035 -0.060492206 -0.018003086 -0.044166423
-0.045216214 -0.011026817 0.019373797 -0.05962055 -0.018326458 -0.054827232 0.02338674 0.025300207
-0.003559083 -0.01729573 0.053529635 0.058813363 -0.01694735 0.08816635 0.034718283 0.014374415
0.005277287 -0.041437436 0.031236757 -0.0065910798 -0.06635241 -0.0057809227 0.03188098 0.006572937
-0.048794653 -0.061584327 -0.013459502 0.035606723 -0.039305877 -0.021435978 0.032595653 -0.003572408
-0.004356172 0.013085599 0.06573942 0.10904538 -0.0766379 -0.008748562 -0.042278294 0.02774038
0.050811537 -0.0042885947 0.09014699 0.025050674 0.04781303 -0.03198117 -0.047632 -0.093100235
-0.009051251 0.003426989 0.013628909 -0.041342802 0.019489242 0.05154738 0.00073425786 0.025153749
0.021056427 -0.034479696 -0.037671972 0.04557516 -0.056478206 -0.047594707 -0.033882055 0.031465758
0.038908426 -0.001393001 0.072933525 0.024775954 -0.032193564 -0.0017844837 -0.10136338 -0.08033759
-0.026935674 0.037379667 -0.019959435 -0.019613571 0.054442126 -0.08623713 -0.07671278 0.05425759
0.049078345 0.039517112 -0.0043911817 -0.04305851 -0.035317395 0.0082937265 0.012694437 -0.018918218
-0.038446285 0.014418755 -0.015776867 0.036028866 -0.015571102 -0.0031193974 0.11142903 -0.084645465
-0.006952242 -0.0133368205 -0.014475278 0.020425025 0.019817421 0.12709804 0.0006315218 0.06966832
0.04468936 -0.07137912 0.034870967 -0.02173117 0.035073325 -0.014177365 0.017243566 0.027127942
0.015278647 0.016861547 0.061422586 0.010667913 0.08414498 -0.06266006 0.020959748 -0.012384259
-0.050739676 0.021034295 0.031409007 -0.023018278 -0.054661408 -0.0034613574 0.026947474 0.005909856
0.020159328 0.07541132 0.009089459 -0.008231821 -0.011617555 -0.062013127 0.025291812 -0.07737953
-0.014303345 -0.047975387 0.08649179 -0.051339306 0.03333837 -0.030464549 0.098125525 0.03258552
0.015348029 -0.0035388647 -0.022547381 0.082456306 0.05569817 0.038026497 0.06519528 -0.0036317406
-0.05173511 -0.028077794 -0.0056363246 -0.0076072286 -0.0103747975 0.0070987297 0.014614667 0.045665313
-0.07762705 0.016208488 -0.08120925 -0.018774444 -0.0790802 0.022347426 0.034075707 0.042015146
0.05698005 -0.015870662 -0.05681224 -0.016920207 0.059472777 -0.01984372 -0.04294403 0.020352865
-0.06725927 -0.0020948926 -0.01661384 0.023669625 0.093408585 0.015092234 -0.026788894 -0.040097177
0.014027453 0.03615177 -0.021262346 -0.046929292 -0.06172687 0.06187221 -0.09218673 0.038523532
-0.0048151757 0.018276304 0.04098038 -0.03965423 0.075171664 0.00044104288 -0.0510808 -0.048284568
0.029007705 -0.05386924 0.025515754 -0.106669635 -0.029287662 -0.026146425 -0.050490346 0.11562251
-0.06777918 -0.07146492 -0.016364262 -0.0419545 0.039473742 0.024199745 0.11560079 0.023468887
-0.046734396 -0.022867661 0.029189391 -0.04929101 0.038144022 0.09642789 0.04493819 -0.03484836

action_model._continuous_distribution.log_sigma f4 [1, 4]
00000000: 7895 1e3e 2dc8 d03e 52b5 643e 5116 ed3e
0.15486705 0.40777722 0.22334793 0.4630609

action_model._continuous_distribution.mu.weight f4 [4, 256]
00000000: edcd 653d e490 4bbd 926f 3dbd ec15 0fbb
00000010: 27e3 d6bd 78ec b9bd 840c cf3d e77c 51bd
00000020: 374a 353d 6af2 10be 05bb 1e3b 6281 80bd
00000030: be93 0a3d a700 d33b 6e69 403d 1ab1 8c3d
00000040: 953c 00bd 04be 01bd aac7 b2bd e964 99bb
00000050: 44d0 113c 1bfa 11bd f42a 873c 4960 8ebc
00000060: cf91 5dbb 551d 4d3c 3c9f 193d fb0e 7c3d
00000070: 4a4d 7fbd f820 58bd 87a0 87bd 3c9b b03c
00000080: 38c4 283d a937 03bd 9ee7 7fbd a0ba 5c3d
00000090: 08a4 81bc b8de e33c 6db5 0bbe c566 c1bd
000000a0: e42c efbd bdfb f5bc 8514 223d 8476 edbc
000000b0: a3ce e4bd 7ff5 78bc 732e 43bd 0db7 a33d
000000c0: 7f92 963d fe41 983d 7c6e 5b3d c6b3 173d
000000d0: 1bad 4839 a9e3 ae3d 6041 8d3d e58a 243d
000000e0: 7580 9cbd a252 0ebc 1e2d 9ebd 349d c03d
000000f0: 1d12 333d 8be8 9a3d a3d0 97bd 358f 903d
00000100: 29ac 503d d8ff e73d 188e 66bc 00bc aa3c
00000110: 7040 99bc 7470 e13d e80c 223d 778a 0b3e
00000120: ec17 a4bb ca79 813d 8785 01bd 8310 943b
00000130: fc1a 05be 7d27 293d 5ba1 f83d a134 a03b
00000140: a343 933d cf9b d63d 9fc3 d23c 7ec8 3d3d
00000150: 6ec7 39bd 5d6c cf3d 4847 b4bd 4b63 88bd
00000160: c796 383d a89e 5b3d 1948 98bc 19b9 9cbd
00000170: 4e25 113c a789 823c a9cf 87bc 63cd 253c
00000180: 7dad 8b3c 70bf 203d c839 cfbd ae3a 4d3d
00000190: fee5 ba3c f7a0 a2bd 4fce ebbc cb6a 1f3c
000001a0: 699f 03be 0387 6bbc 1926 96bd d952 3b3d
000001b0: 8cad ecbc 7c68 06bc eb2c 9b3d e6de 2c39
000001c0: fbd8 333d e16c 1dbe 80f5 a2bd cde1 30bd
000001d0: 6388 ecbd f7f7 563d 2052 923d 356a 14be
000001e0: 3798 193d fa73 823d e74b 1b3d e99a ff3c
000001f0: ef40 b03d 28ca 72bd 6a26 833c 6249 4cbd
00000200: c7b0 653d 7027 693d 5b59 4cbd 9adf b7bd
00000210: 975d edbd ad47 1b3d b6ea 48bd 110b bb3c
00000220: 9288 b2bd 3055 903c ebfb 023e 0d84 ec3d
00000230: 19a3 61bd 2d2c d4bd dc2e ee3d bd59 a2bd
00000240: 4c1b adbd 3919 b6bd 6e21 c93c b3a3 343d
00000250: 14c8 ea3d d620 b23c 304f 87bd 1b33 2b3d
00000260: afc0 86bd df17 febd 3e24 40bd 1984 68bd
00000270: 464d 7e3d 1052 febd 16ac 59bd 6bac 9abd
00000280: 13d5 b4bd 4dfb 32bd 82f3 c1bd 2293 873d
00000290: 12d9 e5bd adad 91bd 18c0 103b ec9e eabc
000002a0: d4f4 62bd 1f54 703c cfd3 c63d b9ac 00bd
000002b0: 3d85 54bd fe21 5b3d c4eb 11bb 9a2b bebd
000002c0: db10 26bc 645f 693d d845 883d 3ee7 b13c
000002d0: 2ea5 8dbd 37da 4e3d a7f1 243d 2758 a83d
000002e0: 845a ea3c 954f b5bb 331d babd e423 5b3d
000002f0: 822d ebbd 7fd0 ec3d 4049 903d 04ba 083d
00000300: 3e18 b23c c9c4 943d bee3 79bd 8788 cb39
00000310: 82cc 053d dc97 a6bd dbee a1bd c089 f53c
00000320: 0189 81bd 59d8 dd3b 9c9f 08bd a45c 463d
00000330: 93db ecbc b89d 973c ef53 0b3e 6085 d2bd
00000340: 7935 81bd 0baa 90bb 9b5e 993d f104 173e
00000350: ace2 723c 4e0b e0bd d75e f3bc 90b5 63bd
00000360: 1cae f43c d950 e53d 2373 c2bc b064 7d3d
00000370: 8b12 1bbd a408 033d fda2 b03c eb72 9abd
00000380: f3ab 5ebd 55ca b7bd bb13 9a3d 4086 08bd
00000390: 1441 353d 251f 34bd 163f 79bd 6f28 52bd
000003a0: 01db dfbd 133d 063d de1a fe3d 6822 e4bb
000003b0: 4abd 433d 863d ddbc bef5 40bd eb5f 95bb
000003c0: f5e2 8d3c caad f33c ee67 c7bd 01f0 e9bb
000003d0: cd4c 90bd 04ef d03d c408 a0bc 73e8 ac3c
000003e0: 40fe 8dbc 23e6 c8bd 67aa 893d 5bb4 6f3c
000003f0: ec2b 6e3d 28f6 b73c 81d7 673d 6e2f 353d
0.05610459 -0.049698725 -0.04624898 -0.0021833135 -0.104925446 -0.09078306 0.10109809 -0.051144507
0.04426023 -0.14154974 0.002422036 -0.06274678 0.033832304 0.0064392867 0.046975546 0.06869717
-0.031307776 -0.031675354 -0.08729489 -0.004681219 0.008899752 -0.03563891 0.016499974 -0.017379897
-0.0033808833 0.0125192 0.037505373 0.061537724 -0.062329568 -0.052765816 -0.06622415 0.021558397
0.041202754 -0.032035504 -0.062476747 0.053888917 -0.015825287 0.027816162 -0.13643427 -0.0944343
-0.11678484 -0.030027265 0.03957035 -0.028987177 -0.11172225 -0.01519525 -0.04765172 0.079938985
0.07352161 0.07434462 0.053572163 0.03703668 0.00019137973 0.085395165 0.06897235 0.040171523
-0.07641689 -0.008686693 -0.07723449 0.09404984 0.043718446 0.07563885 -0.07412841 0.070585646
0.050945435 0.11328095 -0.014071964 0.020841599 -0.018707484 0.11007777 0.03956309 0.13627039
-0.0050077345 0.063220575 -0.031621482 0.00451857 -0.12998575 0.041297425 0.12140151 0.0048890864
0.07190635 0.10478937 0.025728045 0.046333782 -0.045356207 0.101280905 -0.08802658 -0.06659564
0.045065667 0.053618103 -0.018589066 -0.07652492 0.008858992 0.015934778 -0.016578512 0.010119769
0.0170505 0.03924507 -0.10118443 0.05010479 0.022814747 -0.07940858 -0.028784899 0.009730051
-0.12853779 -0.014375451 -0.07331485 0.045733307 -0.028891347 -0.008203622 0.07576927 0.00016486234
0.0439081 -0.15373565 -0.07956982 -0.04318409 -0.11549451 0.05248257 0.0714457 -0.1449364
0.03749868 0.06369777 0.037914183 0.031201797 0.08606135 -0.059274822 0.016009528 -0.04987467
0.05607679 0.056922376 -0.049889904 -0.089781955 -0.115901165 0.037910152 -0.049051963 0.022832425
-0.08717455 0.017618746 0.12791412 0.11548624 -0.055087183 -0.10359988 0.116300315 -0.079272725
-0.08452472 -0.088915296 0.024552073 0.04410143 0.11463943 0.021744173 -0.06606901 0.041796785
-0.0657972 -0.12406897 -0.046909563 -0.056766603 0.062085412 -0.12417996 -0.05314263 -0.07552417
-0.08829703 -0.04369669 -0.094702736 0.0661986 -0.112230435 -0.07113204 0.0022087153 -0.028640233
-0.055409268 0.0146684935 0.09708368 -0.03141472 -0.05188488 0.053499214 -0.0022265771 -0.0928566
-0.010135855 0.056975737 0.06653947 0.02171671 -0.06916271 0.050501075 0.04026952 0.08219939
0.028607614 -0.0055331686 -0.090876006 0.053501025 -0.11483289 0.11563205 0.07045221 0.033380523
0.021740075 0.07264096 -0.061008207 0.00038820898 0.032665737 -0.081344336 -0.07906886 0.02997291
-0.063249595 0.0067701754 -0.03335534 0.048428193 -0.028913295 0.018507823 0.13606237 -0.102793455
-0.06309027 -0.004414802 0.07488748 0.14747979 0.014824551 -0.10939656 -0.02970831 -0.055593073
0.029868178 0.11197061 -0.023736542 0.0618636 -0.03785948 0.031990662 0.021562094 -0.0754145
-0.054363202 -0.08974139 0.075232945 -0.033331156 0.044251516 -0.043975014 -0.06085118 -0.05130809
-0.109304436 0.03277309 0.12407468 -0.0069621094 0.047787942 -0.027006876 -0.047109358 -0.0045585535
0.017320136 0.029745955 -0.0973662 -0.0071392064 -0.070458986 0.102018386 -0.01953543 0.021106934
-0.01733315 -0.0980952 0.06721955 0.014630402 0.058147356 0.022456244 0.056602005 0.044234686

action_model._continuous_distribution.mu.bias f4 [4]
00000000: b577 ec3a 361c 303d 9212 04bd 3eee c23d
0.0018041047 0.042995654 -0.032244273 0.09518097
