Assets/brain/ArmAgent-42499526.onnx (onnx, 77535 bytes, 9 tensors)

network_body.observation_encoder.processors.0.normalizer.running_mean f4 [7]
00000000: 92b5 1442 b293 f8b5 a7aa 3e39 b310 8037
00000010: 1417 afbd 13e1 bf40 3aba 013f
37.177315 -1.8520425e-06 0.00018183385 1.5266565e-05 -0.08549324 5.996225 0.50674784

network_body._body_endoder.seq_layers.0.weight f4 [128, 7]
00000000: 35c5 123c 8f28 033e 66aa fbba acf6 1ebf
00000010: b4f2 833e ca4e 47bf 5991 14be 2bcc c0bd
00000020: d25a 823e 11fd a8be 595b 2cbe fab6 aa3d
00000030: 723a 553e 4db3 a23e 10c6 733e 9c91 c5be
00000040: 6d5d 1a3f 47c0 a3be 1f30 503e 31b4 373e
00000050: 0e49 01be aa22 c53e 2f8c 24be cfc2 46bf
00000060: 426b c13c 5633 a43d db52 89bd 5143 c93e
00000070: 7e70 10be f3ef 843e 27ea f73d 219c 61bf
00000080: c9dc af3c 6a51 9fbb 137c 233f 836f 2f3e
00000090: 8334 c1be bad4 a03e 1ed5 c83d 47db ccbd
000000a0: 60f9 3d3e 719b 70be 1674 b43d f1d6 623d
000000b0: adaa 7d3e 4ba9 f8bd 5b55 323d b17e eebc
000000c0: 2216 1b3f e3ea 273f 2996 c4be 418e c33d
000000d0: cdf1 963e ffd6 bb3e c63a 36bd 7fc3 9dbe
000000e0: 82d9 133e e1c8 9bbe 531d 51bf 4e47 f2be
000000f0: 1e4b 17bf b9ce 19be 1ea8 bb3e f8ac 8f3e
00000100: c430 8f3e 9f03 a6bb a741 d4be a439 343e
00000110: ac8d 683e f7b2 2bbe 6b65 1abf e568 c73d
00000120: 4049 a7be 7f86 c43e 30ca c63e 79b7 95be
00000130: c6a1 b1bd 27cd 933c d4d0 f0be d627 9c3e
00000140: ff04 c93e d980 35be 1071 57bf c862 ab3e
00000150: 5525 ca3c 89f3 6ebd c6d4 153e 200f 813e
00000160: 5b33 853e e90a 063f 0e29 e53c cf26 79be
00000170: 64be 19bd ee38 ffbd dce9 d13d 51fc a8be
00000180: 55bc 373e ce31 fd3d 8e6d 0a3e 6a88 85be
00000190: 414a c4bd 7e04 0fbe 47af 4abf 926e c1be
000001a0: a32e 013d 747b 283f 661f 003f 5021 a63d
000001b0: 4559 943f c0e8 3abf 9cbc 8ebe 419d 15bd
000001c0: 5271 183f 210b 6b3e 7ee5 01bf e49d 20be
000001d0: 4ea4 babe 5e32 193f c88b 593f e921 42bd
000001e0: 4eb8 b7be 2694 e8be d515 19bf eb9d 71bd
000001f0: b1ea b9be 745f ad3d d705 bebe 7841 33be
00000200: b980 6dbe 7533 43be c20d 2cbe 6689 323e
00000210: dd7f 29bf 6042 a23d 07e4 503f 8838 c8be
00000220: 8f93 6ebf 7903 033e 8e04 02bf b19e 8e3e
00000230: fc49 213e 0091 e6be d781 053f 79f1 0e3e
00000240: f0c0 723e 8c52 d33d 2b7e 863e 48d5 70bc
00000250: 4140 2c3e d7dd 29bf 6c87 abbd 0195 8bbe
00000260: 5d69 fbbe dd6c 8c3e dc80 bc3e a4a1 aebe
00000270: 0044 973d e6e3 113e 9804 0c3f f485 863e
00000280: f0eb cd3e 2793 6fbc d2b2 d4bb b918 0cbf
00000290: 8162 a83e f2a4 d7bd 41fa 1cbe 6d6b 403f
000002a0: 2384 51bd fd28 16bf 595c 0b3e 1f95 d93d
000002b0: 06c3 b6bb d1c7 603f 91c1 c0be 060d 2fbf
000002c0: 764d ffbe 7169 273f af89 b3bd 4b44 23be
000002d0: 196b aebe a9be 05be e1c6 01bd ad79 ba3e
000002e0: 9439 813c d51d 18be 2280 db3e 0c60 f7be
000002f0: b7c1 e8be ad3b adbe 676c 8b3e fed3 92bd
00000300: fc83 20bf c3d8 bfbe 1c39 283b 3e75 e43e
00000310: 8062 c23d f2ab ebbe 08ce 143c b80d ebbe
00000320: ad56 153f 1a96 263e ef48 fa3e 3d5a 50bf
00000330: ac18 45bf 1b50 4b3e 6819 4a3e 3a34 02be
00000340: a5a8 363f b918 7f3b 94b3 fe3e 0ceb eb37
00000350: cbff c3be d555 1d3f 9e98 01be f7d2 dbbd
00000360: 4a79 29bf 79d4 96ba b47a 31bf a527 b6be
00000370: 8b69 7e3d 718e 94bf 9ceb 033d 46d5 96bf
00000380: c024 fd3d bb3e 0cbf d344 fcbe 3682 e53e
00000390: 75d1 b3bb 7627 703e 9040 f83e d4fb f83e
000003a0: dcec 443e 90b9 c83e c80a 21bf 2a4b 213d
000003b0: 5e9b 96be 0226 c73e a42f e93e b605 21be
000003c0: 448c 2cbf f310 d1be d159 1dbe 3e78 9b3e
000003d0: a0b9 d4be 4410 7c3e 1ba2 70bd 61be 173f
000003e0: 79fd 573e 4910 09be 3115 5d3e 92c3 a03e
000003f0: 664b 3bbf cc38 b93d da20 153e 1077 003f
0.008958151 0.1280844 -0.0019200563 -0.6209514 0.25771105 -0.778546 -0.1450857 -0.09413942
0.25459915 -0.33005574 -0.16831721 0.08335681 0.20823076 0.3177742 0.23806024 -0.38587654
0.60298806 -0.31982633 0.20330857 0.17939831 -0.12625524 0.3850301 -0.16069101 -0.77641004
0.023610715 0.08017604 -0.067052566 0.3930917 -0.14105412 0.25964317 0.12105208 -0.8812886
0.021467583 -0.0048620002 0.638612 0.17132382 -0.37735376 0.31412297 0.09806274 -0.10002761
0.1855216 -0.23496796 0.08811204 0.055380765 0.24772139 -0.12141665 0.043538433 -0.029113146
0.60580647 0.65592784 -0.38395813 0.09548617 0.29481354 0.36687467 -0.044489644 -0.30813214
0.14438441 -0.30426696 -0.8168537 -0.47320026 -0.59098995 -0.15020265 0.366517 0.28061652
0.27966893 -0.0050663496 -0.4145634 0.17600113 0.22710294 -0.16767488 -0.60311 0.09736804
-0.32673073 0.38383862 0.38826132 -0.2924154 -0.08673434 0.01804216 -0.47034323 0.30499142
0.39261624 -0.17724933 -0.84156895 0.33473802 0.024676004 -0.058337722 0.14631948 0.25206852
0.26015744 0.523604 0.027973678 -0.2433121 -0.037535086 -0.1246203 0.10249683 -0.33005002
0.17942937 0.12363015 0.13518354 -0.26080638 -0.09584475 -0.13966557 -0.791737 -0.3777967
0.031538617 0.65813375 0.5004791 0.081118226 1.1589743 -0.730114 -0.27878273 -0.036526922
0.59547913 0.22953464 -0.507408 -0.1568523 -0.3645348 0.5984248 0.84978914 -0.04739562
-0.358828 -0.45425528 -0.5979894 -0.058988493 -0.36311868 0.08465472 -0.3711383 -0.17505443
-0.23193635 -0.19062598 -0.16802123 0.17435226 -0.6621073 0.07922816 0.8159794 -0.3910563
-0.93193907 0.12794293 -0.507882 0.27855447 0.15750879 -0.450325 0.52151245 0.13959302
0.23706412 0.10318479 0.26268134 -0.014699288 0.16821386 -0.66354126 -0.08375439 -0.27262118
-0.49103823 0.27426806 0.36817062 -0.34107697 0.07386017 0.14247093 0.5469451 0.26274073
0.4021907 -0.014622486 -0.0064910436 -0.54725224 0.32887653 -0.10529508 -0.1532984 0.7516392
-0.051151406 -0.58656293 0.13609447 0.10624146 -0.005577448 0.87804896 -0.3764768 -0.6837925
-0.49863786 0.65395266 -0.087664954 -0.1594402 -0.34066084 -0.13061012 -0.031683806 0.36420956
0.015774526 -0.1485513 0.42871195 -0.48315465 -0.45460293 -0.33834592 0.27231142 -0.071693406
-0.6270139 -0.37470064 0.0025668805 0.446207 0.09491444 -0.4602962 0.009082325 -0.45908904
0.5833538 0.16268197 0.4888377 -0.8138769 -0.7699077 0.19854777 0.19736254 -0.12715235
0.7135108 0.0038924648 0.49746382 2.8123635e-05 -0.38281092 0.61459094 -0.12655875 -0.10733598
-0.662007 -0.0011507414 -0.69327855 -0.3557712 0.062112372 -1.160597 0.032207116 -1.1783836
0.12360525 -0.5478322 -0.4927126 0.44825906 -0.0054876157 0.23452553 0.48486757 0.4862963
0.1923098 0.39204073 -0.62907076 0.039378323 -0.2941541 0.38896185 0.4554416 -0.15724835
-0.6740153 -0.40833244 -0.15366293 0.30365175 -0.4154787 0.2461558 -0.058748346 0.5927487
0.21092786 -0.13385119 0.21590115 0.31399208 -0.73161924 0.09044036 0.14563313 0.50181675

network_body._body_endoder.seq_layers.0.bias f4 [128]
00000000: 3cc7 b3bc 587d 01bd 49e3 853c b0f6 8ebd
00000010: 596e 8b3c 93fe 88bd 00e9 d3bc 96e4 653a
00000020: e0be f7bc ebf6 3f3c 39e7 083c a8e1 273d
00000030: d466 5cbd 4261 7d3d 7aa5 a93c 273d a8b9
00000040: 4b34 263d 68ad afbb 5bdc 083e 8c54 a3bc
00000050: c8dd d5bc c957 253d 388f 85bd aede 293c
00000060: bc66 953d 9717 133d 3d61 803d fd90 45bc
00000070: 1e1b 6cbc c371 6c3d c33b 4b3d fba2 893e
00000080: 9a24 27bd fa5f 9c3b 7ecc aebd 4b5b b1bd
00000090: ea5c e5bc bc27 9ebc 0b94 b63d afc5 043c
000000a0: c957 d8bc bd10 8e3c 898d 86bd 8758 353d
000000b0: 36e4 bb3d fbf9 4ebc 6e11 57bc 7b4a b6bd
000000c0: dc63 29bd 6955 0a3e 2289 67bc a4ef 88bc
000000d0: 1aee 18ba 1648 08bd 136e 9b3c 14e6 033c
000000e0: 7316 7fbc b686 243e 8f32 a43a 1225 42bd
000000f0: 0528 483d df5c cb3d 61ce ac3d 08e4 96bd
00000100: a56d b33d a758 78bc 017d 7e3d dd6c bc3d
00000110: dd73 09bd 6372 8b3d d482 a13d 1adb a8bd
00000120: f0f3 14bd 1c05 31bc 38a7 6fbd 94fc 1bbd
00000130: 0c37 1fbd 6cf3 963c 0f2a da3d a726 c53d
00000140: b3e4 ef3c b081 bc3d 6a72 f23d d8f9 743c
00000150: 6d62 f53d 19ab b13a 50ce 803d 62f4 34bd
00000160: e38c 033d 20e0 e13b b0b0 4abc 1405 9b3a
00000170: 8fec 9fbd 5569 45bd 4b9e 6b3b 3c64 653d
00000180: be95 883c e4fc 103d 3613 033c 5d96 903d
00000190: 6013 073d 6928 14bd 61e0 9dbd ec4a 2d3d
000001a0: b2f3 de3c db97 553d e668 70bc 2353 75bd
000001b0: 29b9 443d 1a0c 64bd 6696 8f3b b685 73bd
000001c0: 41e3 243d f4d9 f63c 97f2 debb 7328 d13d
000001d0: 2ef5 2a3c 7f89 88bd a586 a5bd f737 56bd
000001e0: 76f1 89bd 521d 3d3d 87fc 393d 6f42 e8bc
000001f0: 2fd8 09bd 31f9 193d 3827 ed3d 58c6 cd3d
-0.021945588 -0.031613678 0.01634373 -0.06980646 0.017020391 -0.06689181 -0.025867939 0.00087697187
-0.030242383 0.011716585 0.008355909 0.040986687 -0.053809002 0.06186033 0.020708788 -0.0003208902
0.040577214 -0.005361248 0.13365309 -0.019937776 -0.02610673 0.04036692 -0.065214574 0.010368032
0.07294986 0.03591117 0.06268547 -0.012058494 -0.014410762 0.05772568 0.04961754 0.26882157
-0.04080639 0.0047721835 -0.085350975 -0.08659991 -0.027998406 -0.019306056 0.08914956 0.008103772
-0.026409047 0.017341966 -0.065699644 0.04427388 0.09174387 -0.012632842 -0.013126714 -0.08900925
-0.041355 0.13509144 -0.014131816 -0.016715832 -0.000583382 -0.03327187 0.018973386 0.00805046
-0.015569317 0.16067013 0.0012527275 -0.047398634 0.04886629 0.09929823 0.08437801 -0.07367712
0.087611474 -0.015157855 0.06213093 0.092004515 -0.03355776 0.06808927 0.078862816 -0.08244915
-0.03636545 -0.010804441 -0.05850908 -0.038082674 -0.038870856 0.01842662 0.10652553 0.09626513
0.029283857 0.092044234 0.11838229 0.0149521455 0.11981664 0.0013555019 0.06289351 -0.044178374
0.032116782 0.006893173 -0.012371227 0.0011827075 -0.07808792 -0.048196156 0.0035952504 0.056003794
0.016672965 0.035397425 0.008000186 0.070599295 0.03297746 -0.03617135 -0.077088125 0.04230778
0.027215812 0.052146774 -0.014673447 -0.05989374 0.048028145 -0.055675603 0.0043819426 -0.05945369
0.04025579 0.030133225 -0.0068038213 0.10212793 0.010434432 -0.0666685 -0.08082322 -0.052299466
-0.06735508 0.04617054 0.045406844 -0.02835199 -0.033653434 0.037591163 0.11579746 0.10047597

network_body._body_endoder.seq_layers.2.weight f4 [128, 128]
00000000: 8842 443d 0198 85bd 7b83 9e3d 329e 0e3e
00000010: a22e 1fbd a1fc a0bd 00e7 0ebe a26b 273d
00000020: d413 483d 03ab 5a3c 6e3c 38be faf5 2ebd
00000030: 4abf 38bd 6815 cf3d 610f e8bd 3a46 8abc
00000040: 95fd 403d ea52 90bd 6b05 823d 5f7c 693c
00000050: 044c 3f3c 56f6 3e3e 995c b33b 38ca 593d
00000060: 2b73 81bd 9bbf 923a 0b6c f3bc 1da2 643d
00000070: f094 663d 31d6 3abc 760b 75bd 4f72 b83d
00000080: 08c6 9ebc cd32 ab3d ae79 303e 94dd 9dbd
00000090: 9c02 113b f300 25bb 3ee9 92bb ac88 29bd
000000a0: ee43 9a3d fd42 f2bd 4b81 aebd 58f3 f4bd
000000b0: 3577 243d 51c7 e53a 2764 e0bc 6ade a3bd
000000c0: 30bf a13b 3f04 2cbe ea14 9ebd ffd1 5b3b
000000d0: f098 1ebe 61df da3c 7abe 153e 86ea a43c
000000e0: 1d35 10be ca99 94bc e802 c4bb 67bd 90bd
000000f0: acf2 01bd b192 cdbc 9798 343d b2d8 713c
00000100: 0fe8 fa3b 0246 81bd 8d8f 883e 0233 48bc
00000110: 56be 96bc 8bba 08bd e807 afbc 099c f2bc
00000120: cc5b 583b 56a4 b03d fed4 053c 5663 a0bd
00000130: ce05 093c 56bc edbd 2c09 f1bd 98fd 863d
00000140: b01c 89bd f9c4 de3d 7a53 40bc 5e04 1b3d
00000150: ab3d 3a3e bdc7 313d b1f0 4cbd 454c 76bc
00000160: 9273 aabd 23c6 1f3c 4bbe 15bd 734d cebd
00000170: e73d 28bc 08cc 37be 2bc6 673d 7ca3 663d
00000180: 1625 0e3e 439d 6e3c e8b0 aebd 11f6 223d
00000190: 90a1 a63c 1ca3 65bd 3025 913c 84fd 2c3d
000001a0: 20ba 793e 7ff5 a9bd 6e21 03be 0047 e5bc
000001b0: f6b6 c13d 5af5 12bd 59a9 42bd c9cb 6d3b
000001c0: 04bf 1ebe 7675 e43d deb6 38bc 4e15 83bd
000001d0: 9d3e 80be 5e22 fdbd a8ec d5bc 2eb3 13be
000001e0: 7aca be3d 3d00 f9ba 7655 87bc e98f debd
000001f0: 9536 2fbe 347b 2dbd 30f1 65bc 02eb 9f3c
00000200: 4701 35bd 0ad7 aabb 6410 b1bd 132c bb3c
00000210: c09c 7bbe 286e 90bd 5689 bf3d 02e2 35be
00000220: a67c c53d b528 123e 2e86 58bd 5df1 46bd
00000230: ce7b 49bd 30fd 02be fce2 08bd 023d 833d
00000240: 4d20 803e bf40 c8bc dbd9 8cbe c737 83bb
00000250: bc78 adbd af88 7ebd d521 cdbd 4705 c0bd
00000260: 1c42 10be f534 01bd f4cb b3bd 73b1 793d
00000270: 23d0 f8bd e391 4a3e 4293 c8bb af2c 5dbe
00000280: ff87 023d 5d30 773d 5bf7 bcbb acd6 913d
00000290: 70b1 4fbd c615 e53d e909 a8bc 394f 203d
000002a0: bfb9 23be c9fa 5b3e d6be e5bc 3a2b 1bbd
000002b0: 0d6a 70bd 0c75 74bd 6ba4 cc3d 690d 1bbd
000002c0: aee2 adbd 8dc3 afbd 807f 5dbd df0e aebd
000002d0: 2fe9 b3bd 6756 223d a1eb 983d ea52 afbc
000002e0: fd1c 4dbe fb09 cbbd 5b1e 043d 3281 08bd
000002f0: 0035 fa3c 1b94 58be 5c92 ccbc 1372 543d
00000300: c8a0 29be 728f 3c3d 6d0f 0ebe 4931 f03d
00000310: 102e 4b3c 5dcf 7b3d b9c6 90bc ba8d 3bbd
00000320: 1d9a 973e afc5 2f3c b69f f73c 2772 c43c
00000330: 5202 88bd 3cbe 813d 21c7 c7bd 2515 1fbc
00000340: 16e9 93bb b0cb 9dbc f50e 38be c3d5 17bd
00000350: b64e c1bd ec10 103d 1dee 6ebe efc1 10be
00000360: 54f1 1cbe cc8b 9fbe 48d0 3fbd a3dc d4bc
00000370: 7f63 03be 8be7 f13c 2568 803e 0e4b 95bd
00000380: e7cf 31be 23d1 06be cae5 9abc 7218 013e
00000390: 8a0d 753d 7188 b93d eb62 cc3d ff9a 6ebd
000003a0: 6fa0 47be fb5e f33c ad18 36bd e1aa 8cbc
000003b0: 2c40 02bd b465 b6bd 7ba6 5e3d 2b37 4fbe
000003c0: 043e 8bbc ebb6 f23c 2628 b0bd aac5 64bb
000003d0: 80bf 22be b8ac aebc e18c 05be 070d 12be
000003e0: 4a22 44bd 15b0 96bd a324 5fbe b417 06bd
000003f0: b701 393e f3db e8bc 52e8 2ebd 2dc3 23bd
0.04791501 -0.06523133 0.07739922 0.13927534 -0.038862832 -0.07860685 -0.13955307 0.04087413
0.048847035 0.013346436 -0.17991802 -0.04271505 -0.045104302 0.10111505 -0.11331058 -0.01687919
0.047116835 -0.070470646 0.0634869 0.014250844 0.011675838 0.18648657 0.005473685 0.053171366
-0.06320795 0.0011196019 -0.029714605 0.055818666 0.05629438 -0.011403606 -0.059825383 0.09006178
-0.019381538 0.08359299 0.17233917 -0.07708278 0.00221268 -0.0025177568 -0.004483371 -0.041390106
0.07532488 -0.11829183 -0.085207544 -0.11960477 0.040152747 0.0017530714 -0.027391506 -0.080014065
0.0049361214 -0.16798495 -0.07718833 0.0033541915 -0.15488029 0.026717843 0.14623442 0.02013136
-0.14082761 -0.018139739 -0.0059817918 -0.07067376 -0.03172557 -0.025094362 0.044090834 0.014761137
0.007657058 -0.06312181 0.2667202 -0.012219192 -0.018401306 -0.033381026 -0.021366075 -0.029615419
0.00330137 0.086250946 0.008168457 -0.07831447 0.0083632 -0.11608188 -0.117693275 0.06591338
-0.06694925 0.10877413 -0.011738652 0.03784596 0.18187587 0.043403376 -0.05003423 -0.0150328325
-0.083228245 0.009751829 -0.03655843 -0.10073366 -0.010268665 -0.17948925 0.056585472 0.056308255
0.13881335 0.014563861 -0.08529836 0.03978545 0.02034071 -0.056063756 0.017717928 0.04223396
0.24387407 -0.08298778 -0.12805721 -0.027987957 0.09458725 -0.035878517 -0.047524784 0.0036284795
-0.15502554 0.111552164 -0.011274068 -0.06400548 -0.2504777 -0.12360071 -0.026113823 -0.1442382
0.09315963 -0.0018997263 -0.016520243 -0.108672924 -0.17110665 -0.042353824 -0.014034554 0.01952124
-0.04419067 -0.005213623 -0.086457044 0.022848165 -0.24571514 -0.07052261 0.093523666 -0.17761996
0.096429154 0.14273341 -0.05286234 -0.048570026 -0.049190335 -0.12791896 -0.033419594 0.06408121
0.25024644 -0.024444936 -0.2750996 -0.004004452 -0.08470294 -0.06214207 -0.100162186 -0.093760066
-0.14087719 -0.031544644 -0.08779135 0.060960244 -0.12149074 0.19782214 -0.00612107 -0.21599077
0.031867977 0.060348857 -0.0057667918 0.071210235 -0.050706327 0.111857936 -0.020512538 0.039138053
-0.15988825 0.21482386 -0.0280451 -0.03788302 -0.058694888 -0.059681937 0.09992298 -0.037854586
-0.08490501 -0.0858222 -0.05407667 -0.0849893 -0.087847106 0.03963318 0.07466818 -0.021401841
-0.2003059 -0.09914013 0.03225551 -0.033326335 0.03054285 -0.21150248 -0.024972133 0.051866602
-0.1656524 0.046035238 -0.13873072 0.117281504 0.012401119 0.061477054 -0.017672883 -0.045789458
0.29609767 0.010728284 0.030227523 0.023980213 -0.066410676 0.063351125 -0.09754778 -0.009709631
-0.00451387 -0.019262165 -0.17974456 -0.037069093 -0.09438841 0.035172388 -0.2333302 -0.1413648
-0.15326434 -0.31161344 -0.04682949 -0.025984114 -0.12830923 0.029529354 0.25079456 -0.07289706
-0.17364465 -0.13165717 -0.0189084 0.12606981 0.059827365 0.09059227 0.099798046 -0.058253285
-0.19494794 0.029708376 -0.044457126 -0.017171325 -0.03179948 -0.08906117 0.054357987 -0.20235889
-0.016997345 0.029628238 -0.08601408 -0.0034907856 -0.15893364 -0.021322593 -0.13042022 -0.14262782
-0.047884263 -0.07357804 -0.2179132 -0.03273745 0.1806706 -0.028425192 -0.042702027 -0.039981056

network_body._body_endoder.seq_layers.2.bias f4 [128]
00000000: 8450 443d 9f96 ebbc 78f1 60bc 8c39 bd3c
00000010: fda6 cabd a547 a7bd b955 bbbc fe70 9a3d
00000020: 7732 aabd d080 323d 33a6 5abd 197d b5bd
00000030: 143e 87bc f0f6 0abc 3ff7 253d 2326 73bd
00000040: 17af 4fbd f2aa 4abd 86aa 4cbd 4d90 6fbd
00000050: a4ed 883c 8cf7 543d 24b0 0d3d cba5 77bd
00000060: 8205 3cbd 5978 91bd 0795 923d 683f d3bc
00000070: ab39 ea3c 9ea2 6c3b f023 a9bd 2b10 2f3d
00000080: c2fe b03b d4b6 55bd fc33 8d3c 2d5d 8dbd
00000090: a97e a1bd 7951 033d d98e d33c 49c8 c4bc
000000a0: 4a93 1bbd 0a7b 32bc 84d8 fb3b bdd8 98bd
000000b0: 7dec b4bb d72b 1bbc a93a 59ba d344 8abd
000000c0: d349 cc3d 24ea 5abd 35b0 963d 48e0 153c
000000d0: 2ba3 503d 0f05 f9bc ff0d 64bd fb8e dd3c
000000e0: 32c4 56bd 53de 5cbd f6ef b5bd 8f9b 2f3d
000000f0: f2a7 103a be20 cebd 052c 2dbd 8352 24bd
00000100: 2f4f cbbc 0cc1 183d c4b1 8a3d 5742 97bd
00000110: 72b8 43bc 2449 8fbd ead1 56bd 7405 81bc
00000120: 7b81 4c3d d852 a6bd 3710 aa3c ebb5 063d
00000130: fbc3 a73c 2fbb 58bd 0afc 3fbd e656 27bd
00000140: 1fcc bb3c 0a0e d6bb 4f33 ef3c 4680 053b
00000150: c826 2cbd 9185 bc3b 1c52 a73d 9889 803d
00000160: f217 3bbd 00c6 8b3d 0391 1c3d 692e 22bc
00000170: 761b 243d a056 22bd dc01 46bc 00d0 9ebd
00000180: 7af8 8bbb eaec 21bd 246f 893d 0524 cd3b
00000190: dee8 44bb f318 5e3d 6855 a1bb f538 9d3c
000001a0: b4a2 39bd f17e adbc 771a 98bb d447 2abd
000001b0: 5919 8dbd 6ab8 4c3d 0e78 503d abcd ddbd
000001c0: 7ca3 d03d 9a53 29bd 4627 83bd ab11 12bd
000001d0: 67f4 3d3d 213e 33bc ec4f bc3d afab 393d
000001e0: 2b9e f1bd cefe 4c3c d9ee 16bd 8c27 7bbd
000001f0: 663a 81bd af72 483d 4b33 b4bd 9d37 4cbb
0.04792835 -0.028758345 -0.013729446 0.02309873 -0.09895132 -0.08167962 -0.022868024 0.07541083
-0.08310407 0.043579876 -0.053381156 -0.08861751 -0.016509093 -0.008481726 0.040518995 -0.059362542
-0.050704088 -0.049479432 -0.04996731 -0.058487225 0.016714878 0.05199389 0.03459181 -0.060460847
-0.04590369 -0.071030326 0.07157331 -0.02578707 0.028591951 0.003610767 -0.08258808 0.04274003
0.0054014632 -0.05217631 0.017236702 -0.069025375 -0.07885487 0.03206012 0.025824951 -0.024021285
-0.037982263 -0.010893593 0.007685723 -0.074632145 -0.0055213557 -0.009470901 -0.0008286634 -0.067514084
0.09975018 -0.05344595 0.073578276 0.009147711 0.05093686 -0.03039792 -0.05567741 0.027045717
-0.0524332 -0.053922962 -0.088836595 0.04287296 0.000551819 -0.10064839 -0.04227831 -0.04011775
-0.024818031 0.03729348 0.06772187 -0.073857 -0.011945831 -0.06996372 -0.052446283 -0.01574967
0.04992817 -0.0812127 0.020759685 0.032888334 0.020479193 -0.052912887 -0.046871223 -0.040854357
0.022924481 -0.0065324353 0.02919927 0.0020370646 -0.042029172 0.005753227 0.08169958 0.06276244
-0.045677133 0.06824875 0.03822423 -0.00989876 0.04006525 -0.039633393 -0.012085404 -0.077545166
-0.004271564 -0.03953258 0.067106515 0.0062603974 -0.0030046026 0.054223012 -0.0049235113 0.019192198
-0.04532118 -0.021178694 -0.0046418267 -0.041572407 -0.068896 0.04998056 0.050895743 -0.10830244
0.10187432 -0.041339494 -0.06403975 -0.03566138 0.04637566 -0.010940106 0.091949314 0.045329746
-0.11797746 0.012511922 -0.036848877 -0.06131701 -0.06309967 0.048937496 -0.08798846 -0.0031161078

action_model._continuous_distribution.log_sigma f4 [1, 4]
00000000: faad b4bd 2817 6cbe 620f 33be 358d db3d
-0.08822246 -0.23055708 -0.17486337 0.107202925

action_model._continuous_distribution.mu.weight f4 [4, 128]
00000000: ffa4 9f3c 0a5d eabc f000 8b3c ca14 85bc
00000010: 4a0d deb9 8075 ad3c 7ca5 173d b529 bb3c
00000020: 1dc7 1abd 5695 513d 1686 93bd 84c3 3ebe
00000030: 9407 cdbc 8bf8 b43b 0052 5f3c d857 603c
00000040: ee88 f8bc d3d0 983b 73e9 94bd b47e 04bd
00000050: ca1d 3e3d fd30 a0bb f3f2 193c cefe 6dbd
00000060: 79a4 61bd b3aa 98bd cd48 9d3d 4630 03be
00000070: 07ee 23bd 737a 96ba b706 06bd fdc3 d33d
00000080: 73ab 823d f935 e0bd 7975 863c 0134 b0bd
00000090: 06cc 99bd 7454 863c fdcd a13d 6f14 8ebd
000000a0: a95b 30bd d712 ce3c d990 b53d 922e d6bd
000000b0: 401d f43c 2de7 fdbc c063 1d3d 5646 cb3c
000000c0: 8c65 ba3d 8992 d03b e108 c03d 4a77 8b3b
000000d0: 90eb 7a3c 7a87 963c b515 bebd 5b37 0e3d
000000e0: f502 55bd 6ec6 1cbc 4d16 4ebd dd9f b13c
000000f0: 04dd 3ebb efef 0dbe d66f 28bd 661b 36bd
00000100: 476a 91bd e882 343b 5a63 0c3d 63f0 c33c
00000110: 4931 39bd 9b8c 1cbd 7213 5cbd 06de 52be
00000120: d9b6 083d b677 afbc ff03 b63c 7b39 973d
00000130: 2ae3 483d a094 efbd 6a77 cbbc 6d1b 21be
00000140: 5695 713d 0206 5d3c 73d7 fc3b 61c3 e1bc
00000150: b4f7 333d 01f1 193d ed5e f13c f478 0e3c
00000160: 9101 6bbc e2ca 413d b2fe aa3c 33f4 523d
00000170: 4854 0cbc a19c 5ebd 789f 30be 9e66 38bc
00000180: a36e 99bd 02ae 23be 7a32 213c 47ee e73b
00000190: 99ff eabc d080 913c d8ff e0bc 3457 ff3c
000001a0: 7bb9 00bd 41ec f2bc 9455 19bc b641 b1bd
000001b0: 2768 95bb 4253 ab3d d122 cf3d 2ae9 adbd
000001c0: 6e49 853d a1ef 16be 26f0 15be 1a6e f6bc
000001d0: 5781 923c ebde 0bbe 3520 8e3d 74b1 163d
000001e0: 0779 a5bc 2f8d 6ebb d5ff 9abd 9c0d c8bd
000001f0: 2d10 8abd 01be bfbc bc4b 37bd 326f bcbd
00000200: 1a1c 2d3c 8e5f 98bd d0c3 a23c 0b93 82bc
00000210: 48c5 013d d424 553d f6a0 db3c e37f a8ba
00000220: 050f 2c3c c355 e53b d306 2e3c 4c94 ea3c
00000230: d3ca 86bc 047b 80bd 0afa 22bd 59c5 153d
00000240: 2768 1abc abe8 e93b 28a6 23bc 02a8 8b3d
00000250: 0f2d 7a3c 7abd b3bb 082b 09bd 4cad 1abc
00000260: 5c63 33bd 6dc0 37bb 2efc 953a 6d6f 3cbd
00000270: 7042 bcbc 97de a33c ba68 0e3d fdba 67bb
00000280: a694 2fbc f3d0 d8bc a145 803a aac1 043d
00000290: 88d3 26bc b286 b23c 24d2 aa3c 506e 053b
000002a0: 8ea4 ee3c 7de6 173c 8d04 1d3d 84a8 4f3b
000002b0: e829 e23b dda6 cb3c 8114 fb3c 320d 633d
000002c0: f5df a3bb 7b9d 813b 39dc 8ebd 53d1 ab3c
000002d0: 94d1 dcbc 1a00 623d 0c1c 2c3d 8994 6e3c
000002e0: 7e04 4f3d 1222 a43c 789f 9c3c 6b61 08bd
000002f0: 1163 993b a583 a73c 6709 a83b 99c7 893d
00000300: 37ae 473d 4395 1ebc fd3c 0f3c 719f 893c
00000310: 5ab4 23bc ec5a 883d 1807 9bba 0e24 c1bc
00000320: 6de1 423c 231b 6d3d ff13 1bbc 1fd7 7ebc
00000330: 8928 6b3c 808f e1bc 101b c73c fb5b 37bd
00000340: d4e5 153d d55a 91bd c918 eebb a53b c23d
00000350: 2a57 12ba 556b 8cbc f0c4 afbc cd46 18bd
00000360: bab3 55bd 3327 d8bc b7a4 6bbd dd5f 993c
00000370: a75a 90bc 0c52 bc3c e951 023d 5bb2 503c
00000380: d905 12bd deff 573d 63a1 e7ba ebbe a3bd
00000390: d026 ecbb f635 9d3a 944e aa3c 0c31 6a3c
000003a0: 8a3d 123c c0fe 08bd 6ee3 2b3c 59f4 3d3b
000003b0: 48b8 a9bc c220 b93b 3aba 103c a6a6 573c
000003c0: e2f7 6a3c f54f 203d edfe 3a3c 9f90 47bd
000003d0: d2a4 30ba ac2b 81bc 643a 4d3b f483 ce3c
000003e0: a3ad 933c 3b54 663a 676e 643d 4cff 30bd
000003f0: 7a16 dfbc 54a6 35bd 1568 d4bb 52ad 72bc
0.019487856 -0.028608818 0.01696822 -0.016245265 -0.0004235304 0.021174192 0.037023053 0.022847036
-0.037787545 0.05116781 -0.07203309 -0.18629271 -0.025028028 0.0055227927 0.01363039 0.013692819
-0.03033873 0.0046635657 -0.072710894 -0.032347396 0.046415128 -0.0048886524 0.0093963025 -0.05810433
-0.055088494 -0.07454433 0.07679901 -0.12811384 -0.040021922 -0.0011480585 -0.032721248 0.10340116
0.063803576 -0.109477945 0.016413437 -0.08603669 -0.075096175 0.016397692 0.07900617 -0.06937491
-0.043056164 0.025155468 0.08865518 -0.10458101 0.029799104 -0.030994022 0.038425207 0.024813812
0.091014 0.0063651246 0.093766935 0.0042561637 0.015314952 0.018375147 -0.09281484 0.03472076
-0.052004773 -0.009568794 -0.050314236 0.021682674 -0.0029123435 -0.13861059 -0.04112228 -0.044459723
-0.07100349 0.0027543847 0.034274437 0.023918336 -0.045213018 -0.03822003 -0.053729482 -0.20592508
0.033377502 -0.021419387 0.022218702 0.073840104 0.049044766 -0.1169827 -0.024837214 -0.15733118
0.05898031 0.013490202 0.0077161132 -0.027558984 0.0439374 0.037583355 0.02946421 0.00869583
-0.014343635 0.047312625 0.020873401 0.051502418 -0.008565016 -0.05434859 -0.17248333 -0.011254935
-0.074918054 -0.15984347 0.009838695 0.0070779654 -0.028686332 0.017761618 -0.027465746 0.031169511
-0.031426888 -0.02965367 -0.009358782 -0.086551115 -0.004559535 0.083654895 0.101140626 -0.08491738
0.06508146 -0.14739849 -0.1464239 -0.030081797 0.01788394 -0.13659255 0.06939737 0.036790326
-0.020199312 -0.003640007 -0.07568327 -0.09768221 -0.067413665 -0.02340603 -0.04474996 -0.09200896
0.010565782 -0.074401006 0.019868761 -0.015939256 0.031682283 0.052037075 0.02681015 -0.0012855496
0.010501628 0.006998749 0.010621744 0.028635167 -0.016454136 -0.06273463 -0.039789237 0.03656516
-0.009424246 0.007138332 -0.009988345 0.06819154 0.015269532 -0.005485234 -0.033488303 -0.009440731
-0.04379593 -0.0028038279 0.0011442953 -0.0460047 -0.022980899 0.0200036 0.034767844 -0.0035359256
-0.010716593 -0.026466822 0.0009786376 0.032411255 -0.010182269 0.021792743 0.020852156 0.002035994
0.0291312 0.009271261 0.038334418 0.0031686136 0.0069019683 0.02485984 0.030649425 0.055432506
-0.005001063 0.0039555407 -0.06975598 0.020973837 -0.026955403 0.055175878 0.042018935 0.014561781
0.050541393 0.020035777 0.01911901 -0.03329603 0.004680999 0.020448515 0.005128074 0.06727523
0.04875013 -0.009679141 0.008742568 0.01679966 -0.00999173 0.06657967 -0.0011827676 -0.023576763
0.011894566 0.057887208 -0.009465217 -0.015554219 0.014352926 -0.027534246 0.024304897 -0.044765454
0.036596134 -0.07097403 -0.007266138 0.094840325 -0.00055824465 -0.017141024 -0.021456212 -0.037176896
-0.052173354 -0.02638588 -0.05753013 0.018722469 -0.017621351 0.022988342 0.031816397 0.012737836
-0.035650108 0.05273425 -0.0017671998 -0.07995399 -0.0072067752 0.0011994231 0.020789422 0.01429392
0.008925805 -0.033446074 0.010491235 0.0028984754 -0.020717755 0.005649657 0.008833462 0.013162291
0.014341326 0.039138753 0.011413318 -0.048721906 -0.00067384273 -0.015767895 0.003131532 0.025209405
0.018027132 0.0008786355 0.05576935 -0.04321222 -0.027232397 -0.044348076 -0.006482134 -0.014811831

action_model._continuous_distribution.mu.bias f4 [4]
00000000: 99ef 893d 157c 98bc a7b2 4d3d 1f7a 9bbd
0.06735153 -0.018613854 0.050219204 -0.07591652

onnx::Div_51 f4 [7]
00000000: ac8f 9a42 d7dc 073b 2edd 4f3b b71b 0d3b
00000010: 42e8 8940 7895 993f b0ed 8f40
77.28061 0.0020730996 0.0031717527 0.0021531412 4.309602 1.1998739 4.4977646
