Assets/brain/SimpleArm-20499960.onnx (onnx, 82736 bytes, 9 tensors)

network_body.observation_encoder.processors.0.normalizer.running_mean f4 [15]
302.13794 186.0117 172.5994 301.29648 178.11949 182.75082 290.0281 173.28453
179.0825 29.967438 -24.256233 30.15459 -0.087285146 6.559376 0.5180221
00000000: a811 9743 ff02 3a43 7299 2c43 f3a5 9643
00000010: 971e 3243 36c0 3643 9903 9143 d748 2d43
00000020: 1f15 3343 50bd ef41 c40c c2c1 9a3c f141
00000030: 8ec2 b2bd 68e6 d140 199d 043f

network_body._body_endoder.seq_layers.0.weight f4 [128, 15]
-0.26960525 0.19394222 -0.1527775 0.1821955 -0.088849135 0.46219704 0.65455073 0.3530088
-0.1178599 0.15654063 0.035205416 0.123001605 -0.04270369 -0.05479559 -0.510789 -0.689934
-0.41276038 0.113906585 -0.45051074 -0.6822741 -0.1781387 -0.053576615 0.09362726 0.007826596
-0.06841424 -0.015286919 -0.10566412 0.116885856 -0.22191058 -0.17302279 0.018730327 0.6922064
0.49020293 -0.06444514 0.7657985 -0.11024664 0.17884499 -0.18072248 0.054704875 -0.07260014
0.11457875 0.018989215 0.20600852 0.18660519 -0.51155514 -0.12928228 0.06321094 0.11756004
0.19964261 0.57738256 0.14468978 -0.26417708 -0.09562448 0.2283122 -0.26807544 -0.0936865
-0.072716095 -0.61586064 0.101905696 0.42146048 0.8881257 0.2486353 -0.079853915 -0.09393967
0.18772143 0.09429591 -0.10313133 0.384064 0.13663018 0.11167091 0.21954152 0.02300385
-0.03724679 0.17210957 -0.67927873 0.19842415 -0.25714275 -0.09274657 -0.045455452 -0.18216783
-0.13942826 -0.07269123 -0.12913999 -0.018882578 -0.11857273 -0.038301516 0.03392789 -0.31413713
-0.07710183 -0.042195134 0.039714318 0.16736983 -0.05643854 0.046412863 0.16988178 -0.18044016
-0.42386514 0.14067467 -0.034335975 0.04128933 -0.046620753 0.06497998 -0.40643808 -0.061478928
0.77718854 -0.14906086 0.27064866 -0.040357865 -0.4026929 -0.39452985 -0.7643529 -0.26439095
0.046314847 0.049899895 0.05444507 0.1349019 0.10024332 0.45226446 -0.29487097 -0.2695564
-0.21474083 -0.1644424 0.021268493 0.5240279 0.014261457 0.17390952 0.21501982 0.25599733
-0.57969373 -0.07535844 0.21648444 0.07622747 0.30850422 0.4949604 -0.11475453 -0.3718293
-0.21484542 0.16748334 0.4209251 -0.12503551 0.15141682 -0.0230642 -0.044749957 -0.1165048
0.07920619 0.1423731 0.031580027 0.2468157 0.22505637 0.078766346 0.74787146 0.602939
-0.1982162 0.20250952 0.3310181 -0.41079777 -0.23186488 0.050230276 -0.14541416 0.19006768
0.056378845 0.24558853 -0.3446433 0.19664969 -0.17527047 0.2689569 0.6484554 -0.097639516
0.95567805 -0.08866643 -0.2223848 0.35409984 -0.4105796 -0.08541738 -0.148206 0.01897467
-0.23782673 -0.1332095 0.02464094 0.16372284 -0.3060272 -0.05396455 -0.14256375 -0.17949882
0.06760209 -0.051128384 0.2747881 0.006624245 0.13954724 -0.109746546 -0.051451083 0.20783485
0.53934276 0.24237742 0.5125076 -0.28348652 0.076105624 0.02686873 -0.062561765 -0.2863844
0.39490023 0.061258208 0.009219358 -0.075766355 -0.102537036 -0.067792915 -0.057284404 0.15287764
-0.10560329 -0.43502262 0.33290085 0.29327625 0.49511033 -0.09728813 0.12671973 0.1942755
-0.009761605 0.06348836 -0.20889199 -0.07404886 0.039474618 -0.04339595 -0.060594764 -0.19920272
0.13927315 0.8235164 -0.44352093 -0.15536843 -0.21660574 0.30893108 0.26954597 1.0652341
0.2732039 -0.09321031 -0.00077973783 -0.0043231198 -0.006729511 0.42253458 -0.16278782 -0.23277321
-0.29346338 -0.72242856 0.84959036 0.420167 -0.27112597 -0.14451225 0.02563131 0.12842721
-0.22990133 -0.19106291 -0.18417585 -0.037664767 0.17105734 0.3768341 -0.36061692 0.5369695
00000000: b309 8abe ca98 463e b471 1cbe 7591 3a3e
00000010: 89f6 b5bd 17a5 ec3e a390 273f 92bd b43e
00000020: 8860 f1bd 304c 203e 8e33 103d 44e8 fb3d
00000030: 10ea 2ebd 5771 60bd 11c3 02bf 849f 30bf
00000040: 5455 d3be db47 e93d 58a9 e6be 84a9 2ebf
00000050: fe69 36be 2773 5bbd a6bf bf3d 1f3b 003c
00000060: c41c 8cbd fc75 7abc 6e66 d8bd da61 ef3d
00000070: 873c 63be e32c 31be 5870 993c 7034 313f
00000080: e1fb fa3e d0fb 83bd 5f0b 443f fec8 e1bd
00000090: 2423 373e 500f 39be 3812 603d 62af 94bd
000000a0: 44a8 ea3d 458f 9b3c e6f3 523e 6e15 3f3e
000000b0: 47f5 02bf 9362 04be bd74 813d 51c3 f03d
000000c0: 1d6f 4c3e 58cf 133f 8f29 143e 3842 87be
000000d0: c4d6 c3bd acca 693e 2f41 89be b5de bfbd
000000e0: 2dec 94bd 0ba9 1dbf efb3 d03d abc9 d73e
000000f0: 355c 633f 419a 7e3e 738a a3bd 7163 c0bd
00000100: 0c3a 403e 371e c13d 8536 d3bd 09a4 c43e
00000110: c8e8 0b3e b8b3 e43d 7ecf 603e 9272 bc3c
00000120: 1790 18bd 7e3d 303e 36e5 2dbf b32f 4b3e
00000130: 37a8 83be eaf1 bdbd 7f2f 3abd 348a 3abe
00000140: 48c6 0ebe 24df 94bd 463d 04be a3af 9abc
00000150: 42d6 f2bd 0de2 1cbd f9f7 0a3d 95d6 a0be
00000160: 90e7 9dbd ced4 2cbd 7bab 223d ff62 2b3e
00000170: 192c 67bd 6a1b 3e3d 7df5 2d3e 4ec5 38be
00000180: da04 d9be 050d 103e e1a3 0cbd 001f 293d
00000190: 67f5 3ebd 3914 853d a718 d0be 54d1 7bbd
000001a0: d4f5 463f 69a3 18be 7692 8a3e 4a4e 25bd
000001b0: c42d cebe d1ff c9be a2ac 43bf 405e 87be
000001c0: a3b4 3d3d d563 4c3d cb01 5f3d b923 0a3e
000001d0: 5f4c cd3d 358f e73e 54f9 96be 4c03 8abe
000001e0: 05e5 5bbe 9763 28be 433b ae3c b126 063f
000001f0: e3a8 693c 5615 323e 282e 5c3e 1512 833e
00000200: cf66 14bf 8755 9abd 19ae 5d3e 261d 9c3d
00000210: 44f4 9d3e 736b fd3e 6c04 ebbd 6960 bebe
00000220: 7000 5cbe c180 2b3e 7f83 d73e 4f09 00be
00000230: 030d 1b3e 22f1 bcbc bb4b 37bd 129a eebd
00000240: db36 a23d 41ca 113e 0f5a 013d 41bd 7c3e
00000250: 2d75 663e 4050 a13d 8174 3f3f 365a 1a3f
00000260: 30f9 4abe a85e 4f3e 347b a93e 1654 d2be
00000270: fd6d 6dbe 43be 4d3d 73e7 14be 1aa1 423e
00000280: 81ed 663d 8f7b 7b3e 1675 b0be 895e 493e
00000290: 1a7a 33be b8b4 893e 2c01 263f 3af7 c7bd
000002a0: 51a7 743f bf96 b5bd d7b8 63be 934c b53e
000002b0: 7d37 d2be 4fef aebd 50c3 17be c470 9b3c
000002c0: da88 73be 1268 08be ccdb c93c f6a6 273e
000002d0: 99af 9cbe ef09 5dbd 3bfc 11be 8ace 37be
000002e0: f772 8a3d ff6b 51bd 07b1 8c3e 3210 d93b
000002f0: 79e5 0e3e ccc2 e0bd 5fbe 52bd a9d2 543e
00000300: 5e12 0a3f c931 783e b333 033f 2525 91be
00000310: 44dd 9b3d d01b dc3c 6220 80bd faa0 92be
00000320: 5d30 ca3e e3e9 7a3d ca0c 173c 642b 9bbd
00000330: f0fe d1bd 03d7 8abd 0da3 6abd f58b 1c3e
00000340: 8a46 d8bd 49bb debe fb71 aa3e 4e28 963e
00000350: 1a7f fd3e 003f c7bd d1c2 013e 28f0 463e
00000360: 24ef 1fbc 2f06 823d c8e7 55be eea6 97bd
00000370: 23b0 213d f4bf 31bd 3732 78bd ccfb 4bbe
00000380: 9f9d 0e3e f9d1 523f 2d15 e3be e718 1fbe
00000390: e5cd 5dbe 372c 9e3e ee01 8a3e 9759 883f
000003a0: 62e1 8b3e 0ce5 bebd 5267 4cba f5a8 8dbb
000003b0: 3b83 dcbb 7456 d83e dab1 26be 1a5c 6ebe
000003c0: d540 96be 14f1 38bf c17e 593f 2120 d73e
000003d0: 06d1 8abe 05fb 13be c1f8 d13c 6c82 033e
000003e0: 416b 6bbe ffa5 43be 9898 3cbe 5f46 1abd
000003f0: a829 2f3e 66f0 c03e c8a2 b8be d576 093f

network_body._body_endoder.seq_layers.0.bias f4 [128]
-0.20847234 -0.11821838 -0.029087428 -0.15224461 -0.07911109 -0.09387574 -0.052937504 -0.16455773
-0.03586616 -0.1464673 -0.18454629 0.041270327 -0.009591255 -0.19466396 -0.19229239 0.010889412
0.03060967 -0.20260651 -0.1086537 -0.1711761 -0.18895856 -0.009645524 0.10739221 -0.08003669
-0.1452665 0.0026757242 -0.1976024 0.09878757 -0.12089363 -0.022155005 0.13940883 -0.022271575
0.020824969 0.059333544 -0.21457458 -0.28861916 -0.09472152 -0.0899486 -0.20211792 -0.10586042
-0.12008943 0.034192808 0.009469206 0.10490748 -0.01258533 -0.10232976 -0.1937936 -0.010285699
-0.17088562 0.08135287 -0.105618075 -0.017835377 -0.112689294 -0.15850314 -0.12633009 -0.22482562
-0.16812034 -0.2578099 0.004282684 -0.114703394 0.05149384 0.0713774 -0.15203469 -0.15223236
-0.137218 0.024207557 0.01102606 -0.1392167 -0.024856731 -0.11152215 -0.07552713 -0.13834569
-0.14966434 -0.112528674 0.030706484 -0.009932122 -0.17756902 0.12547556 -0.025404625 -0.17972022
-0.1810427 -0.08497757 -0.17069826 -0.19909081 -0.09822274 -0.12260935 -0.050113723 -0.04863988
-0.040754434 -0.06359547 0.145429 0.0310073 -0.02724162 0.011892911 -0.11120565 -0.04418419
-0.02316065 -0.17897804 -0.020843983 0.13078968 0.02209837 0.06342799 -0.055849332 -0.07611836
-0.05305 0.04824291 -0.20306994 -0.1511251 -0.022529898 -0.07982778 -0.16260329 -0.14033745
-0.13273238 -0.092989966 -0.21271262 0.009799937 -0.09048542 -0.026701357 0.082541585 -0.19747566
-0.18468684 -0.1302401 -0.16673186 -0.003113799 0.086490676 -0.14201906 -0.025807876 0.056724463
00000000: c679 55be 7a1c f2bd c248 eebc 03e6 1bbe
00000010: ff04 a2bd ed41 c0bd ffd4 58bd d281 28be
00000020: 65e8 12bd 86fb 15be b4f9 3cbe 130b 293d
00000030: a424 1dbc fd55 47be 4ce8 44be 8169 323c
00000040: 21c1 fa3c 1578 4fbe d585 debd ca48 2fbe
00000050: 5a7e 41be 4308 1ebc 72f0 db3d 47ea a3bd
00000060: bec0 14be 345b 2f3b 4958 4abe 2351 ca3d
00000070: 1497 f7bd 6a7e b5bc 30c1 0e3e e172 b6bc
00000080: 2099 aa3c bb07 733d 70b9 5bbe e4c5 93be
00000090: 5bfd c1bd f936 b8bd 00f8 4ebe 59cd d8bd
000000a0: 72f1 f5bd c20d 0c3d bb24 1b3c bcd9 d63d
000000b0: b332 4ebc 4492 d1bd d471 46be 5985 28bc
000000c0: a4fc 2ebe 559c a63d 4a4e d8bd 7f1b 92bc
000000d0: a5c9 e6bd a64e 22be ad5c 01be b038 66be
000000e0: bd27 2cbe a9ff 83be c255 8c3b 9de9 eabd
000000f0: 34eb 523d 502e 923d fbae 1bbe cde2 1bbe
00000100: e082 0cbe ed4e c63c a6a6 343c d38e 0ebe
00000110: 58a0 cbbc ba65 e4bd f8ad 9abd 7eaa 0dbe
00000120: 9c41 19be 6f75 e6bd 2a8c fb3c 57ba 22bc
00000130: a7d4 35be aa7c 003e 5c1d d0bc 9408 38be
00000140: 4263 39be b808 aebd 86cb 2ebe 76de 4bbe
00000150: 0129 c9bd 9c1a fbbd 0c44 4dbd 9c3a 47bd
00000160: 1fee 26bd 573e 82bd 57eb 143e 0503 fe3c
00000170: d129 dfbc 7cda 423c cabf e3bd 7bfa 34bd
00000180: 67bb bdbc 0546 37be 00c1 aabc bbed 053e
00000190: a407 b53c 89e6 813d 45c2 64bd f1e3 9bbd
000001a0: f54a 59bd 5c9a 453d 91f1 4fbe 8ac0 1abe
000001b0: 9f90 b8bc bf7c a3bd 7a81 26be 9fb4 0fbe
000001c0: ffea 07be 8671 bebd 56d1 59be ea8f 203c
000001d0: 6b50 b9bd cebc dabc 900b a93d 0f37 4abe
000001e0: 8c1e 3dbe a95d 05be c2bb 2abe e110 4cbb
000001f0: 0622 b13d 726d 11be 0a6b d3bc e957 683d

network_body._body_endoder.seq_layers.2.weight f4 [128, 128]
-0.08920997 0.15559027 0.17022438 -0.11940564 -0.08590305 0.15196852 0.09931782 -0.109479174
-0.07260596 0.10246086 -0.030627172 -0.32179323 -0.018016968 0.046392474 -0.18754697 0.18214469
0.12091202 0.087316185 -0.1426386 0.031003458 -0.16318753 0.11125016 0.15631354 0.06569843
-0.06678984 0.14505534 0.0062743775 -0.33460045 -0.1301241 0.27445695 -0.03589994 -0.16664004
0.08163339 -0.03321943 0.03772232 -0.004299308 -0.033369083 -0.0024445727 0.03799777 -0.105764546
-0.03867696 -0.108711414 0.0730211 0.04874936 0.0341239 -0.22299455 -0.115001395 -0.14418486
-0.103862025 -0.266357 -0.0036245722 0.021976113 -0.08532093 -0.10744461 -0.10088552 -0.25347576
0.05749336 0.15393116 0.008123699 0.12248611 0.16888852 -0.23794544 -0.05423799 -0.13664566
0.08357705 0.134841 -0.08439641 0.04182456 -0.03703161 0.016715726 -0.12356377 0.18489663
-0.08175664 -0.12215872 0.039404955 0.0443684 -0.1922256 -0.012651223 -0.03711282 0.12678179
-0.0019485814 -0.06505215 -0.12803058 -0.085487075 -0.08993908 -0.30550852 -0.344711 0.012088521
-0.0046720207 -0.073724344 -0.087725334 -0.058628976 -0.056186166 0.11347212 -0.27769625 0.067125455
-0.21671343 -0.07407848 -0.09845166 -0.06559697 -0.1012955 -0.33132654 0.054146316 0.14626186
-0.265177 -0.036605135 0.1672717 -0.08363244 -0.030105604 0.028235018 -0.04344668 -0.0826978
-0.075459495 -0.15633462 0.15547213 -0.2411001 -0.14392059 -0.19499475 -0.09086893 -0.12623844
-0.011633151 0.2106801 0.014739206 0.08938613 0.11906449 -0.2281033 -0.15166952 0.28888875
-0.2617156 -0.18044037 0.16039877 0.058883056 -0.14118181 0.046648897 -0.115430735 0.22878557
-0.2550299 -0.16138259 -0.06592332 -0.19569163 0.038922913 -0.16612722 0.19971688 0.22170517
0.013870369 0.08085756 -0.1564108 -0.024499182 -0.009019891 -0.06754164 -0.14038481 -0.25642905
0.12723348 -0.072508015 -0.14419474 0.09636613 -0.17800413 0.093876176 -0.15520167 -0.1247995
0.0048480853 -0.32511646 -0.010928731 -0.033899676 -0.023033328 -0.07505492 -0.07155386 0.13414443
-0.121452 -0.21009469 0.21845192 -0.2457711 0.13881293 0.07481645 -0.08841523 -0.1954691
-0.1659322 -0.10875599 0.16314134 -0.09762341 0.028875073 0.22669122 0.12838887 -0.06467994
-0.011238635 -0.048175383 -0.05529006 0.19790071 0.046126127 -0.38621813 -0.059127506 0.010806458
0.12736107 0.029364338 -0.24791151 0.08451352 -0.2853767 -0.015348586 -0.31215134 0.024542188
-0.09601359 0.007320695 -0.09907917 -0.07715869 0.04570696 0.081787355 -0.28229412 0.0036915315
0.08469756 -0.2513976 -0.13805197 -0.051086023 -0.34956527 -0.031178461 0.14384425 -0.1264107
-0.118798226 -0.04050398 -0.38537407 -0.051598184 0.27375677 0.2942764 -0.0687633 -0.10805224
0.024737524 -0.07825832 -0.20212261 -0.121400185 -0.40583318 -0.14161004 -0.009751993 0.03163297
-0.04450067 0.093958005 0.16836718 0.24810098 -0.2745732 0.0031682716 -0.13083847 0.015787696
0.19475593 -0.033276137 -0.11254688 -0.050764773 -0.22446014 -0.045553252 -0.004874959 0.0036428145
-0.027410017 0.06850181 0.14989421 -0.008561674 -0.021978727 0.110344276 -0.10594235 -0.055921644
00000000: b7b3 b6bd 0e53 1f3e 4d4f 2e3e f28a f4bd
00000010: f0ed afbd a39d 1b3e 2467 cb3d 9e36 e0bd
00000020: 6fb2 94bd 00d7 d13d d6e5 fabc 15c2 a4be
00000030: 5298 93bc 0906 3e3d 500c 40be 2384 3a3e
00000040: b9a0 f73d d4d2 b23d da0f 12be f7fa fd3c
00000050: a21a 27be 20d7 e33d a810 203e e68c 863d
00000060: 1dc9 88bd 6389 143e 4b99 cd3b c050 abbe
00000070: 413f 05be 9f85 8c3e d10b 13bd b0a3 2abe
00000080: 682f a73d 1911 08bd b882 1a3d 36e1 8cbb
00000090: 05ae 08bd 2035 20bb 8da3 1b3d 159b d8bd
000000a0: bb6b 1ebd 17a4 debd 168c 953d 69ad 473d
000000b0: 81c5 0b3d af58 64be da85 ebbd 32a5 13be
000000c0: 9db5 d4bd f25f 88be 3b8a 6dbb 4007 b43c
000000d0: bdbc aebd eb0b dcbd 119d cebd 93c7 81be
000000e0: 287e 6b3d 21a0 1d3e 4319 053c ffd9 fa3d
000000f0: 1df1 2c3e f8a7 73be a828 5ebd d7ec 0bbe
00000100: 722a ab3d c213 0a3e 06d8 acbd 3b50 2b3d
00000110: 75ae 17bd 6bef 883c 000f fdbd 8b55 3d3e
00000120: 0670 a7bd 5a2e fabd 1767 213d a4bb 353d
00000130: cad6 44be 1347 4fbc 9d03 18bd 16d3 013e
00000140: 8b67 ffba 103a 85bd 731a 03be d913 afbd
00000150: fb31 b8bd 9d6b 9cbe f67d b0be ef0e 463c
00000160: c017 99bb cafc 96bd 57a9 b3bd f024 70bd
00000170: 7723 66bd 1264 e83d 342e 8ebe 1279 893d
00000180: 20ea 5dbe 75b6 97bd 06a1 c9bd b457 86bd
00000190: 0474 cfbd a2a3 a9be 87c8 5d3d abc5 153e
000001a0: 48c5 87be 44ef 15bd 4649 2b3e 7c47 abbd
000001b0: 07a0 f6bc 204d e73c 25f5 31bd 775d a9bd
000001c0: 828a 9abd 2f16 20be 1634 1f3e f2e2 76be
000001d0: eb5f 13be b4ac 47be 7d19 babd a644 01be
000001e0: f998 3ebc 86bc 573e b67c 713c 1310 b73d
000001f0: 15d8 f33d e993 69be 414f 1bbe 3ae9 933e
00000200: 96ff 85be 5cc5 38be 933f 243e 5c2f 713d
00000210: f791 10be ea12 3f3d f366 ecbd c446 6a3e
00000220: 4793 82be 7a41 25be ce02 87bd 6363 48be
00000230: a26d 1f3d 411d 2abe 9582 4c3e ae06 633e
00000240: 8b40 633c a698 a53d 272a 20be 82b2 c8bc
00000250: 2ac8 13bc 4553 8abd 09c1 0fbe ab4a 83be
00000260: 7e49 023e 157f 94bd c9a7 13be 9b5b c53d
00000270: b746 36be 2742 c03d 30ed 1ebe e196 ffbd
00000280: b0dc 9e3b aa75 a6be 6c0e 33bc 63da 0abd
00000290: 64b0 bcbc 65b6 99bd d58a 92bd 285d 093e
000002a0: d4bb f8bd 1023 57be dcb1 5f3e 6bab 7bbe
000002b0: fa24 0e3e 5e39 993d 0b13 b5bd 0d29 48be
000002c0: 21ea 29be 76bb debd 860e 273e c8ee c7bd
000002d0: 6b8b ec3c be21 683e 5f78 033e eb76 84bd
000002e0: 4022 38bc 8d53 45bd d477 62bd 7ca6 4a3e
000002f0: c0ee 3c3d 62be c5be af2f 72bd 920d 313c
00000300: f16a 023e 7b8d f03c 84dc 7dbe 6d15 ad3d
00000310: e51c 92be a378 7bbc 4dd2 9fbe b30c c93c
00000320: c6a2 c4bd 71e2 ef3b 05ea cabd 6005 9ebd
00000330: 3937 3b3d 2180 a73d db88 90be 9fed 713b
00000340: ea75 ad3d 30b7 80be 7f5d 0dbe 943f 51bd
00000350: 38fa b2be f969 ffbc e84b 133e ce71 01be
00000360: 7c4c f3bd 80e7 25bd c04f c5be 9e58 53bd
00000370: d929 8c3e 65ab 963e c6d3 8cbd 7e4a ddbd
00000380: 59a6 ca3c e645 a0bd 3bf9 4ebe a9a0 f8bd
00000390: 5ec9 cfbe 3902 11be d3c6 1fbc 9391 013d
000003a0: 5646 36bd 0e6d c03d 7268 2c3e 2f0e 7e3e
000003b0: dc94 8cbe c7a2 4f3b 85fa 05be 3355 813c
000003c0: 196e 473e 8f4c 08bd fb7e e6bd b9ee 4fbd
000003d0: e1d8 65be 0c96 3abd 1fbe 9fbb 49bc 6e3b
000003e0: f98a e0bc ad4a 8c3d de7d 193e 4346 0cbc
000003f0: bb0c b4bc 2efc e13d 4ef8 d8bd 180e 65bd

network_body._body_endoder.seq_layers.2.bias f4 [128]
-0.16202332 -0.13975601 0.06385832 -0.24369785 0.0141840605 -0.26706272 -0.15374748 -0.060843643
-0.09130471 -0.26066223 -0.056807354 0.012545175 -0.00064321 -0.13449813 -0.039890744 -0.15954252
-0.16791764 -0.13127664 0.018985655 -0.02957421 -0.12300662 0.04709826 -0.1637872 -0.07705544
-0.18106203 -0.18865874 0.06414312 -0.20314045 0.047633994 -0.07582784 0.0017138523 -0.1703061
-0.061891854 -0.075665645 -0.21588418 -0.14913547 -0.030022468 -0.24200995 0.024187932 -0.09098127
-0.24027601 0.14333098 0.07653688 0.08636353 -0.07724991 -0.11427073 -0.16110574 -0.15560073
-0.09579245 -0.16758204 0.01039821 -0.20524286 -0.12265225 -0.059622053 -0.046582755 -0.13768242
-0.075719416 0.06864009 -0.010742501 -0.028392423 -0.12076719 -0.19520651 -0.14719106 -0.05481306
-0.04463498 -0.17604902 -0.15398647 -0.19986036 -0.007016322 -0.070852384 -0.1331284 0.0796618
-0.062831864 -0.03942232 -0.13055746 0.06252941 0.040925637 -0.045579787 -0.07360995 -0.14027351
-0.063616894 0.042344067 -0.16706762 -0.098817304 -0.06301515 -0.14246616 -0.08606946 0.06635854
-0.20569408 -0.044487007 -0.10061904 -0.18317366 0.14445919 -0.0990937 -0.01214425 -0.05659875
-0.062686585 -0.15494937 -0.13088955 -0.1311555 0.019319307 -0.2797037 -0.101096556 0.06647979
-0.1268205 -0.08712395 -0.08311602 -0.14584914 -0.096460655 -0.10116068 0.09148133 -0.12939833
0.020005297 -0.08197826 -2.2981685e-05 -0.13597338 0.057445496 0.03989215 0.052872032 -0.06160525
-0.16186237 -0.26283798 0.029119533 -0.085643485 -0.14637317 -0.21007124 -0.10071005 -0.042294145
00000000: 71e9 25be 331c 0fbe 27c8 823d ee8b 79be
00000010: 4364 683c 72bc 88be fb6f 1dbe 2f37 79bd
00000020: f7fd babd 8575 85be d4ae 68bd 478a 4d3c
00000030: 189d 28ba e1b9 09be 7a64 23bd 1d5f 23be
00000040: 9af2 2bbe 626d 06be ce87 9b3c 9d45 f2bc
00000050: e5ea fbbd 1bea 403d d5b7 27be 3ecf 9dbd
00000060: 5368 39be c22f 41be 785d 833d 0d04 50be
00000070: dd1b 433d a04b 9bbd 57a3 e03a b964 2ebe
00000080: 5082 7dbd 97f6 9abd be10 5dbe f8b6 18be
00000090: aef1 f5bc 75d1 77be c525 c63c 6354 babd
000000a0: ea0a 76be 5bc5 123e 5ebf 9c3d 5ddf b03d
000000b0: 3335 9ebd c606 eabd e7f8 24be cc55 1fbe
000000c0: d52e c4bd a09a 2bbe 415d 2a3c 2f2b 52be
000000d0: 1a31 fbbd 4136 74bd 8fcd 3ebd 9ffc 0cbe
000000e0: c812 9bbd 2d93 8c3d 5101 30bc 3a97 e8bc
000000f0: ca54 f7bd 37e4 47be 41b9 16be a983 60bd
00000100: 2bd3 36bd 3246 34be a1ae 1dbe 32a8 4cbe
00000110: 2de9 e5bb 0e1b 91bd d052 08be ba25 a33d
00000120: fead 80bd 4c79 21bd dbb0 05be 6b0f 803d
00000130: a4a1 273d dfb1 3abd d0c0 96bd dca3 0fbe
00000140: 9349 82bd f970 2d3d c613 2bbe ba60 cabd
00000150: 160e 81bd a6e2 11be 2f45 b0bd fce6 873d
00000160: 78a1 52be 0238 36bd 5b11 cebd e091 3bbe
00000170: 1ced 133e a3f1 cabd adf8 46bc 17d4 67bd
00000180: d361 80bd 0cab 1ebe e907 06be a14d 06be
00000190: 8643 9e3c 5335 8fbe b60b cfbd 8e26 883d
000001a0: 3cdd 01be 0b6e b2bd bb38 aabd 7a59 15be
000001b0: 2a8d c5bd 552d cfbd 905a bb3d ff80 04be
000001c0: 26e2 a33c 38e4 a7bd cbc8 c0b7 9b3c 0bbe
000001d0: f84b 6b3d f365 233d 5890 583d c955 7cbd
000001e0: 40bf 25be b392 86be 168c ee3c da65 afbd
000001f0: d9e2 15be ea1c 57be 1241 cebd a03c 2dbd

action_model._continuous_distribution.log_sigma f4 [1, 6]
-2.7361567 -2.4388082 -2.4239464 -2.6310506 -2.5347266 -2.366189
00000000: 311d 2fc0 6f15 1cc0 f021 1bc0 2263 28c0
00000010: f638 22c0 a46f 17c0

action_model._continuous_distribution.mu.weight f4 [6, 128]
-0.15518993 -0.010803706 0.030441236 -0.032104388 0.26987183 -0.03590993 -0.016985223 -0.00526824
-0.003908437 0.026006877 0.030689435 0.00046623842 0.0024465383 0.008463318 0.017223898 0.038075067
-0.0064119957 0.023720142 0.025462497 -0.0713841 0.019152418 0.031033838 -0.011083628 0.0049127354
-0.0023760272 -0.01547998 0.020379266 0.01890496 -0.013644769 -0.034435842 -0.022435743 0.0675948
-0.0004090562 -0.08734075 -0.05630679 -0.024123475 -0.0018890719 -0.004784958 -0.04228227 0.08666272
-0.026163636 -0.071173884 0.022021767 0.027325876 0.020304708 -0.12152027 0.022270724 -0.13261187
0.015726672 -0.057079937 0.040965404 0.0010298707 0.009957586 -0.01938323 -0.0123342015 -0.06637926
-0.0005710917 0.064837396 -0.047341987 0.0059480458 0.017026015 -0.019561011 -0.03834 -0.05559235
0.10587132 0.014300261 0.0019769422 0.010033994 -0.0011201767 -0.026440887 -0.12772211 0.06772795
0.0006050334 0.037373208 -0.06278845 -0.08819814 0.07680192 0.043166373 0.009588305 -0.014498378
0.06113002 -0.0045361165 -0.0007164205 -0.037578523 -0.055231087 0.036023885 0.009843151 0.0024170717
0.006693904 0.008732668 -0.12589674 0.06730891 -0.025819592 -0.07521804 0.010836659 0.020332305
-0.029060887 -0.046426732 0.0257588 -0.059210435 -0.0045590093 0.02218075 -0.04641078 -0.08695862
0.015257282 -0.046110306 -0.10735994 -0.06324438 -0.023063878 0.016910879 -0.037291702 0.0015774247
0.013331322 0.023575656 0.0349112 -0.062077377 -0.048851736 0.089214966 0.04884106 0.14399122
0.0007508452 -0.012230929 -0.010539956 -0.0037797159 -0.025963414 -0.05556345 0.044583473 0.119590305
-0.02959486 -0.10650545 0.046181444 0.03358853 -0.027902775 -0.0024950346 0.044623893 -0.04429502
-0.05628311 -0.014576818 -0.016293017 0.04350274 0.016610926 0.019756608 -0.09672761 0.03685421
0.031580463 -0.020687643 -0.012572623 -0.18401131 0.09755979 -0.02170747 -0.16966493 -0.06986321
-0.0008310151 0.11192129 0.08715171 0.008596797 -0.040803466 0.06931072 0.079440445 0.046597872
0.018799871 -0.06744047 0.013454588 0.12788156 -0.018449597 0.01984447 0.07619929 0.017997677
0.08809212 0.055294614 -0.05048297 0.0064412816 0.14726938 0.0006443583 0.011975183 0.0039853742
-0.09527582 0.028860392 -0.028924827 -0.004096637 -0.04583435 0.2223224 -0.028785048 0.055436015
0.047364928 -0.10469808 0.10560601 -0.0138825495 0.008232537 -0.010349754 -0.105543196 0.06774703
0.29328218 -0.02782128 0.07220567 0.09048519 -0.0021614346 0.010635606 -0.044874243 -0.0068215793
-0.04626866 0.07011751 -0.037147507 0.083594024 -0.23565884 -0.11869267 -0.074344575 0.06326027
-0.038401976 0.059373423 -0.025482414 0.028004883 0.017024493 -0.054158304 -0.0050530485 -0.022602597
0.06011723 -0.10392148 0.10771882 0.027669234 -0.029752519 -0.047623824 0.013012642 0.016184157
0.0046597067 0.016257973 0.022742404 -0.024735035 -0.06438694 -0.026472101 0.02869386 -0.058544718
-0.09529237 0.10184573 0.055998657 0.014756755 -0.024521906 -0.0049528526 -0.08216956 -0.008749513
0.023664324 0.057026487 -0.15002741 -0.042052753 0.013368114 -0.024244696 0.0062498855 0.090020224
-0.0026425696 0.040218186 -0.06604138 0.019216971 -0.2063067 -0.05051275 -0.07018677 0.05961607
00000000: 1cea 1ebe 0702 31bc e65f f93c e47f 03bd
00000010: a42c 8a3e 4a16 13bd 9824 8bbc 33a1 acbb
00000020: 5912 80bb 600c d53c 6968 fb3c 7671 f439
00000030: 1a56 203b bba9 0a3c 2219 8d3c 9af4 1b3d
00000040: b81b d2bb be50 c23c ba96 d03c d431 92bd
00000050: 88e5 9c3c ad3a fe3c 1b98 35bc 03fb a03b
00000060: 1fb7 1bbb be9f 7dbc 6bf2 a63c 93de 9a3c
00000070: 4f8e 5fbc 990c 0dbd 2acb b7bc 246f 8a3d
00000080: 9876 d6b9 b5df b2bd f3a1 66bd 989e c5bc
00000090: bc9a f7ba 23cb 9cbb 2c30 2dbd 397c b13d
000000a0: 1f55 d6bc 9dc3 91bd fe66 b43c 84da df3c
000000b0: 0f56 a63c 9fdf f8bd 1871 b63c 68cb 07be
000000c0: 39d5 803c a7cc 69bd 57cb 273d bafc 863a
000000d0: 2525 233c 94c9 9ebc 6415 4abc d9f1 87bd
000000e0: 51b5 15ba 78c9 843d ace9 41bd d3e7 c23b
000000f0: 247a 8b3c 6a3e a0bc 670a 1dbd ceb4 63bd
00000100: 10d3 d83d a44b 6a3c 968f 013b 9f65 243c
00000110: e5d2 92ba 8f9a d8bc 96c9 02be f4b4 8a3d
00000120: 1b9b 1e3a a614 193d 3b97 80bd 3aa1 b4bd
00000130: 534a 9d3d 39cf 303d 4418 1d3c 9b8a 6dbc
00000140: 7963 7a3d b4a3 94bb 2ace 3bba f0eb 19bd
00000150: fe39 62bd c88d 133d 2b45 213c bc67 1e3b
00000160: 8958 db3b 7713 0f3c 13eb 00be 41d9 893d
00000170: 9c83 d3bc ea0b 9abd 3e8c 313c ef8f a63c
00000180: 1911 eebc f529 3ebd 1e04 d33c a486 72bd
00000190: be63 95bb 67b4 b53c 3b19 3ebd 5c17 b2bd
000001a0: aef9 793c 29de 3cbd 87df dbbd 4586 81bd
000001b0: 75f0 bcbc af88 8a3c 2fbf 18bd 97c1 ce3a
000001c0: 9e6b 5a3c bc21 c13c 0cff 0e3d d944 7ebd
000001d0: c218 48bd 56b6 b63d 900d 483d 6f72 133e
000001e0: 5ed4 443a 3c64 48bc c8af 2cbc 1cb5 77bb
000001f0: 3ab1 d4bc 8096 63bd 299d 363d c3eb f43d
00000200: eb70 f2bc 881f dabd c128 3d3d 2094 093d
00000210: 5c94 e4bc bc83 23bb 8bc7 363d b26e 35bd
00000220: 1e89 66bd 9bd3 6ebc ef78 85bc ee2f 323d
00000230: a313 883c 9cd8 a13c 2019 c6bd 71f4 163d
00000240: 845a 013d 2279 a9bc 67fd 4dbc 766d 3cbe
00000250: 6dcd c73d ddd3 b1bc a5bc 2dbe 7114 8fbd
00000260: 7bd8 59ba fd36 e53d 997c b23d 94d9 0c3c
00000270: 8921 27bd c7f2 8d3d acb1 a23d 69dd 3e3d
00000280: 3002 9a3c 3b1e 8abd a270 5c3c 62f3 023e
00000290: 9c23 97bc df90 a23c 600e 9c3d dd6f 933c
000002a0: a469 b43d 9b7c 623d 3bc7 4ebd 6311 d33b
000002b0: c9cd 163e 27ea 283a 8f33 443c be97 823b
000002c0: f81f c3bd a16c ec3c c2f3 ecbc 153d 86bb
000002d0: cdbc 3bbd 7ca8 633e 9fce ebbc e010 633d
000002e0: ba01 423d f26b d6bd f747 d83d a273 63bc
000002f0: c3e1 063c 0492 29bc 0827 d8bd f4be 8a3d
00000300: 1529 963e 74e9 e3bc 91e0 933d 4d50 b93d
00000310: dba6 0dbb f740 2e3c 0ece 37bd 8e87 dfbb
00000320: 3584 3dbd c599 8f3d fc27 18bd 5833 ab3d
00000330: 8d50 71be 2415 f3bd f841 98bd 9a8e 813d
00000340: 644b 1dbd 8c31 733d 7fc0 d0bc 7f6a e53c
00000350: f376 8b3c 19d5 5dbd 0b94 a5bb 1529 b9bc
00000360: 7c3d 763d c9d4 d4bd af9b dc3d 97aa e23c
00000370: 8ebb f3bc 3311 43bd fa32 553c a394 843c
00000380: 74b0 983b 712f 853c 474e ba3c 21a1 cabc
00000390: 4ddd 83bd 05dc d8bc 630f eb3c 96cc 6fbd
000003a0: a528 c3bd 7e94 d03d d95e 653d 51c6 713c
000003b0: 2ae2 c8bc 8a4b a2bb 8448 a8bd 1e5a 0fbc
000003c0: afdb c13c 9b94 693d c9a0 19be 823f 2cbd
000003d0: ef05 5b3c d09c c6bc d7cb cc3b 865c b83d
000003e0: f62e 2dbb d3bb 243d b440 87bd e96c 9d3c
000003f0: 1042 53be 75e6 4ebd 15be 8fbd fb2f 743d

action_model._continuous_distribution.mu.bias f4 [6]
0.044521514 0.0052040163 0.037206307 0.0485731 0.054189567 0.06816625
00000000: 315c 363d 7486 aa3b a465 183d 96f4 463d
00000010: e1f5 5d3d bf9a 8b3d

onnx::Div_51 f4 [15]
70.55307 104.89831 90.01578 61.352486 111.65479 105.98274 83.71438 105.95579
96.35657 24.766186 24.508242 24.822466 4.694284 1.0914061 4.7915244
00000000: 2c1b 8d42 efcb d142 1408 b442 f268 7542
00000010: 414f df42 2af7 d342 c36d a742 5de9 d342
00000020: 90b6 c042 2621 c641 e110 c441 6994 c641
00000030: 9337 9640 32b3 8b3f 2b54 9940
