Assets/results/SimpleArm/RollerBall/checkpoint.pt (torch, 470955 bytes, 36 tensors)

network_body._body_endoder.seq_layers.0.weight f4 [128, 12]
0	0x3de9697a	0.11397071
1	0xbe9357f2	-0.28778034
2	0xbc8733e5	-0.016504237
3	0x3eac3aa2	0.33638483
4	0x3e4c6132	0.19958952
5	0x3d2fb8ca	0.042900838
6	0xbeee2bce	-0.46517795
7	0x3e8ffab0	0.28120947
8	0xbd5872e2	-0.052843936
9	0x3ddec637	0.1087765
10	0x3cd43594	0.025904454
11	0x3d1789a1	0.036996488
12	0x3dd2700f	0.1027528
13	0x3e9abeb9	0.30223635
14	0x3e64993f	0.22324084
15	0x3e59d682	0.21273234
16	0x3e6a7ca4	0.22899109
17	0x3ecf3602	0.40470892
18	0x3d9b7c02	0.07592012
19	0xbe19b60d	-0.15010853
20	0x3f11c78e	0.5694512
21	0x3cac835f	0.021058736
22	0xbe13d4aa	-0.14436594
23	0x3ed38bce	0.413176
24	0xbe755121	-0.2395673
25	0x3c371e50	0.011176661
26	0xbda7fef8	-0.08202928
27	0x3d612dc8	0.0549753
28	0x3e5a9f61	0.2134986
29	0x3ec584b4	0.38577807
30	0x3edb6ac4	0.42854893
31	0xbed9c056	-0.42529553
32	0x3ea190ee	0.31555885
33	0xbeeec2c8	-0.4663298
34	0xbe16d575	-0.14729865
35	0x3de86623	0.11347606
36	0x3e46d887	0.19418536
37	0x3d6cd434	0.05781956
38	0x3e6c0900	0.23050308
39	0xbe9e2663	-0.30888662
40	0x3d682e2c	0.056684658
41	0xbc3d887d	-0.011568186
42	0xbf12a0f8	-0.5727687
43	0x3f21db10	0.6322489
44	0x3ee2d581	0.44303516
45	0xbe9703d7	-0.29495117
46	0xbe52ca78	-0.20585048
47	0x39dba9bc	0.00041897397
48	0xbeeb7174	-0.45984995
49	0xb89d83f2	-7.51092e-05
50	0x3e2f7e04	0.17137915
51	0x3dccc764	0.09998968
52	0x3e23ceb2	0.15996817
53	0xbdef0f48	-0.116728365
54	0xbe5713ad	-0.210036
55	0x3f19d76f	0.6009435
56	0x3e9407ca	0.28912193
57	0xbe775b63	-0.24155955
58	0x3eb24906	0.34821337
59	0xbd416a70	-0.047220647
60	0x3cdeb57d	0.02718615
61	0x3cb0231d	0.021501118
62	0xbd34a656	-0.044103943
63	0xbe39d948	-0.18149292
64	0x3e812123	0.25220594
65	0xbe7e3cec	-0.24827927
66	0xbd97b2e6	-0.07407169
67	0xbd1ee656	-0.038793884
68	0xbde4f6e1	-0.11179901
69	0xbea31d66	-0.31858367
70	0x3e22513e	0.15851304
71	0xbe9aa0ac	-0.30200708
72	0x3e99421d	0.29933253
73	0x3e99b09d	0.30017558
74	0x3e0499d6	0.12949309
75	0x3d37697e	0.04477834
76	0x3e86e2e8	0.2634499
77	0xbdb6cded	-0.08925996
78	0x3e9deaa1	0.3084307
79	0x3e6df0ae	0.23236343
80	0xbe2505de	-0.1611552
81	0x3e653a4e	0.22385523
82	0xbe64c9c5	-0.22342594
83	0x3dbec74a	0.09315355
84	0xbeed00cd	-0.46289673
85	0xbd690114	-0.056885794
86	0xbea6582d	-0.32489148
87	0xbea1de04	-0.31614697
88	0xbf1ee3bd	-0.6206625
89	0x3eb15101	0.34632114
90	0x3d5f789c	0.05455838
91	0x3eaa562c	0.3326887
92	0x3ee018ce	0.43768924
93	0xbe98899c	-0.29792488
94	0x3ea4b01d	0.32165614
95	0xbec3d9ab	-0.38252005
96	0x3f41b8eb	0.7567279
97	0xbe0fa120	-0.14026308
98	0xbcb025ed	-0.02150246
99	0x3e1e53f2	0.1546171
100	0x3e789a42	0.24277595
101	0x3efa9c0d	0.48947182
102	0xbf1c9f70	-0.6118078
103	0x3e8bb46b	0.27286085
104	0x3dc20298	0.09473151
105	0xbb33e302	-0.002744854
106	0x3f07505d	0.52857
107	0x3ed62393	0.41824016
108	0x3ecd8571	0.4014087
109	0xbcdf98bf	-0.027294515
110	0xbe534a18	-0.20633733
111	0x3e6ca51d	0.2310986
112	0xbe9b324b	-0.30311808
113	0xbe3451dd	-0.17609353
114	0x3c37b8c6	0.011213487
115	0x3eb52278	0.3537786
116	0xbf183c24	-0.5946677
117	0x3d9e11f8	0.07718271
118	0x3e4e37ef	0.20138524
119	0x3d8a1340	0.06741953
120	0xbe8394ca	-0.25699455
121	0x3dfb3b9c	0.12267229
122	0xbecb7103	-0.3973466
123	0x3dbef085	0.09323219
124	0x3f05f80a	0.523316
125	0xbdf8915f	-0.12137102
126	0xbecc3ab9	-0.39888552
127	0xbc3ed817	-0.0116481995
128	0xbebde040	-0.37085152
129	0xbea9efd1	-0.33190778
130	0xbedd0b28	-0.43172574
131	0xbe9138c9	-0.28363636
132	0xbe83cb8a	-0.25741225
133	0xbe7c0a10	-0.24613214
134	0x3d46ebff	0.048564907
135	0x3d790ac6	0.06080129
136	0x3dc55a84	0.09636405
137	0xbed405bf	-0.41410634
138	0xbeb7700b	-0.3582767
139	0xbed1071c	-0.40825737
140	0x3d9ca430	0.07648504
141	0xbce26ac8	-0.027638808
142	0x3f49ff92	0.78905594
143	0xbc805fbf	-0.015670655
144	0xbe39b772	-0.18136385
145	0x3f345465	0.70441276
146	0x3d3f7b66	0.04674854
147	0xbe028585	-0.12746246
148	0x3e569444	0.20954996
149	0xbd93fe9f	-0.072262995
150	0xbe5c45f8	-0.21511066
151	0x3eb77de7	0.35838243
152	0x3f118eb2	0.5685836
153	0xbdb929e1	-0.09041191
154	0xbeca7c23	-0.39547834
155	0xbe9e5c4a	-0.30929786
156	0x3e2b0305	0.1670037
157	0xbeea01ec	-0.4570459
158	0xbe977bb1	-0.29586557
159	0xbda42e75	-0.080166735
160	0xbeb057ce	-0.3444199
161	0x3d719932	0.05898399
162	0xbe369a83	-0.17832379
163	0xbe516eec	-0.2045247
164	0x3e9a2171	0.3010364
165	0xbea29d1c	-0.3176049
166	0x3f02a3a5	0.5103095
167	0xbea87fb3	-0.32909927
168	0xbe967fb8	-0.29394317
169	0xbed68160	-0.4189558
170	0x3e9ed736	0.31023568
171	0x3f04571a	0.51695406
172	0xbdb65a4b	-0.08903941
173	0xbe745c16	-0.23863253
174	0xbf05f0c5	-0.5232051
175	0x3e693b6b	0.22776572
176	0xbed4feb3	-0.4160057
177	0x3e205c06	0.15660104
178	0xbe0cc38e	-0.13746473
179	0x3eb1fb68	0.3476212
180	0x3e390f89	0.18072332
181	0xbe05791d	-0.13034482
182	0x3d77e701	0.060523037
183	0xbf078749	-0.52940804
184	0xbf114503	-0.5674593
185	0xbec6a9a0	-0.3880129
186	0xbe986191	-0.29761937
187	0x3c6e84a8	0.014557995
188	0xbdd06d21	-0.10177065
189	0x3dd7e99e	0.10542606
190	0x3ccf8fbb	0.02533709
191	0x3df71268	0.120640576
192	0xbecd70c5	-0.401251
193	0xbeccfe81	-0.4003792
194	0x3e0fdca8	0.14049017
195	0x3f02cbad	0.51092035
196	0xbe90b6bc	-0.28264415
197	0xbd17e066	-0.037079237
198	0xbd9ad20a	-0.07559593
199	0xbe71ceb9	-0.23614015
200	0xbe6603ee	-0.22462437
201	0x3e9d6aef	0.30745646
202	0x3d841936	0.06450121
203	0xbd3b65b7	-0.0457513
204	0xbd0f4399	-0.034976576
205	0xbdce343e	-0.10068558
206	0xbd01ae51	-0.03166038
207	0xba84f19e	-0.0010142808
208	0xbe9e2a6a	-0.30891734
209	0x3e407e54	0.1879819
210	0x3f186a32	0.5953704
211	0xbeac61b8	-0.33668303
212	0x3e14977b	0.1451091
213	0xbe4aa3d4	-0.19789058
214	0x3eea9456	0.45816296
215	0x3d8bcd55	0.06826273
216	0x3e0874f5	0.13325866
217	0xbebf988f	-0.3742108
218	0xbe9ea264	-0.3098327
219	0x3e0667ac	0.13125485
220	0x3a81ee34	0.0009912909
221	0xbd112408	-0.035434753
222	0xbe09beb0	-0.13451648
223	0x3d97e3b9	0.074164815
224	0x3f0094e4	0.5022719
225	0xbdc4a8e6	-0.09602527
226	0xbefca182	-0.4934197
227	0x3d12b501	0.03581715
228	0x3e61980e	0.2203066
229	0xbec0600d	-0.3757328
230	0xbdb20684	-0.08692649
231	0x3f0a1167	0.53932804
232	0x3e362148	0.17786133
233	0x3dccdb08	0.100027144
234	0xbd9b30c6	-0.07577662
235	0x3ed352cc	0.41274107
236	0xbd987777	-0.07444661
237	0x3e3d982e	0.18515083
238	0xbe4a4353	-0.19752245
239	0xbe7db384	-0.24775511
240	0xbe547795	-0.20748742
241	0xbdc53680	-0.09629536
242	0x3b19d3e0	0.0023472235
243	0xbe21ef72	-0.15813997
244	0x3dd1536b	0.10220989
245	0x3ca81842	0.02051938
246	0x3e937222	0.28798014
247	0xbe89be3d	-0.26902953
248	0xbd7bebf0	-0.061504304
249	0x3e0eac1d	0.13932844
250	0xbf35dec4	-0.7104304
251	0xbe06ceb4	-0.13164788
252	0xbe5e75dd	-0.21724649
253	0x3ea4bb54	0.3217417
254	0x3e8ea335	0.27858892
255	0xbd2d6623	-0.042333733

network_body._body_endoder.seq_layers.0.bias f4 [128]
0	0xba91f0d0	-0.001113439
1	0xbdbdb557	-0.092631035
2	0xbcd9e93c	-0.026600473
3	0xbd6d2573	-0.057897042
4	0xbd988965	-0.07448081
5	0xbb84b039	-0.0040493277
6	0xbd86e43d	-0.06586502
7	0xbbb7b91a	-0.0056067826
8	0xbd6ee9c3	-0.0583284
9	0x3db27bf3	0.08715048
10	0xbcabe0e1	-0.020981254
11	0xbcf04d49	-0.029333727
12	0xbd90fdc3	-0.07079651
13	0xbd4f8163	-0.050660502
14	0x3b76cae3	0.003765755
15	0x3cad5b53	0.02116171
16	0xba758b67	-0.0009366781
17	0x3dd1da5f	0.10246729
18	0xbdd782fb	-0.105230294
19	0xbd285f28	-0.041106373
20	0xbe1bbcb3	-0.15208702
21	0xbd1adb73	-0.03780694
22	0xbda8e7b2	-0.082473174
23	0xbd392683	-0.045202743
24	0xbc25a367	-0.010109759
25	0xbd9e950b	-0.077432714
26	0xbe11fcd1	-0.14256598
27	0xbd37667b	-0.044775467
28	0xbd58eba7	-0.05295911
29	0x3d024c96	0.03181132
30	0xbd942d00	-0.072351456
31	0xbcf27157	-0.02959506
32	0xbe185507	-0.14876185
33	0xbd421f6c	-0.047393247
34	0xbd68187c	-0.056663975
35	0xbdf86ac0	-0.12129736
36	0xbe086651	-0.1332028
37	0x3db8decc	0.0902687
38	0xbccf4136	-0.02529965
39	0xbd842e22	-0.06454112
40	0xbdcc1d04	-0.09966472
41	0xbd82507f	-0.0636301
42	0xbda4469c	-0.0802128
43	0xbce9cfab	-0.028541407
44	0xbdb38e3e	-0.08767365
45	0xbd521dcb	-0.051297944
46	0xbc9ff3dd	-0.019525463
47	0xbd6927a2	-0.056922562
48	0xbd5884df	-0.05286109
49	0xbdb7a0e4	-0.08966234
50	0xbd3cb467	-0.046070483
51	0xbda03019	-0.07821674
52	0xbbd4348a	-0.0064759897
53	0x3be99a41	0.007128984
54	0xbcf93018	-0.03041844
55	0xbd482c4e	-0.048870377
56	0xbdfd1f73	-0.12359514
57	0x3c5c5f01	0.013450385
58	0xbce86f35	-0.02837334
59	0xbca03822	-0.019558016
60	0xbd62ce31	-0.05537242
61	0xbd0630a0	-0.032761216
62	0x3c589dc5	0.013221209
63	0x3d64f60b	0.055898707
64	0xbd8559fb	-0.06511303
65	0xbdb4ee39	-0.088345
66	0xbd83a988	-0.0642882
67	0xbe001736	-0.12508854
68	0xbe0500ff	-0.12988661
69	0xbd1e6613	-0.038671564
70	0xbddfec0e	-0.10933696
71	0xbd2c495f	-0.04206216
72	0xbd9b7a4a	-0.07591684
73	0xbd956678	-0.07294935
74	0x3a6bc415	0.0008993757
75	0xbd5165db	-0.051122528
76	0xbdcbf369	-0.09958536
77	0xbda2ce72	-0.079495326
78	0xbd554bd9	-0.052074287
79	0xbc5a5bd4	-0.013327558
80	0xbd6e6200	-0.05819893
81	0xbd6c0655	-0.057623226
82	0xbdbbaf50	-0.091642976
83	0x3d4370d0	0.04771501
84	0x3d98c48e	0.07459365
85	0xbda0bdd4	-0.07848707
86	0xbe16356b	-0.14668815
87	0xbce69343	-0.028146392
88	0xbe1bd89a	-0.15219346
89	0xbdb1028f	-0.08643066
90	0xbe17535a	-0.1477789
91	0xbce94b71	-0.028478356
92	0xbd238d8f	-0.039929923
93	0x3d36ae28	0.044599682
94	0xbe1a3e4c	-0.15062827
95	0xbbbac745	-0.0057000243
96	0xbd1f113c	-0.038834795
97	0xbd96c4b2	-0.073617354
98	0xbdb1ccdd	-0.08681653
99	0xbcea9bcd	-0.028638745
100	0xbd98d9b4	-0.074633986
101	0xbc5ef7e2	-0.013608905
102	0x3e4da570	0.2008264
103	0xbd684285	-0.056704063
104	0xbd936698	-0.071973026
105	0xbd749cfa	-0.059720017
106	0xbd9f9e10	-0.0779382
107	0xbc8edee9	-0.017440276
108	0xbd6cbf1c	-0.057799444
109	0xbd723304	-0.059130684
110	0x3d7c13d4	0.061542347
111	0x3d7e7552	0.062123604
112	0xbd812ebf	-0.06307744
113	0xbdf90439	-0.121590085
114	0xbe2881e7	-0.16455804
115	0x3dd5a481	0.10431767
116	0xbd58732a	-0.052844204
117	0x3cf53149	0.029930728
118	0xbd7120d3	-0.058869194
119	0xbd7ac39a	-0.061221696
120	0xbd2f4875	-0.04279371
121	0x3d197d06	0.037472747
122	0xbe1586d2	-0.14602211
123	0xbd4ae379	-0.04953334
124	0x3e015a4f	0.12632106
125	0x3d07ba22	0.033136494
126	0x3d2a2d7e	0.04154729
127	0xba100008	-0.0005493169

network_body._body_endoder.seq_layers.2.weight f4 [128, 128]
0	0x3d756a26	0.059915684
1	0x3dac88a5	0.084245004
2	0xbd8913f4	-0.06693259
3	0xbc4c9404	-0.012486462
4	0xbe05e96d	-0.13077326
5	0x3cfe1f1f	0.0310207
6	0x3cf7de90	0.030257493
7	0x3ca24de4	0.019812532
8	0xbdc667d9	-0.09687776
9	0xbd85e205	-0.065372504
10	0x3cbbe6fa	0.022937287
11	0xbda35770	-0.07975662
12	0x3cf3fa03	0.0297823
13	0xbd0aa391	-0.033847395
14	0x3d503637	0.050832953
15	0x3c3d0966	0.011537885
16	0x3d539de5	0.05166425
17	0xbddeeb4e	-0.108847246
18	0x3d2cf895	0.042229254
19	0xbddd5c86	-0.10808663
20	0xbdc07f62	-0.09399296
21	0xbcc6b434	-0.02425585
22	0x3d1859a8	0.037194878
23	0xbe71ff96	-0.23632655
24	0x3df64aa7	0.120259576
25	0xbcb5fbe1	-0.022214832
26	0xbd1d0ff2	-0.038345285
27	0xbdd3c868	-0.10340959
28	0xbdb7f224	-0.089817315
29	0xbd8ea9de	-0.06965993
30	0x3e27b4d5	0.16377576
31	0xbe3edc3c	-0.186387
32	0xbc51ffd2	-0.01281734
33	0x3caa750e	0.02080777
34	0xbe22a0c8	-0.15881646
35	0xbe3711dc	-0.17877907
36	0xbdf23faa	-0.11828549
37	0xbd84c127	-0.064821534
38	0xbd485860	-0.048912406
39	0xbd131c77	-0.035915818
40	0xbe31b54c	-0.17354316
41	0x3bfed17a	0.0077764364
42	0xbdae0de1	-0.08498741
43	0x3d9f9c47	0.077934794
44	0x3d95c512	0.07312979
45	0xbd3b1430	-0.04567355
46	0x3da4bb22	0.08043505
47	0xbd8c1cfd	-0.068414666
48	0x3c814c5f	0.015783487
49	0x3d8a4e30	0.06753194
50	0xbe25d652	-0.16195038
51	0xbd85a4c8	-0.0652557
52	0xbe3e24ce	-0.18568727
53	0x3cc350c8	0.02384223
54	0xbde0040b	-0.10938271
55	0xbe2b6bdf	-0.16740368
56	0x3d9db487	0.077004485
57	0xbc49b947	-0.01231224
58	0xbd504197	-0.0508438
59	0x3bb25534	0.005442286
60	0xbd9684bc	-0.07349536
61	0xbd9af8bc	-0.075669736
62	0xbde62290	-0.11237061
63	0x3db9bd40	0.090693
64	0xbd73a65b	-0.05948482
65	0x3d1703c2	0.036868818
66	0x3d735b58	0.059413284
67	0xbdb3171c	-0.08744642
68	0x3ca92b0f	0.020650415
69	0x3dd94c53	0.10610261
70	0xbc107b4f	-0.008818462
71	0xbe39c2be	-0.18140694
72	0x3d725223	0.059160363
73	0x3d4840d4	0.04888995
74	0xbc92e4b9	-0.01793133
75	0xbd843c86	-0.064568564
76	0x3db712e8	0.08939153
77	0x3d91de90	0.071225286
78	0x3e3b600e	0.1829836
79	0xbdbc3b8c	-0.09191045
80	0xbda3f186	-0.08005051
81	0xbdd89e91	-0.10577119
82	0xbdaf025c	-0.08545372
83	0xbe55e425	-0.20887811
84	0x3c2c5138	0.010517411
85	0xbd2ccafb	-0.042185765
86	0x3d8a0073	0.06738367
87	0xbd80dce1	-0.06292129
88	0xbc99c035	-0.01876841
89	0x3d861e20	0.06548715
90	0xbd30caf0	-0.043162286
91	0xbd9f3c0e	-0.077751264
92	0xbdd3ffea	-0.10351546
93	0xbda7195b	-0.08159133
94	0x3d40520f	0.046953257
95	0xbd7c2f7b	-0.06156872
96	0xbd4fbc8d	-0.050716925
97	0xbe38e9ec	-0.18057984
98	0xbde3cecf	-0.1112343
99	0xbba1e63e	-0.004940777
100	0xbd16529d	-0.03669988
101	0xbdcafe13	-0.09911742
102	0xbdcd9539	-0.100382276
103	0x3ce634e0	0.028101385
104	0xbda9c8d5	-0.08290259
105	0xbd75ebf2	-0.060039468
106	0xbdd8a7c4	-0.10578874
107	0x3d96f75f	0.07371401
108	0xbd7bb726	-0.06145396
109	0x3da4c599	0.08045501
110	0x3e080a23	0.13285117
111	0xbe263539	-0.1623124
112	0x3bc76acb	0.0060857288
113	0x3b036e30	0.002005469
114	0x3d8a7224	0.06760052
115	0xbc6945d9	-0.014237844
116	0xbdf853fd	-0.121253945
117	0xbdec0463	-0.11524274
118	0xbe45dde4	-0.19322926
119	0xbdb12876	-0.086502954
120	0xbdb955a7	-0.0904954
121	0x3ccd6a06	0.02507497
122	0xbd295699	-0.04134235
123	0x3d4e2952	0.050332375
124	0xbdcf50ec	-0.101228565
125	0x3e556852	0.20840576
126	0xbcfef1b8	-0.03112112
127	0x3bc836b0	0.006110035
128	0xbcd70a04	-0.026249893
129	0xbe1e0a17	-0.15433536
130	0xbbfe6c88	-0.007764403
131	0xbe203a4e	-0.15647241
132	0x3d5ed1e6	0.054399393
133	0xbddb1b2a	-0.106985405
134	0x3d84430a	0.06458099
135	0xbc84a1db	-0.01619046
136	0x3ca6ed13	0.020376718
137	0xbbde58d8	-0.0067854933
138	0x3db8d3b9	0.09024758
139	0xbd79f0a2	-0.0610205
140	0xbdf08928	-0.117449105
141	0x3beda9a9	0.007252891
142	0x3d00f5da	0.031484462
143	0x3dd0d21f	0.101963274
144	0xbd69e774	-0.057105497
145	0x3db5cb02	0.08876611
146	0xbe027af9	-0.12742223
147	0xbda48627	-0.080334
148	0x3d9026d2	0.070386544
149	0xbd050b53	-0.032481503
150	0x3d594eb1	0.05305356
151	0x3c1dd511	0.0096333185
152	0xbda46efc	-0.08028981
153	0xbc20e9e2	-0.009821387
154	0xbce1abd6	-0.027547758
155	0x3d5d0441	0.053959135
156	0xbd97beec	-0.07409462
157	0xbc9b6a9e	-0.018971737
158	0x3dc57486	0.09641366
159	0xbe2ec146	-0.17065915
160	0xbe3e1389	-0.1856214
161	0xbd909376	-0.07059376
162	0xbe050ad5	-0.12992413
163	0xbd64768d	-0.05577712
164	0x3e18762f	0.14888833
165	0x3dac559d	0.08414767
166	0xbd5bc313	-0.053652834
167	0xbd3b5371	-0.045733873
168	0x3cee2faa	0.029075462
169	0xbd7cf2a2	-0.06175483
170	0x3d665981	0.0562377
171	0x3d82a219	0.06378574
172	0x3cc80491	0.02441624
173	0xbc6b3656	-0.014356216
174	0xbe0f4a81	-0.13993265
175	0xbde21a99	-0.11040229
176	0x3db21792	0.08695902
177	0xbe20855c	-0.15675873
178	0xbd179b62	-0.03701342
179	0xbe3bb23b	-0.18329708
180	0x3c60f7b4	0.013730932
181	0x3d52312c	0.051316425
182	0x3cff5a6b	0.031171044
183	0x3d935af8	0.07195085
184	0xbc510099	-0.01275649
185	0x3d3dc6c7	0.046332147
186	0xbd7740ae	-0.060364418
187	0x3d91f13f	0.07126092
188	0xbe0ac25b	-0.13550703
189	0xbdc49743	-0.095991634
190	0xbe0fc4dc	-0.1403994
191	0x3d3f5839	0.046714995
192	0x3cc34df2	0.023840878
193	0x3d1e7b08	0.03869155
194	0x3d87b65d	0.0662658
195	0x3ddf0c16	0.10890977
196	0x3c48d173	0.012256968
197	0xbd0d5acd	-0.034510422
198	0xbd35e734	-0.044409946
199	0xbd0c3718	-0.03423223
200	0xbe50d595	-0.20393975
201	0xbd22c136	-0.03973504
202	0x3c139e4a	0.009009907
203	0xbdcff05e	-0.10153268
204	0xbc198085	-0.00936902
205	0x3d93b871	0.07212914
206	0xbcfff503	-0.03124476
207	0x3d250f78	0.040297955
208	0xbcb03a6d	-0.021512235
209	0xbd242c5f	-0.040081378
210	0xbd541fbb	-0.051788073
211	0xbd2b3abe	-0.041804068
212	0xbe30c4ad	-0.17262526
213	0x3c641ad4	0.013922412
214	0x3b6f3756	0.0036501489
215	0x3d0986ce	0.033575825
216	0x3db4b42a	0.08823426
217	0xbd86352e	-0.06553112
218	0x3a93629d	0.0011244599
219	0xbbc87681	-0.0061176424
220	0xbd5338d5	-0.05156787
221	0xbd8838ff	-0.06651496
222	0x3e136a47	0.1439601
223	0x3dbef6e4	0.093244344
224	0xbc45151c	-0.012028959
225	0x3caf1ab0	0.02137503
226	0xbda6ba99	-0.081410594
227	0xbde076a9	-0.10960133
228	0x3dae9748	0.08524948
229	0xbdfd4d43	-0.12368252
230	0xbe3211d6	-0.17389616
231	0x3d1d6fb1	0.038436595
232	0x3ddf3fc8	0.10900837
233	0xbce32a5c	-0.02773016
234	0xbd7d1610	-0.06178862
235	0xbddf1648	-0.10892922
236	0xbe1d7649	-0.15377153
237	0x3dc63d77	0.09679692
238	0xbced9385	-0.029001007
239	0x3d91537d	0.07096002
240	0x3db12251	0.086491235
241	0x3c2b4103	0.010452512
242	0xbd6a9b1c	-0.05727683
243	0xbe36a76e	-0.17837307
244	0x3dd674d0	0.10471499
245	0x3defc63a	0.117077306
246	0x3e33a3e5	0.1754299
247	0x3dba7019	0.09103412
248	0x3db3dda9	0.08782513
249	0xbe50c68a	-0.20388237
250	0xbdf5156b	-0.11966976
251	0xbe304040	-0.1721201
252	0xbda5ed2a	-0.08101876
253	0xbd5de74a	-0.054175653
254	0xbdcb535c	-0.09928009
255	0xbe4a956f	-0.19783567

network_body._body_endoder.seq_layers.2.bias f4 [128]
0	0xbd8b2b76	-0.06795399
1	0xbcfe5b53	-0.031049406
2	0xbd53e551	-0.051732365
3	0xbd570bc9	-0.052501474
4	0xbd5f6037	-0.054535117
5	0xbc12c01b	-0.008956934
6	0xbce5efe5	-0.028068492
7	0xbc0d4cc9	-0.008624264
8	0xbcb4d6bc	-0.02207505
9	0xbd2992bf	-0.041399714
10	0xb9178bf9	-0.00014452626
11	0xbc1902e5	-0.009339069
12	0xbd17f585	-0.03709938
13	0xbc824bd6	-0.015905302
14	0xbc0c96cf	-0.008580877
15	0xbd1cd7f6	-0.038291894
16	0xbd0978d5	-0.0335625
17	0xbd82c467	-0.06385117
18	0x3b960de3	0.004579292
19	0xbd3dcc76	-0.046337567
20	0xbc986204	-0.018601425
21	0xbd0a4159	-0.033753727
22	0xbcc3ee24	-0.023917265
23	0xbcf8810d	-0.030334974
24	0xbd01e921	-0.03171647
25	0x3bba88dc	0.0056925844
26	0xbc8b856d	-0.017031396
27	0xbca10ea7	-0.019660307
28	0xbbaa43c4	-0.0051960666
29	0xbd0ad930	-0.033898532
30	0xbd12d070	-0.035843313
31	0xbd0f42df	-0.034975883
32	0xbccda73c	-0.025104158
33	0xbd16ca54	-0.03681405
34	0xbcded74d	-0.027202273
35	0xbcf15e4f	-0.029463915
36	0xbce27950	-0.027645737
37	0xbd4c4b9f	-0.049876805
38	0xbd0fabbb	-0.035075884
39	0xbd224078	-0.039612263
40	0xbbffa5a9	-0.0078017307
41	0xbd30bd20	-0.043149114
42	0xbd32e391	-0.043674055
43	0xbc6cd984	-0.014456157
44	0xbcc0f468	-0.023554042
45	0x3d86680e	0.065628156
46	0xbd268665	-0.040655512
47	0xbc794b1f	-0.015215664
48	0x3d2155fb	0.039388638
49	0xbc8d4dc8	-0.017249003
50	0xbd3ce824	-0.046119824
51	0xbc26c7aa	-0.01017944
52	0xbcea7588	-0.028620496
53	0xbcfa742b	-0.030572971
54	0xbc5b2772	-0.013376104
55	0xbc16e94c	-0.009210896
56	0xbcdbf563	-0.026850408
57	0xbcc8c99e	-0.024510201
58	0xbd1051e2	-0.03523434
59	0xbd1c8d13	-0.038220476
60	0xbcf57534	-0.029963113
61	0xbd474e0c	-0.048658416
62	0xbb958fcf	-0.0045642625
63	0xbcfdf34b	-0.0309998
64	0x3c234c42	0.009966912
65	0x3bebb569	0.0071932566
66	0xbcc8410c	-0.02444508
67	0xbd40dd8b	-0.04708628
68	0xbcc0f4b1	-0.023554178
69	0x3156be13	3.1249143e-09
70	0xbd4a271b	-0.0493537
71	0xbd72f1ee	-0.059312753
72	0x3c617412	0.0137605835
73	0xbcbfc66d	-0.023410046
74	0xbd79abfc	-0.060955033
75	0xbcc1d260	-0.023659885
76	0xbcc9aab1	-0.024617525
77	0xbd0f1463	-0.03493155
78	0xbccf83f9	-0.025331484
79	0xbcec8033	-0.028869724
80	0xbd06bccb	-0.03289489
81	0x3d885fcf	0.06658899
82	0xbd0f19e1	-0.03493679
83	0x3c80f9c5	0.0157441
84	0x3c6e8d56	0.014560064
85	0xbcb4197c	-0.021984808
86	0xbbf34c93	-0.0074249
87	0xbc9cf279	-0.019158589
88	0x3c572549	0.013131448
89	0xbd39d0e3	-0.045365226
90	0xbd3b5371	-0.045733873
91	0xbd2b2e98	-0.041792482
92	0xbc8c38d7	-0.017116947
93	0xbcff174b	-0.031139037
94	0xbc826518	-0.015917346
95	0x3c83be06	0.016081821
96	0xbd0bc7a7	-0.03412595
97	0xbd16499e	-0.0366913
98	0xb85fddf5	-5.3374057e-05
99	0x3aef634d	0.0018263847
100	0xbd1db7bb	-0.038505297
101	0xbc89bfd6	-0.016815107
102	0xbd1a8c77	-0.037731614
103	0xbd81f9e2	-0.063464895
104	0xbc867c0e	-0.016416576
105	0x2186428c	9.097808e-19
106	0xbce719f1	-0.028210612
107	0x3bdb1841	0.006686241
108	0xbb969589	-0.0045954627
109	0x3c40208f	0.011726513
110	0xbd07a481	-0.033115868
111	0xbd09db89	-0.03365663
112	0xbd0924fa	-0.03348253
113	0xbcaabf52	-0.020843182
114	0xbce7ea73	-0.028310036
115	0xbd0c4784	-0.03424789
116	0xbd341279	-0.04396293
117	0xbcf9f401	-0.030511858
118	0xbc4e0765	-0.012575005
119	0xbc82437e	-0.015901323
120	0xbd39a2d5	-0.045321304
121	0xbce89181	-0.028389694
122	0xbcb6600f	-0.022262601
123	0xbb763e80	-0.0037573874
124	0xbd2dc837	-0.042427268
125	0xbcde5663	-0.027140802
126	0xb99b5705	-0.00029628738
127	0xbcb52675	-0.022113064

action_model._continuous_distribution.log_sigma f4 [1, 9]
0	0x40119a83	2.2750556
1	0x401455be	2.3177333
2	0x402a80e9	2.664118
3	0x401a0ab9	2.4069045
4	0x401cf7f5	2.452634
5	0x4017cd94	2.3719225
6	0x40132fbe	2.299789
7	0x401498b9	2.3218215
8	0x4013e6cf	2.3109624

action_model._continuous_distribution.mu.weight f4 [9, 128]
0	0x3e057256	0.13031897
1	0xbd21fc0b	-0.039547008
2	0xbc0b3371	-0.008496151
3	0x3cf4be51	0.029875906
4	0xbd2e33a9	-0.042529736
5	0x3b9557ab	0.00455757
6	0x3d800b9f	0.062522165
7	0x3c8d4e85	0.017249355
8	0xbc19e9cd	-0.009394121
9	0x3dade22b	0.08490404
10	0xbb1b485c	-0.0023694253
11	0x3c04e0ec	0.008110266
12	0xbd22cb4a	-0.039744653
13	0xbcf2d402	-0.029642109
14	0x3c2e3041	0.010631622
15	0xbda255b4	-0.07926503
16	0xbd231eb1	-0.03982419
17	0x3d8a5a93	0.06755557
18	0x3d287f97	0.041137304
19	0xbbcec594	-0.0063101742
20	0xbda0f27b	-0.078587495
21	0x3cc023a8	0.023454502
22	0x3cf83654	0.030299343
23	0x3c0cd08e	0.008594645
24	0x3c594c0f	0.013262763
25	0x3d1c0611	0.038091723
26	0xbd60b556	-0.054860435
27	0xbcc72688	-0.024310365
28	0x3c17c639	0.009263569
29	0xbbc33441	-0.005957157
30	0xbca324ba	-0.019914974
31	0x3c8be6ca	0.017077822
32	0x3c7a6dc0	0.0152849555
33	0xba0b2b26	-0.0005308859
34	0xbca8424e	-0.020539429
35	0xbb8eaf24	-0.0043543745
36	0x3ba57b9f	0.005050137
37	0x38f88c13	0.000118516524
38	0x3d787699	0.06065998
39	0x3d8e663b	0.06953093
40	0xbc959676	-0.018260222
41	0x3d800242	0.06250431
42	0x3dda4d76	0.10659306
43	0x3d5ff3e4	0.05467595
44	0x3b4775c7	0.003043519
45	0x3dc8580d	0.09782419
46	0x3b339c5c	0.002740643
47	0x3d024e8c	0.03181319
48	0x3d288bf7	0.041149106
49	0xbb253261	-0.002520703
50	0x3cbef5cc	0.023310564
51	0xbc5e69a9	-0.013574996
52	0x3afa7b0f	0.0019110161
53	0x3c85f4ba	0.016352046
54	0x3d6416bd	0.055685747
55	0xbc30d07b	-0.010791893
56	0x3ae72d66	0.0017637431
57	0x3cd7e3c1	0.026353719
58	0x3ca4980e	0.020092037
59	0xbcb02c98	-0.021505639
60	0x3d4c1017	0.049820032
61	0xbd0bd7f1	-0.034141485
62	0x3ce4345d	0.027857
63	0x3d473a78	0.048639745
64	0xbde5a5d1	-0.112132676
65	0x3cbb5835	0.022869209
66	0x3d195159	0.037431095
67	0xbd6acb1f	-0.057322618
68	0xbba1b623	-0.0049350425
69	0xbc2f0884	-0.010683183
70	0x3d39611c	0.045258626
71	0x3dc4d780	0.09611416
72	0x3d3fe03c	0.046844706
73	0xbc9fca69	-0.019505696
74	0xbc4f32e5	-0.012646412
75	0x3d91e5b5	0.07123891
76	0x3c8b3fb4	0.01699815
77	0x3c0ee8c4	0.008722488
78	0x3da0ae07	0.07845693
79	0xbc328bd4	-0.010897595
80	0xbb88f391	-0.004179426
81	0xbc7bcf3c	-0.015369233
82	0x3c584a3d	0.013201294
83	0x3c7e8eb4	0.015536953
84	0x3d1a5c29	0.037685547
85	0xbd9fa062	-0.077942625
86	0x3c90bc3b	0.01766788
87	0x3d871677	0.06596082
88	0xbdad9e92	-0.084775105
89	0xbbaf97a0	-0.0053586513
90	0x3d2885d2	0.041143246
91	0x3c508fe0	0.012729615
92	0xba474406	-0.0007601384
93	0x3d5e2c88	0.054241687
94	0xbcc1a849	-0.023639815
95	0xbc4d7f92	-0.012542622
96	0xbcf0c15b	-0.029389074
97	0xbae60900	-0.001755029
98	0x3d657f5d	0.056029666
99	0xbc2fb728	-0.01072482
100	0x3cab839b	0.020936778
101	0xbcda1910	-0.026623279
102	0xbc1eda26	-0.009695565
103	0x3d3d09d2	0.046151944
104	0xbc675d0a	-0.014121303
105	0x3c91935c	0.017770462
106	0xbd100360	-0.03515947
107	0x3c7dcc56	0.015490612
108	0x3d674d2e	0.05647009
109	0x3d769e99	0.060209844
110	0xbc1dadd4	-0.009623963
111	0x3c843b2d	0.016141498
112	0x3ba4c65d	0.0050285296
113	0x3d7b6d91	0.061383788
114	0x3b8f339e	0.004370167
115	0xbbdb3fb5	-0.006690944
116	0x3d121013	0.03565986
117	0x3d2b8a04	0.04187967
118	0x3bcb4069	0.0062027466
119	0x3c377daf	0.011199399
120	0x3d597992	0.053094454
121	0x3cf6f45b	0.030145815
122	0x3d15bb7f	0.036555763
123	0x3d65a594	0.05606611
124	0xbcec2a5c	-0.028828792
125	0x3d8599e0	0.0652349
126	0x3dbf1e7c	0.09331986
127	0x3d2418d9	0.04006276
128	0xbccb587c	-0.024822466
129	0x3c76d585	0.015065555
130	0x3ccf0dba	0.0252751
131	0x3d1ef443	0.038807165
132	0x3dbeb1a1	0.09311224
133	0x3c1491d9	0.009067976
134	0xbd791604	-0.06081201
135	0x3c84cf9f	0.016212283
136	0x3c46d1bd	0.012134966
137	0xbd344327	-0.044009354
138	0x3cc18866	0.02362461
139	0xbc9b4b8c	-0.018956922
140	0x3ca34d64	0.019934364
141	0xbcdcb1a5	-0.026940176
142	0x3c461a41	0.01209122
143	0xbda85474	-0.08219233
144	0x3d8041c5	0.062625445
145	0xbd82b6c7	-0.06382518
146	0xbd9d840a	-0.076912
147	0xbab7ffa0	-0.0014037974
148	0xbd1652a1	-0.036699895
149	0x3ad1fb7e	0.0016020385
150	0x3d57e4d4	0.052708462
151	0xbc1a7020	-0.009426147
152	0x3b101c22	0.0021989425
153	0xbd8bb779	-0.06822104
154	0xbcbe6203	-0.023240095
155	0x3cf87030	0.030326933
156	0x3c546492	0.012963431
157	0x3c98c332	0.018647764
158	0xbd39635a	-0.045260765
159	0x3b891c98	0.004184317
160	0x3ad8dd15	0.001654538
161	0xbc52c610	-0.012864605
162	0xbc5860f5	-0.01320671
163	0x3c970a96	0.018437665
164	0x3bb290ff	0.005449414
165	0xb9eb5063	-0.00044882586
166	0xbda709b0	-0.081561446
167	0xbd68ba1f	-0.056818124
168	0x3b85ca9b	0.0040829903
169	0xbdf421da	-0.11920519
170	0x3d237b0a	0.03991226
171	0xbd80a875	-0.06282131
172	0xbc49adbf	-0.012309491
173	0xbdd293df	-0.102821104
174	0xbcb72596	-0.02235679
175	0xbc561d03	-0.01306844
176	0xbe461189	-0.19342627
177	0x3c99d0e7	0.01877637
178	0xbceb5b7c	-0.028730147
179	0x3b89dd8e	0.0042073196
180	0xbc2e665a	-0.01064452
181	0xbc82daa8	-0.015973404
182	0xbc048730	-0.008088872
183	0xbd0985ef	-0.033574995
184	0xbcd73382	-0.026269678
185	0x3b4df877	0.0031428614
186	0x3c161c05	0.009161954
187	0x3d82a741	0.063795574
188	0xbd418eed	-0.047255445
189	0xbd61a066	-0.05508461
190	0xbd502eaf	-0.05082577
191	0xbe0d4881	-0.1379719
192	0xbd73b7ce	-0.05950146
193	0xbdbef0d7	-0.0932328
194	0xbd17e475	-0.037083108
195	0xbcf24d91	-0.029578002
196	0xbbcc1f8e	-0.0062293475
197	0xba378cd9	-0.0007001884
198	0xbd823fc0	-0.063598156
199	0x3be56542	0.0070005963
200	0xbd52269b	-0.05130635
201	0x3ce79cc5	0.028272996
202	0x3b50a950	0.00318392
203	0xbda22071	-0.07916344
204	0xbd1cf77d	-0.03832196
205	0xbd21e6fe	-0.039526932
206	0xbd64b266	-0.055834197
207	0x3c6677e6	0.014066672
208	0x3b8cec15	0.004300604
209	0xbe217279	-0.15766324
210	0xbc68e6dc	-0.014215197
211	0xbc8e4667	-0.017367555
212	0xbd4e9653	-0.05043633
213	0xbd14bba3	-0.036311757
214	0xbc3a3253	-0.011364537
215	0xbd2aa12d	-0.041657615
216	0xbe002098	-0.12512434
217	0x3a6fa225	0.0009141288
218	0xbd7e889c	-0.062142
219	0xbbd48fe5	-0.00648688
220	0x3c6497ee	0.0139522385
221	0xbd914b15	-0.07094399
222	0xbd706f1d	-0.058699716
223	0xbddffcc7	-0.10936885
224	0xbd284454	-0.041080788
225	0xbc7380af	-0.0148622235
226	0x3c23c8f9	0.009996646
227	0xbd4d018d	-0.050050307
228	0xbc9c5a9e	-0.019086178
229	0xbbcd0773	-0.0062569915
230	0x3ce22709	0.027606504
231	0xbc75d67e	-0.015004752
232	0xbc1d2244	-0.009590689
233	0xba807daa	-0.0009803076
234	0xbccbf282	-0.02489591
235	0xbd6f4034	-0.05841084
236	0xbd791625	-0.060812134
237	0xbd8df74d	-0.069319345
238	0x3bc081ca	0.005874847
239	0x3c995e60	0.01872176
240	0xbb92b26e	-0.004476837
241	0xbd65f096	-0.056137644
242	0xbd397a9b	-0.04528294
243	0xbd35a889	-0.04435018
244	0xbcd7d2f9	-0.026345717
245	0x3bb0ec19	0.005399239
246	0xbb889a42	-0.0041687796
247	0xbc29f87e	-0.010374187
248	0xbd50ce1d	-0.050977815
249	0xbe0c1031	-0.13678052
250	0xbd92814d	-0.071535684
251	0xbd82d1bc	-0.0638766
252	0xbcc43bed	-0.023954356
253	0x39cca258	0.00039030868
254	0x3c021d55	0.007941564
255	0x3bb42a04	0.0054981727

action_model._continuous_distribution.mu.bias f4 [9]
0	0x3d88d499	0.06681175
1	0xbdd43efb	-0.10363575
2	0xbd6e9384	-0.05824615
3	0x3cf82ab5	0.030293802
4	0x3dc59dbc	0.09649226
5	0xbd94df43	-0.07269146
6	0xbd67ac95	-0.05656107
7	0xbdd82c96	-0.10555379
8	0xbdaa8620	-0.083263636

exp_avg f4 [128, 12]
0	0x3d0e779b	0.034782033
1	0x3ccee5ef	0.025256125
2	0x3bb4019a	0.005493355
3	0x3c323e6d	0.010879141
4	0x3c352bd5	0.011057814
5	0xb83f5cdb	-4.5624427e-05
6	0x3b75ef2b	0.0037526588
7	0x3d025193	0.031816076
8	0x3c9bcfca	0.01901998
9	0x3a9e8cfb	0.0012096459
10	0x3a266d72	0.0006348706
11	0xba72b7ec	-0.0009258974
12	0xbc1dce05	-0.009631638
13	0xbc6fc84c	-0.014635157
14	0xbc1c7f36	-0.009551814
15	0xbc572f6e	-0.013133867
16	0xbc6f9d6f	-0.014624937
17	0xbc7dd7d5	-0.015493353
18	0xbb1cc4b3	-0.0023920953
19	0xbb86d280	-0.004114449
20	0xbc5446b9	-0.012956315
21	0x39baae9e	0.00035606785
22	0xb967da12	-0.00022111114
23	0xb9c79413	-0.00038066562
24	0xbc1d345f	-0.009595006
25	0xbc5f6d98	-0.013636969
26	0xbb84c9c1	-0.0040523713
27	0xba9b7cf5	-0.0011862802
28	0xbb83bb52	-0.004020133
29	0xbb0fc5ee	-0.0021938044
30	0xbafa5e6d	-0.0019101627
31	0xbbbc9710	-0.0057553127
32	0xbc18ba73	-0.009321797
33	0xb9f6185c	-0.00046938926
34	0xb982bfb2	-0.00024938356
35	0x39a30888	0.0003109614
36	0x3c6161a5	0.01375619
37	0x3c4a590f	0.012350335
38	0x3bbf2552	0.0058333063
39	0x3bd34655	0.006447593
40	0x3c191de3	0.009345504
41	0x3bbfc810	0.0058527067
42	0x3af37644	0.0018574675
43	0x3c4bbafc	0.012434717
44	0x3c2b695c	0.010462131
45	0x3984d19b	0.0002533317
46	0x3991d453	0.0002781475
47	0xb91ca17d	-0.00014937478
48	0x3c0915f0	0.008367047
49	0x3a70665d	0.0009170527
50	0xbb7e15f6	-0.0038770414
51	0x39d0e5a5	0.0003984395
52	0x39f36a9c	0.00046428002
53	0xbae215f3	-0.0017248973
54	0x38f3d720	0.00011627213
55	0x3bd8add4	0.006612519
56	0x3a45c2a7	0.0007543959
57	0x3923846a	0.0001559422
58	0x387866d8	5.922359e-05
59	0xb9172258	-0.00014413276
60	0x35158a40	5.5708006e-07
61	0x350ec49a	5.3185215e-07
62	0x3345ed4e	4.6083464e-08
63	0x30c69083	1.4447469e-09
64	0x34ad9a3b	3.2335979e-07
65	0x3487e1f4	2.5310112e-07
66	0x3397d807	7.0707806e-08
67	0x34f2a587	4.519645e-07
68	0x34c9b427	3.7570246e-07
69	0x3160bae9	3.2702536e-09
70	0x3213bdc3	8.599673e-09
71	0xb1949d06	-4.3252184e-09
72	0x3c8219c2	0.015881423
73	0x3b8b0fd7	0.0042438316
74	0xbb879f8b	-0.004138892
75	0x3ad4bb04	0.0016230051
76	0x3ab3e1a9	0.0013723868
77	0xbae0b05f	-0.0017142406
78	0x3a395699	0.0007070094
79	0x3c5a57f0	0.01332663
80	0x3b286ca4	0.002569952
81	0x3a27ca23	0.0006400665
82	0x3943bec9	0.00018667722
83	0xb9ef54dc	-0.00045648857
84	0x257b381b	2.1789789e-16
85	0x2577177c	2.1431792e-16
86	0x23bb006c	2.027476e-17
87	0x228c66c6	3.805589e-18
88	0x2518e059	1.325991e-16
89	0x24f15510	1.0466119e-16
90	0x24193f29	3.3230085e-17
91	0x25789199	2.1559902e-16
92	0x2539d981	1.6119885e-16
93	0xa0131909	-1.2459668e-19
94	0x2267b215	3.1400614e-18
95	0x21b60d90	1.233639e-18
96	0x3d224e0a	0.039625205
97	0x3cfc437d	0.0307939
98	0x3be2fdf7	0.0069272476
99	0x3c4940f1	0.01228355
100	0x3c65a99d	0.01401749
101	0x3a2bda03	0.00065556186
102	0x3b97b5d8	0.0046298318
103	0x3d128038	0.03576681
104	0x3cc1150e	0.02356961
105	0x3a98b31e	0.0011650061
106	0x3a43e5a1	0.0007472877
107	0xba7531b7	-0.00093534164
108	0x3c914d1c	0.017736964
109	0x3c747891	0.014921323
110	0x3a27f092	0.0006406392
111	0x3c893e00	0.016753197
112	0x3c0e4924	0.00868443
113	0x3bd6f16f	0.006559543
114	0x3b0e7f5d	0.0021743395
115	0x3c5be7a9	0.013421931
116	0x3c40f25d	0.011776534
117	0x38f2255d	0.00011546419
118	0x39881215	0.00025953414
119	0x389d5b27	7.503322e-05
120	0xa63521bf	-6.2842724e-16
121	0xa89ee8e7	-1.7642529e-14
122	0xa8e73286	-2.5668063e-14
123	0xa905e2e7	-2.972874e-14
124	0xa8fe3404	-2.8222223e-14
125	0xa8e09153	-2.493202e-14
126	0xa713e81e	-2.052618e-15
127	0xa8219e4f	-8.971623e-15
128	0xa8bbb77b	-2.0840743e-14
129	0xa62aad73	-5.9215666e-16
130	0xa626bb06	-5.7846283e-16
131	0x263478cc	6.2613755e-16
132	0x1ed4ed35	2.254448e-20
133	0x208db0ef	2.4003414e-19
134	0x20c1a866	3.2806909e-19
135	0x20a621fb	2.814398e-19
136	0x207eb1a1	2.1573409e-19
137	0x1f0b3f9a	2.9487005e-20
138	0x1ee7d924	2.4547884e-20
139	0x1fb7a4a4	7.777589e-20
140	0x208b892c	2.3638289e-19
141	0x1db115c7	4.6874027e-21
142	0x1dc2f36d	5.160307e-21
143	0x9c8ebbcc	-9.445316e-22
144	0x3c3edf19	0.01164987
145	0xbaa15a39	-0.0012310214
146	0xbbdecbc2	-0.006799192
147	0xbba848f3	-0.0051356493
148	0xbb186105	-0.0023251188
149	0xbbc56e84	-0.0060251374
150	0xb98703ea	-0.00025752123
151	0x3c3ef863	0.0116559
152	0xbaf19a85	-0.0018432891
153	0x3a0000c9	0.00048829295
154	0x38cd000c	9.7751705e-05
155	0xba04c9fa	-0.0005065497
156	0x0587de6e	1.2777047e-35
157	0x05562d37	1.0070536e-35
158	0x025dfb43	1.6308624e-37
159	0x05784b5b	1.16747446e-35
160	0x04f4e38b	5.757309e-36
161	0x04b516dc	4.257389e-36
162	0x03e343a9	1.3357395e-36
163	0x024715da	1.4626482e-37
164	0x0539bd5b	8.733437e-36
165	0x02ef7f51	3.519097e-37
166	0x029b83ba	2.285081e-37
167	0x82bd1f6c	-2.778909e-37
168	0xb9423511	-0.0001852105
169	0xbb6621ef	-0.003511544
170	0xbb9b12d3	-0.0047324686
171	0xbb8d70f0	-0.0043164417
172	0xbb1d4777	-0.0023998895
173	0xbb08d08b	-0.0020876254
174	0xb9e92680	-0.00044469908
175	0xbb1f6d6c	-0.0024326695
176	0xbb669cbf	-0.0035188643
177	0x3882bb99	6.233826e-05
178	0xb88b04da	-6.62894e-05
179	0x3843fefd	4.67291e-05
180	0x00000004	6e-45
181	0x00000004	6e-45
182	0x00000004	6e-45
183	0x00000004	6e-45
184	0x00000004	6e-45
185	0x00000004	6e-45
186	0x00000004	6e-45
187	0x00000004	6e-45
188	0x00000004	6e-45
189	0x80000004	-6e-45
190	0x00000004	6e-45
191	0x00000004	6e-45
192	0x360818d3	2.0280029e-06
193	0x38bec898	9.0972695e-05
194	0x38fb17e4	0.00011973063
195	0x38db839a	0.000104672465
196	0x385aba15	5.2148553e-05
197	0x381d9f5c	3.7580132e-05
198	0x3766b8a1	1.3752056e-05
199	0x367220e4	3.6079955e-06
200	0x38a4146b	7.8239325e-05
201	0x35c53b18	1.4694842e-06
202	0x35cd78fe	1.5308904e-06
203	0xb3b049e7	-8.2090814e-08
204	0xb78797f4	-1.6164013e-05
205	0xb9cf6fb2	-0.00039565336
206	0xba15cd0b	-0.0005714453
207	0xb9f94ea6	-0.0004755158
208	0xba0f0961	-0.00054564147
209	0xba263e9e	-0.0006341728
210	0xb8930031	-7.009542e-05
211	0xb7b2a53e	-2.12962e-05
212	0xb9d712f3	-0.00041022114
213	0x373f2e8b	1.1395324e-05
214	0xb6e725d1	-6.888739e-06
215	0xb71a9e4d	-9.215973e-06
216	0xbb6ee958	-0.0036455002
217	0xbb9f2121	-0.004856244
218	0x3a80fffe	0.0009841917
219	0xbab8434d	-0.0014058143
220	0xbb04b891	-0.0020251612
221	0xbabd1e64	-0.0014428613
222	0xba435321	-0.0007451047
223	0xbb84d038	-0.004053142
224	0xbb43108d	-0.0029764504
225	0xb92c2ef9	-0.00016420697
226	0xb8b13116	-8.449161e-05
227	0x3879f33b	5.9592752e-05
228	0x3ccef0f2	0.025261376
229	0x3c4543d5	0.012040098
230	0x394ba126	0.00019419621
231	0x3b5ba6d0	0.0033516176
232	0x3ba19234	0.004930759
233	0xbb2e6320	-0.0026609376
234	0x3af06740	0.0018341318
235	0x3cbaaa23	0.022786206
236	0x3c175db8	0.009238653
237	0x3a7b3e45	0.0009584169
238	0x39cf20dc	0.000395066
239	0xba4900e7	-0.0007667676
240	0x1a99c102	6.359114e-23
241	0x1c482f98	6.623596e-22
242	0x1c896bef	9.0938e-22
243	0x1c70289c	7.9461825e-22
244	0x1c7989ed	8.2565454e-22
245	0x1c883994	9.014609e-22
246	0x1be33958	3.7591057e-22
247	0x9985ff15	-1.3854904e-23
248	0x1bac45f6	2.8500224e-22
249	0x1b6591c3	1.8989534e-22
250	0x19b5f203	1.8812709e-23
251	0x1b6fd08a	1.9836999e-22
252	0xbc344302	-0.011002304
253	0xbc393e07	-0.011306292
254	0xbc87216e	-0.016495433
255	0xbc9f8cdb	-0.019476345

exp_avg_sq f4 [128, 12]
0	0x3d78095a	0.060555793
1	0x3d77a9f2	0.060464807
2	0x3d8090ef	0.06277644
3	0x3d9d1f83	0.07672026
4	0x3d6bdc0d	0.057582904
5	0x3d2c250e	0.042027526
6	0x3b00b1b3	0.0019637167
7	0x3d25d9cb	0.040490907
8	0x3d60767e	0.054800503
9	0x37a1beda	1.9281568e-05
10	0x37e78b0f	2.76021e-05
11	0x379e4510	1.8867227e-05
12	0x3b89290f	0.004185803
13	0x3b91f97f	0.004454791
14	0x3b8f0dd8	0.004365664
15	0x3ba7a84f	0.0051164995
16	0x3b685474	0.0035450729
17	0x3b255385	0.0025226783
18	0x394ab21d	0.00019330574
19	0x3b1d6dfe	0.002402186
20	0x3b6f172e	0.0036482322
21	0x35d45a8f	1.5821587e-06
22	0x35f5aaa3	1.8303584e-06
23	0x35cec799	1.5406287e-06
24	0x3cb80954	0.022465385
25	0x3c8709ca	0.01648416
26	0x3c637752	0.013883429
27	0x3cccbae2	0.024991456
28	0x3c87b4cb	0.016565701
29	0x3c476d0d	0.012171996
30	0x3a387a80	0.0007037297
31	0x3c379c6a	0.011206726
32	0x3c6ae870	0.014337644
33	0x36c20683	5.7824086e-06
34	0x36f9d38b	7.445405e-06
35	0x36c686ee	5.9165677e-06
36	0x3bb3c9f5	0.0054867216
37	0x3ba99e32	0.005176329
38	0x3b615ac0	0.0034386367
39	0x3b6a8ef3	0.003579077
40	0x3b875bd9	0.004130822
41	0x3b3c8078	0.0028763097
42	0x392fd25f	0.0001676767
43	0x3b1ee4c8	0.002424525
44	0x3b8b49c0	0.004250735
45	0x35c96f3d	1.5008042e-06
46	0x360f6b9a	2.1371293e-06
47	0x35d59395	1.5912689e-06
48	0x3b2b6da3	0.0026157878
49	0x3b45027b	0.0030061293
50	0x3b39c38d	0.0028345317
51	0x3b23ec7f	0.0025012789
52	0x3b1aa5ad	0.0023597286
53	0x3ad7d809	0.0016467582
54	0x38c55330	9.409187e-05
55	0x3acb4cfe	0.0015510616
56	0x3b25dc29	0.0025308228
57	0x357d5b82	9.4383006e-07
58	0x35aa9ebc	1.2712185e-06
59	0x35814870	9.632331e-07
60	0x3629e9aa	2.5318973e-06
61	0x3650b38d	3.1098928e-06
62	0x32ad26aa	2.0157433e-08
63	0x31df1c83	6.4933956e-09
64	0x35ad66be	1.2919406e-06
65	0x353fcb24	7.1448653e-07
66	0x339586e5	6.96289e-08
67	0x356b8a96	8.774599e-07
68	0x3542a87c	7.251581e-07
69	0x30405675	6.9972056e-10
70	0x307ad597	9.1253e-10
71	0x307c28bf	9.173497e-10
72	0x3c89b54b	0.01681008
73	0x3c9b393d	0.018948192
74	0x3c847478	0.016168818
75	0x3c8b1274	0.016976573
76	0x3c6dcbf3	0.014513957
77	0x3c2a6dbe	0.010402141
78	0x3a3d6685	0.00072250544
79	0x3c1e4456	0.009659847
80	0x3c7dac27	0.015482939
81	0x36bf6f52	5.705203e-06
82	0x37033be4	7.822153e-06
83	0x36c14e4d	5.7609636e-06
84	0x35dd3408	1.6480926e-06
85	0x3852b9f7	5.0241095e-05
86	0x38b7bb04	8.7609544e-05
87	0x389b99e5	7.419641e-05
88	0x3575d326	9.1576874e-07
89	0x384e5915	4.919719e-05
90	0x369bc55b	4.642335e-06
91	0x38f53e8c	0.00011694161
92	0x38401ae9	4.580143e-05
93	0x32cb7d1a	2.36892e-08
94	0x32d06df8	2.4264395e-08
95	0x32d07761	2.4268674e-08
96	0x3da40998	0.08009642
97	0x3d98448c	0.07434949
98	0x3d885b58	0.066580474
99	0x3da71f18	0.081602275
100	0x3d8b2a7a	0.06795211
101	0x3d45e7d7	0.048316803
102	0x3b5250c1	0.003209159
103	0x3d30a0af	0.04312199
104	0x3d8861e5	0.06659297
105	0x37c0fa55	2.3004754e-05
106	0x380ae21f	3.3112356e-05
107	0x37bdd81b	2.2631188e-05
108	0x3bd712ce	0.006563521
109	0x3b864ce5	0.004098522
110	0x3a34efcc	0.00069021876
111	0x3bd74ddb	0.0065705604
112	0x3b0fabcd	0.002192247
113	0x3ab77b4e	0.001399854
114	0x395fa856	0.00021329647
115	0x3b837e13	0.004012832
116	0x3b3411bc	0.002747639
117	0x35a72d64	1.245568e-06
118	0x35bd07b7	1.4083843e-06
119	0x35a46865	1.2249335e-06
120	0x369db506	4.7000385e-06
121	0x388e5ef0	6.788771e-05
122	0x390130f0	0.0001232063
123	0x39224106	0.00015473747
124	0x392ff2c8	0.00016779744
125	0x38b29cd2	8.5169115e-05
126	0x34b7c0f9	3.4226812e-07
127	0x37cf3f35	2.4705756e-05
128	0x36200676	2.3845619e-06
129	0x332fdbbe	4.0945217e-08
130	0x331b2eaf	3.613121e-08
131	0x3300d838	2.9998972e-08
132	0x29fd2776	1.12423024e-13
133	0x2d6ae389	1.3351883e-11
134	0x2dda0957	2.4787878e-11
135	0x2da08e09	1.825297e-11
136	0x2d74cd8d	1.3915436e-11
137	0x28610ec8	1.2493214e-14
138	0x2b34904c	6.41491e-13
139	0x29124594	3.2478862e-14
140	0x2d4ec94c	1.1754441e-11
141	0x278fd65e	3.992289e-15
142	0x27d91a07	6.025782e-15
143	0x27d91a07	6.025782e-15
144	0x3c1ffe9f	0.009765296
145	0x3c3ac025	0.01139835
146	0x3c0fe174	0.00878178
147	0x3c0104ed	0.00787471
148	0x3c0b08a3	0.008485946
149	0x3bc2aa2e	0.005940697
150	0x39b69077	0.0003482138
151	0x3b9fd346	0.0048774807
152	0x3c162966	0.009165144
153	0x365c7eb0	3.2856296e-06
154	0x3698b1ef	4.550667e-06
155	0x365f5743	3.3280382e-06
156	0x07b1e98e	2.676927e-34
157	0x06115e97	2.7340963e-35
158	0x05688ca7	1.0934421e-35
159	0x03a7ec64	9.8696505e-37
160	0x04b22b54	4.188739e-36
161	0x0682ec64	4.924791e-35
162	0x07b6866b	2.746332e-34
163	0x05958e90	1.4064262e-35
164	0x07c18287	2.911613e-34
165	0x01acee7b	6.3525024e-38
166	0x01819e96	4.7614676e-38
167	0x0184b331	4.874627e-38
168	0x37fce33e	3.0146559e-05
169	0x3bc787fc	0.0060892086
170	0x3c34d456	0.011036953
171	0x3c15c279	0.009140604
172	0x3b4490d8	0.002999356
173	0x3b47dd7e	0.003049701
174	0x38f57cd4	0.000117057614
175	0x3b84ecbc	0.0040565412
176	0x3b8443bc	0.004036395
177	0x36087275	2.0332202e-06
178	0x3622a27a	2.4234455e-06
179	0x3613ef03	2.204383e-06
180	0x0180985f	4.7238416e-38
181	0x000e1a3e	1.295111e-39
182	0x011d25b0	2.8863385e-38
183	0x0000fcb7	9.0657e-41
184	0x000ced02	1.187048e-39
185	0x00054aab	4.85963e-40
186	0x00009d23	5.637e-41
187	0x00351294	4.873946e-39
188	0x00016a89	1.30053e-40
189	0x00001a5f	9.46e-42
190	0x000025f2	1.3612e-41
191	0x000025f2	1.3612e-41
192	0x358f14fd	1.0660439e-06
193	0x3909c5a0	0.00013138959
194	0x397eb89a	0.00024292097
195	0x39577c9f	0.00020550423
196	0x346d4600	2.2097811e-07
197	0x39062dd3	0.00012796307
198	0x35433393	7.271821e-07
199	0x384381f9	4.661267e-05
200	0x36c593ce	5.8882642e-06
201	0x336b3779	5.4765653e-08
202	0x33878043	6.309758e-08
203	0x3388997f	6.360914e-08
204	0x3a31a3a8	0.0006776401
205	0x39bdbfe6	0.00036191865
206	0x3935e0af	0.00017345206
207	0x3a4994ad	0.0007689696
208	0x39c3ebbd	0.00037368937
209	0x394c2a31	0.00019470674
210	0x3a38f6d9	0.0007055826
211	0x392c8adc	0.00016454927
212	0x397023c6	0.0002290151
213	0x3454e9c3	1.982908e-07
214	0x3457e7fa	2.0107828e-07
215	0x3453c391	1.9722053e-07
216	0x3bc90efc	0.0061358195
217	0x3b81f33b	0.003965763
218	0x3adada32	0.0016697107
219	0x3b866d07	0.0041023525
220	0x3b59b789	0.0033220968
221	0x3b159e0d	0.0022829801
222	0x393bac36	0.00017897863
223	0x3b3c9e14	0.0028780745
224	0x3b4fd650	0.0031713434
225	0x35b2ff41	1.3336322e-06
226	0x35d759d6	1.6044894e-06
227	0x35b84984	1.3730464e-06
228	0x3d25b9d3	0.04046042
229	0x3d259e65	0.04043426
230	0x3d2d2ffb	0.042282086
231	0x3d4280b9	0.04748604
232	0x3d1b637a	0.037936665
233	0x3ce27837	0.027645214
234	0x3ae1c148	0.001722374
235	0x3cbe6176	0.023239832
236	0x3d17c200	0.037050247
237	0x3757f74d	1.2872578e-05
238	0x379ad468	1.845714e-05
239	0x375606ee	1.2757007e-05
240	0x38639d5f	5.426758e-05
241	0x37542a54	1.264604e-05
242	0x3805a624	3.18644e-05
243	0x37eb276c	2.803254e-05
244	0x383c3ab5	4.4877368e-05
245	0x37a48821	1.9613713e-05
246	0x3876049c	5.8655263e-05
247	0x36a5916e	4.9343134e-06
248	0x384e6e34	4.9216862e-05
249	0x328f3034	1.6669311e-08
250	0x32962b8a	1.7482098e-08
251	0x32990c94	1.7817264e-08
252	0x3bc009ee	0.0058605587
253	0x3cb2868d	0.021792674
254	0x3d237a77	0.039911713
255	0x3cfbcf1a	0.030738402

exp_avg f4 [128]
0	0x38c17416	9.22458e-05
1	0xb8706ab2	-5.7319827e-05
2	0xb82ebfb7	-4.166338e-05
3	0x384d439c	4.8938775e-05
4	0x36b072e8	5.2585856e-06
5	0x30f2c647	1.7664171e-09
6	0x37840453	1.573764e-05
7	0x21504272	7.056108e-19
8	0x38edd29a	0.00011340268
9	0x3859cf1d	5.192972e-05
10	0xa4d9b6a7	-9.4418174e-17
11	0x1c9c82fe	1.0357075e-21
12	0xb6679c3c	-3.4512623e-06
13	0x01442665	3.602706e-38
14	0xb770fc43	-1.4363849e-05
15	0x00000004	6e-45
16	0x34b5a3a0	3.383293e-07
17	0xb5ed6d03	-1.7689603e-06
18	0xb76a8d61	-1.3980404e-05
19	0x38483dab	4.774115e-05
20	0x1860d98d	2.9061157e-24
21	0xb8800747	-6.104871e-05
22	0x383a6bb1	4.444615e-05
23	0x389b09c6	7.3927964e-05
24	0xb7ecac19	-2.8213532e-05
25	0x36f7c350	7.383911e-06
26	0xb786f105	-1.6086278e-05
27	0x2871652f	1.3400128e-14
28	0xb76fc73c	-1.4291898e-05
29	0x37b90dce	2.2060147e-05
30	0xb60d8ddf	-2.1093217e-06
31	0x80000004	-6e-45
32	0x38053dcd	3.1767227e-05
33	0x3884e002	6.335975e-05
34	0x36807cab	3.8292105e-06
35	0x00000004	6e-45
36	0xa0aa9b7d	-2.8902014e-19
37	0xb87c7000	-6.018579e-05
38	0x81ae199e	-6.3954264e-38
39	0x3812de2e	3.5016034e-05
40	0x1723b8dc	5.2901466e-25
41	0xb876bef8	-5.8828824e-05
42	0x808bcdab	-1.2838914e-38
43	0x00000004	6e-45
44	0x00000004	6e-45
45	0xad82ec8d	-1.4884339e-11
46	0x371244c7	8.718292e-06
47	0x35ff3d96	1.9016904e-06
48	0x36691012	3.472906e-06
49	0xb6981b5f	-4.5331394e-06
50	0x385b6172	5.2304422e-05
51	0x00000004	6e-45
52	0x38cbe5f4	9.7226264e-05
53	0x00000004	6e-45
54	0x38efc6f1	0.00011433464
55	0x38becc54	9.097965e-05
56	0x37ec7c03	2.819114e-05
57	0x3901a369	0.00012363274
58	0xb5028374	-4.8620063e-07
59	0x379afbb4	1.8475439e-05
60	0x388e6239	6.789383e-05
61	0x386e67c0	5.6840247e-05
62	0x38c17c1d	9.226075e-05
63	0x361de1a1	2.3526156e-06
64	0x36ca5d4e	6.030931e-06
65	0x000301dc	2.76174e-40
66	0xb512c300	-5.4673e-07
67	0x0aa312f8	1.5703464e-32
68	0x386b052d	5.6033186e-05
69	0xb04f489e	-7.5409357e-10
70	0x37257978	9.863048e-06
71	0x0b20ae86	3.0946176e-32
72	0xb6eead2e	-7.1131135e-06
73	0x04f5ba97	5.777058e-36
74	0x00000004	6e-45
75	0x387c263e	6.0117098e-05
76	0x2002aeb2	1.106923e-19
77	0x3829f191	4.0517716e-05
78	0xb559f80a	-8.1199744e-07
79	0xb8929ff7	-6.991618e-05
80	0x37ea7d69	2.7953372e-05
81	0x80000004	-6e-45
82	0x378b2615	1.6587825e-05
83	0xb8f24118	-0.00011551584
84	0xb7f4c32e	-2.9177954e-05
85	0x90330050	-3.5301766e-29
86	0x05139f6e	6.9411894e-36
87	0x38cdc050	9.810983e-05
88	0xa260c547	-3.0462099e-18
89	0x37073754	8.059509e-06
90	0xb80e78e1	-3.3968015e-05
91	0x00000004	6e-45
92	0x382b6a7f	4.086876e-05
93	0x9848a531	-2.5932794e-24
94	0x8000000b	-1.5e-44
95	0x80000004	-6e-45
96	0x38c47990	9.368651e-05
97	0x389bf93c	7.4373995e-05
98	0x37cc5270	2.4357083e-05
99	0x36af2aaa	5.220373e-06
100	0x387c3982	6.013504e-05
101	0x370aa800	8.2645565e-06
102	0xb805af45	-3.1872903e-05
103	0x9199f396	-2.4289265e-28
104	0x38cde5ab	9.817941e-05
105	0x379b9bab	1.8549928e-05
106	0x818ee890	-5.249627e-38
107	0x00000004	6e-45
108	0x9a92182f	-6.0423255e-23
109	0xb6f860cd	-7.402245e-06
110	0xb83cf10e	-4.5047193e-05
111	0xb8d6351f	-0.0001021421
112	0x37dd1087	2.635295e-05
113	0xb869ebf2	-5.577127e-05
114	0x378de088	1.6913065e-05
115	0xb8dd6fc8	-0.00010558922
116	0x38cfaf3e	9.9031706e-05
117	0x80000004	-6e-45
118	0xb754eeca	-1.2691782e-05
119	0xb79c1393	-1.8605764e-05
120	0x386ee06c	5.695263e-05
121	0xb915eb9e	-0.00014297522
122	0x00000004	6e-45
123	0x00000004	6e-45
124	0x17a2172b	1.0474853e-24
125	0x39078684	0.00012924714
126	0x96d063c5	-3.3667176e-25
127	0x3719d549	9.16917e-06

exp_avg_sq f4 [128]
0	0x35974030	1.1269058e-06
1	0x339d6807	7.329805e-08
2	0x34a1bcf8	3.012608e-07
3	0x33b46162	8.399617e-08
4	0x3358bc72	5.046281e-08
5	0x2e00e6e1	2.9308892e-11
6	0x34a7ca5c	3.125341e-07
7	0x308222cd	9.468636e-10
8	0x35b41bd3	1.3419143e-06
9	0x3375b8f8	5.7211736e-08
10	0x30d7e26b	1.5707661e-09
11	0x258c04fc	2.4289506e-16
12	0x34420760	1.8070341e-07
13	0x001ba883	2.540009e-39
14	0x33db6f5e	1.021824e-07
15	0x000001f4	7e-43
16	0x31221da4	2.3590951e-09
17	0x320ffcf1	8.381208e-09
18	0x3389ed67	6.422743e-08
19	0x354a591a	7.5380524e-07
20	0x302dc534	6.3217276e-10
21	0x34db55d9	4.085439e-07
22	0x34b0fc3c	3.296608e-07
23	0x349666fc	2.8014608e-07
24	0x326d4739	1.381141e-08
25	0x333d3925	4.4056964e-08
26	0x337302ca	5.6580383e-08
27	0x2db2e8bd	2.0339614e-11
28	0x346d33f4	2.2091245e-07
29	0x340a20a8	1.2864132e-07
30	0x32756834	1.428457e-08
31	0x2f6edfa0	2.1725421e-10
32	0x337bad5c	5.859816e-08
33	0x3445fdb0	1.8439346e-07
34	0x3305dc55	3.1166866e-08
35	0x000001f4	7e-43
36	0x27304f9f	2.446807e-15
37	0x347c4a8b	2.3496447e-07
38	0x26562d48	7.430753e-16
39	0x345da178	2.0640971e-07
40	0x00008539	4.7791e-41
41	0x333d2087	4.4034575e-08
42	0x00608284	8.863028e-39
43	0x0062b85e	9.066017e-39
44	0x0001b5bf	1.57034e-40
45	0x2f355f15	1.6495634e-10
46	0x32d22ad3	2.4466692e-08
47	0x33a67d0e	7.752725e-08
48	0x348873fc	2.5416364e-07
49	0x32fd2df7	2.9473979e-08
50	0x34829764	2.4324538e-07
51	0x000001f4	7e-43
52	0x3555678e	7.9499375e-07
53	0x00036d43	3.14702e-40
54	0x34e03f7f	4.176945e-07
55	0x350527f0	4.960448e-07
56	0x33abad49	7.9943284e-08
57	0x35cdb002	1.5324915e-06
58	0x31e5e37b	6.6906387e-09
59	0x33db90f0	1.0224346e-07
60	0x358b1baa	1.0364358e-06
61	0x341e5110	1.4744387e-07
62	0x3478f286	2.318503e-07
63	0x32530a69	1.22841834e-08
64	0x32b070dd	2.0540421e-08
65	0x00042067	3.78966e-40
66	0x338cb462	6.5520695e-08
67	0x21858fe0	9.050514e-19
68	0x328ec8a8	1.6622224e-08
69	0x2d6edd42	1.3577863e-11
70	0x3266d8a6	1.3437022e-08
71	0x149c5330	1.5784786e-26
72	0x33b10c20	8.24441e-08
73	0x144e07c6	1.0401875e-26
74	0x000001f4	7e-43
75	0x35b489ca	1.3451147e-06
76	0x2b19e814	5.467859e-13
77	0x3337c176	4.278396e-08
78	0x31f03625	6.991075e-09
79	0x32445f8c	1.1430426e-08
80	0x351bae28	5.799543e-07
81	0x175225a6	6.790218e-25
82	0x330b6189	3.2452167e-08
83	0x351c9863	5.833628e-07
84	0x348bc74a	2.603577e-07
85	0x1fb40e15	7.625626e-20
86	0x0012faba	1.742983e-39
87	0x3511b301	5.4277194e-07
88	0x20911ef7	2.4584446e-19
89	0x34996510	2.8572003e-07
90	0x3278f1e6	1.4490501e-08
91	0x23625897	1.2270244e-17
92	0x34eaf555	4.37644e-07
93	0x31f7f178	7.216098e-09
94	0x28e60a5f	2.5539627e-14
95	0x0000020f	7.38e-43
96	0x3569dc00	8.7119406e-07
97	0x34b65a7a	3.3965972e-07
98	0x34ed10c9	4.4156903e-07
99	0x3339879d	4.319701e-08
100	0x347b99c4	2.3432136e-07
101	0x32fcf216	2.9446749e-08
102	0x34c4d043	3.6659375e-07
103	0x30391b3e	6.734132e-10
104	0x354c736c	7.6163883e-07
105	0x325caece	1.2845431e-08
106	0x2d5a2ea1	1.2402219e-11
107	0x00000f8e	5.58e-42
108	0x2c0341e1	1.865279e-12
109	0x343efa01	1.778608e-07
110	0x34bf93e3	3.5684124e-07
111	0x34b1c5e0	3.3112792e-07
112	0x32bfc529	2.2324985e-08
113	0x324464bc	1.1431606e-08
114	0x32f37b78	2.834507e-08
115	0x35647a76	8.5114823e-07
116	0x358b463e	1.037675e-06
117	0x13e6d8f0	5.827408e-27
118	0x3360f3f7	5.237595e-08
119	0x3552aaee	7.847983e-07
120	0x35e81ebc	1.7294292e-06
121	0x34c78fa4	3.717115e-07
122	0x201a8f2b	1.3091678e-19
123	0x291b4474	3.4476287e-14
124	0x32035705	7.6449895e-09
125	0x352413d4	6.1123615e-07
126	0x3153262d	3.0726242e-09
127	0x33775529	5.758662e-08
