Assets/results/SimpleArm/RollerBall/RollerBall-14848.pt (torch, 471321 bytes, 36 tensors)

network_body._body_endoder.seq_layers.0.weight f4 [128, 12]
000000 90 b1 fd bd 6c 19 5e be c1 b6 c5 3e 7e e7 47 3e
       -0.12387383 -0.21689385 0.38615993 0.19521901
000010 9a 79 dd bc b6 51 4b 3e 9e e9 02 be fb 75 20 bf
       -0.027035523 0.19855389 -0.1278443 -0.62680024
000020 08 89 b0 bd f2 74 60 be 5c e4 ce 3e 60 93 47 3e
       -0.08619887 -0.21919611 0.404086 0.19489813
000030 f3 b5 0b bf 11 1c a6 3e 23 10 7a 3d 6a c9 86 be
       -0.5457451 0.32443288 0.061050545 -0.26325542
000040 da c7 bf bd ff ff 46 be 77 27 20 3e 83 a2 0d be
       -0.093642905 -0.19433592 0.15640055 -0.13831525
000050 6f 85 b2 3d 50 2f 9e 3e 24 a8 2f 3b 73 ca e3 3d
       0.08716857 0.30895472 0.00268031 0.111225985
000060 83 54 f1 3d f1 3d 19 bd 71 c2 28 3e 5f 3a ed bc
       0.117836975 -0.037412588 0.16480424 -0.028958498
000070 62 89 26 3d ad d5 16 3f 10 87 16 be 00 03 81 be
       0.040658362 0.58919793 -0.1469996 -0.251976
000080 f7 d8 09 bf 5e 5e 2d bd a3 47 e7 bc f8 a3 d6 3d
       -0.5384669 -0.042326324 -0.028232401 0.10480493
000090 be e8 9a 3e 17 4d a1 3c 5c ee 51 bd a6 1d 8a 3e
       0.30255693 0.01969008 -0.051252708 0.26975745
0000a0 44 67 a4 be 07 ef c7 be 58 40 b2 3c 7b a5 c6 3e
       -0.32110035 -0.3904955 0.021759197 0.38798127
0000b0 80 f9 58 be 6d 5f fa bd 32 64 11 bf c6 e9 c6 3e
       -0.21188927 -0.12225232 -0.5679351 0.3885023
0000c0 e8 cd 82 3e d3 1f 85 be 4c da d9 3d 1d 39 05 be
       0.2554772 -0.26000842 0.1063734 -0.13010068
0000d0 d7 4a 2c 3e b5 71 4f 3e ba 2d 16 3e 0e 95 b1 3d
       0.16825424 0.2025822 0.14665881 0.08671008
0000e0 56 7e 5c be e0 cc 05 be e9 8a 49 be 13 d5 34 bf
       -0.21532568 -0.13066435 -0.19681896 -0.70637625
0000f0 26 45 f5 3c 58 68 31 bb 0a d7 87 be 7a 45 d2 bd
       0.0299402 -0.002707025 -0.2653125 -0.10267158
000100 28 e5 9a be d7 d8 45 3c d2 45 c6 3e fd 14 aa be
       -0.30252957 0.012075624 0.38725144 -0.33219138
000110 5c ea 84 bc d8 e7 11 bd 52 b3 1d 3f 9c a3 66 bd
       -0.016225033 -0.035621494 0.61601746 -0.056308374
000120 f3 3e 34 3e b0 0f f0 bd 4a 01 53 be 34 b8 db be
       0.17602138 -0.11721742 -0.2060596 -0.42913973
000130 af 38 16 3e ca ff ad 3e 5b ae 9d 3e 96 fe 07 3e
       0.1467006 0.33984214 0.30797085 0.1328071
000140 fb 7d c4 3e 13 a4 98 3d b0 da 4b bd f9 1c 0a 3e
       0.38377365 0.0745317 -0.049769104 0.13487615
000150 c6 d8 0f 3f 71 64 97 bd 05 d3 02 3d 57 83 98 be
       0.56190145 -0.073922046 0.031939525 -0.29787704
000160 5d e4 92 3e 43 21 8a 3e a7 2c 42 3c 29 16 05 3e
       0.28689852 0.26978502 0.011851466 0.12996735
000170 0b a1 f8 bd 99 97 3b 3e 79 99 8a 3d f7 ec 6b 3d
       -0.121400915 0.18319549 0.06767554 0.057599034
000180 bc aa 94 be eb b7 c2 be 64 11 46 3e 78 a2 df 3e
       -0.2903651 -0.38030943 0.19342571 0.4367864
000190 da 6b 97 3e b2 27 a9 3e 34 b8 73 3e 57 11 92 3e
       0.29574472 0.33038098 0.23800737 0.28528854
0001a0 c6 54 cb bd 4e fc 38 be b2 f3 7a be b9 9c 48 3e
       -0.099282786 -0.18064997 -0.24507025 0.19591035
0001b0 e4 92 34 be fd 6c 2a 3e b2 cf 22 3e e0 07 2d be
       -0.1763416 0.16643138 0.15899542 -0.16897535
0001c0 91 03 32 3e 79 02 bb 3d ce 43 e0 bd 50 a2 cf 3d
       0.17384173 0.09131331 -0.10950433 0.101383805
0001d0 a2 22 92 3e f1 bc 25 be 0d b4 3d bd 0b 6a f0 3d
       0.28542048 -0.16185357 -0.046314288 0.11738976
0001e0 24 63 e1 3e b6 0c 8b 3e 8b b6 ac bd ce 93 af 3d
       0.4402095 0.27158135 -0.08433255 0.085731134
0001f0 1d c5 84 3e 99 7d 57 3d d7 51 18 bf 48 6e d4 3d
       0.25931635 0.052610014 -0.5949988 0.10372597
000200 38 fe 21 3e 38 d4 29 3d f8 8e 21 3e 90 2d e6 3e
       0.15819633 0.041462153 0.15777194 0.44956636
000210 0c ad 09 bc a6 7e 95 3e 5c 74 0d bd 8b 76 8a 3e
       -0.008403074 0.29198188 -0.034534797 0.27043566
000220 a0 33 84 3e 26 c3 ba bc 62 a5 3c 3e 58 9c bf bc
       0.25820637 -0.022798132 0.18422464 -0.02338998
000230 de a5 df be 0c 41 f3 be f3 db a8 3b b0 eb e3 be
       -0.43681234 -0.47510564 0.005153173 -0.44515753
000240 9a 93 fd bc e4 62 5c be 99 f7 9c 3e 5f 75 f8 3d
       -0.030954171 -0.21522099 0.30657652 0.12131762
000250 4e af d8 3d b2 4a 1e 3e 7f 0a 63 bd 51 79 07 be
       0.10580312 0.15458182 -0.05542993 -0.13229872
000260 4a 9a 81 3f d5 11 87 3c 8d e5 3b bf 66 91 3a 3d
       1.012521 0.016487995 -0.7339714 0.04554882
000270 7d 74 1b 3e 88 27 9a bd b1 0a a8 3d 47 ab 0f be
       0.15181156 -0.07527071 0.08205164 -0.14030181
000280 0c 03 b1 3c 4f e1 28 3e e6 05 21 be 93 68 77 3d
       0.021607898 0.16492198 -0.15724906 0.060402464
000290 87 af a2 3e 38 8d 14 bf 93 41 82 3d 5b ba 8c 3e
       0.31774542 -0.5802798 0.063601635 0.27485928
0002a0 bb ee 13 bf 00 f9 86 3d 16 da 59 3d bf 87 a8 3e
       -0.5778615 0.06590462 0.0531865 0.32916066
0002b0 f3 3d 2f be 1b 9d d6 be 2d ac 9f be 08 eb 78 3c
       -0.17113476 -0.41916737 -0.31186047 0.015192755
0002c0 f4 19 fa 3d cf 3e 2e 3e e6 eb 67 be aa 8f 22 3c
       0.122119814 0.17016147 -0.22648582 0.0099219475
0002d0 18 67 31 3e 12 a1 99 be d0 cd 49 be 0c 3a be bb
       0.17324483 -0.300057 -0.19707417 -0.0058052596
0002e0 72 ef 97 3e 58 a4 de be e2 21 5e bd 4b 87 71 3d
       0.2967487 -0.4348476 -0.054231532 0.058966916
0002f0 dd bc bb bd dc 1e 20 bd 23 e4 01 be b1 d5 20 bc
       -0.09166882 -0.03909193 -0.12684684 -0.009816573
000300 ec 13 be be 47 c4 84 3e 4c 2c 3c bf 68 ff d9 3e
       -0.37124574 0.25930998 -0.7350509 0.42577672
000310 e5 8e 49 3e 8b 0f 8d bd 12 44 f9 3e 8c da f3 3d
       0.19683416 -0.0688773 0.48684746 0.11906919
000320 f0 bf d2 be b5 8a 63 3e 77 f6 0f 3d 0f ea e0 be
       -0.41162062 0.22220881 0.035147157 -0.43928573
000330 aa 77 8d 3d 11 ee 54 be 82 5e 6c bd e3 6a 04 be
       0.0690759 -0.2079394 -0.057707317 -0.12931399
000340 9e 30 91 3e 12 59 ee be a9 c2 da bc 78 e7 81 bc
       0.28357404 -0.4655233 -0.02670415 -0.015857443
000350 6e dd ab 3e 71 7b 84 bd 29 c9 4e be 4d 21 3f 3d
       0.33567375 -0.06468857 -0.20193924 0.046662617
000360 ab a4 47 3e 04 1e ef 3c 0d e3 05 3f 00 93 bf be
       0.1949641 0.029189117 0.52299577 -0.3741684
000370 ff dd 3c bf 8d 51 d5 be 53 db 35 3b c7 fe ad be
       -0.7377624 -0.4166378 0.0027749136 -0.33983442
000380 8f 90 05 3d 40 68 7a bd ed ff f2 be eb ad 6c 3e
       0.032608565 -0.061134577 -0.4746088 0.2311322
000390 55 9a 63 bf 9d 1f e8 3d 04 cd b8 3e a3 5f e5 be
       -0.88907367 0.11334155 0.36093915 -0.44799528
0003a0 fe 24 39 be 12 f3 6c be ad ec 25 be 2e 48 38 3c
       -0.18080518 -0.23139599 -0.16203566 0.011247678
0003b0 69 9c bd 3e 5f 8f a2 be 3a a8 ff be 89 fa c2 3e
       0.37033394 -0.31750008 -0.49933034 0.38081768
0003c0 ce 26 9c be cb a5 96 3e 19 3a 84 be 01 3c fb be
       -0.30498356 0.29423365 -0.25825575 -0.49069217
0003d0 7f 04 c4 bd 14 dc ba bd dd 0d 10 3e 15 ef 8c 3e
       -0.0957117 -0.09124008 0.14067788 0.27526155
0003e0 bb 8c e4 3c 65 3c 5a bd 8b 52 a2 3d 41 e5 d9 3e
       0.027899137 -0.053280253 0.079259 0.4255772
0003f0 27 bb 56 be f7 d5 a5 3c a4 74 89 3e 6c 2b 89 3d
       -0.2096983 0.020243628 0.26846802 0.06697735

network_body._body_endoder.seq_layers.0.bias f4 [128]
000000 03 ec c7 bb e1 74 b0 bc 6b d2 29 3d b8 d4 09 ba
       -0.006101133 -0.021540107 0.041460436 -0.0005257833
000010 d1 89 c5 3b 23 d7 d5 bc 07 2e d9 bc 2d a8 08 bc
       0.006028392 -0.026103562 -0.026511205 -0.0083408775
000020 77 1f 5f bc ac 4f 63 bc ac 95 59 bc 35 b1 c6 bc
       -0.013618342 -0.013873976 -0.013280313 -0.02425442
000030 12 79 f2 bb 0c 09 44 ba 7c af c6 36 76 46 a9 bc
       -0.0073996866 -0.0007478155 5.921289e-06 -0.020663481
000040 f6 62 95 bc 1f f3 93 3c 11 a0 f3 bc 44 be ac bc
       -0.018235665 0.018060265 -0.029739412 -0.02108682
000050 a8 3d 8f bb 5f 23 db bc 43 87 93 bc fe 61 9f bc
       -0.0043713637 -0.026750265 -0.018008834 -0.019455906
000060 d0 12 14 3d 73 e4 b4 bc cf 53 a1 bc 45 9f af bc
       0.036150753 -0.02208159 -0.019693283 -0.02143825
000070 0a 95 de bc fb 6e b7 bb 5b 76 99 3c a0 ee b8 bc
       -0.027170677 -0.0055979467 0.018733194 -0.022574723
000080 bc 34 cb bc 56 6a 09 3c 7e 5f 8f 3a 4c 02 24 3c
       -0.02480542 0.008387169 0.0010938493 0.010010313
000090 c3 7f 83 bc 7f ed c6 3c 6d 3b ef bb ca 12 5c bc
       -0.016052132 0.024283169 -0.0073007853 -0.013432214
0000a0 8d 2a da bc 1c 63 01 3d 22 fd 01 26 d2 4a c0 3c
       -0.026631618 0.03158866 4.5098925e-16 0.023473177
0000b0 79 8f ee 3b 32 c5 e5 bc 41 4f 88 3c 97 a9 98 bc
       0.007280287 -0.028048132 0.016639354 -0.018635554
0000c0 7b 5a 08 bd 98 01 0d bd 04 83 ab 3b 11 75 c9 bc
       -0.033289414 -0.034425348 0.005234124 -0.024591954
0000d0 56 d3 52 bc fd 37 96 38 77 04 e8 3b 1d d3 66 bc
       -0.012867769 7.162986e-05 0.0070806104 -0.014088419
0000e0 35 17 c8 bc f7 17 2c bd 7c bd bd 3a 1a 83 08 bd
       -0.024425128 -0.042015042 0.0014476026 -0.033328153
0000f0 b3 cb c5 bc 76 e7 cc 3c f2 67 b8 3c d6 d5 45 bc
       -0.024144983 0.025012713 0.022510502 -0.012074908
000100 21 51 43 bc a2 8e df 3c 2c d6 19 3d 0b 30 cc 3b
       -0.011921198 0.027289692 0.037557766 0.006231313
000110 70 04 44 bc 34 83 5f bc 77 cf 38 3c 25 03 81 bc
       -0.011963949 -0.013642121 0.011279932 -0.01574857
000120 38 9d b8 bc 04 59 ff 3c 74 0c 83 3c c9 af eb 3a
       -0.022535905 0.031170376 0.015997149 0.0017981465
000130 02 ec 13 bc b6 ff 28 bd 68 3a f3 bb 71 6f 08 b3
       -0.009028437 -0.04125949 -0.007422734 -3.1766323e-08
000140 54 9e c2 3c 35 b6 1a bc 07 00 f3 bb 4b 1b c2 bc
       0.023757137 -0.009442856 -0.0074157747 -0.023694655
000150 01 e8 a6 bb f4 bf c5 3b a8 4a 4d bb 84 20 10 3c
       -0.005093575 0.0060348455 -0.0031325016 0.008796815
000160 00 e8 23 bd df 25 1e bc 31 8e db 3c f9 03 c5 bb
       -0.040016174 -0.009652584 0.0268012 -0.0060124365
000170 3a a9 27 bd 87 0d 69 3c 60 46 21 9a 1f 1a cc bb
       -0.04093287 0.014224417 -3.3350868e-23 -0.0062287
000180 84 b1 ce bc da 66 01 bc 76 58 89 bc 3b 2f d6 bc
       -0.02523113 -0.007898057 -0.016765814 -0.026145568
000190 5f 1d 89 bc d4 02 d8 3b 63 f6 8e bc 01 c4 8e 3c
       -0.016737638 0.006592134 -0.01745147 0.017427446
0001a0 2d 77 f8 ba 74 dc 51 bc 15 26 da bc 6a 53 39 bb
       -0.0018956416 -0.012808908 -0.026629487 -0.0028278478
0001b0 8c 36 59 bc b2 d8 86 3c c8 71 5d bc 81 99 b4 ba
       -0.013257634 0.01646075 -0.013515897 -0.0013778658
0001c0 16 07 c7 3c 16 9a 20 bd a3 b6 98 bc cb a9 0f bb
       0.024295371 -0.039209448 -0.018641775 -0.0021921273
0001d0 eb 14 d2 bc 2a a8 fb bc d1 62 80 bc 05 64 fe 3c
       -0.02564474 -0.030719835 -0.01567212 0.031053552
0001e0 95 eb 20 3c 66 1c 06 bb c7 01 3f 3b d1 3c 9a 3b
       0.009821792 -0.0020463704 0.0029145346 0.004706957
0001f0 47 c0 08 95 9c 37 a0 3b a6 a8 71 bc 91 cd 1b bd
       -2.761666e-26 0.0048894417 -0.014749682 -0.03803784

network_body._body_endoder.seq_layers.2.weight f4 [128, 128]
000000 7a 8f dd bd dd 31 48 3d 33 94 46 3d 94 2c ff bd
       -0.108183816 0.04887568 0.048481178 -0.124596745
000010 c1 67 2d bd b5 da 1a 3e ae 26 0c be 51 4c 3f be
       -0.042335276 0.15122493 -0.1368663 -0.18681456
000020 10 0c 24 3d 9c f5 1e 3d 2e 25 9e 3d c2 a0 ed bd
       0.040050566 0.03880845 0.07721935 -0.11602928
000030 8e d7 20 3d bd 13 e8 bb 0a 27 5d 3c ab 89 ae bd
       0.03926807 -0.007082431 0.013498077 -0.08522352
000040 57 a3 18 be b2 dc 6d be a7 20 8b bd be 51 05 be
       -0.14906059 -0.2322872 -0.06793337 -0.13019463
000050 ef 7e 10 be b0 3d 99 bd ff 9b e3 3c 21 46 37 bd
       -0.14110921 -0.07482469 0.027784346 -0.044744615
000060 e8 d1 e2 3c aa 0b 75 3d e5 85 3f 3d 96 da e7 3c
       0.027687982 0.059825577 0.04675855 0.028302472
000070 36 04 d8 3c a9 1f a0 bd cc 19 0a 3e e1 98 1f 3d
       0.026369195 -0.07818539 0.13486403 0.038964156
000080 84 b3 ff 3a a2 d5 80 bc e4 4e 9a bc 19 f7 59 3d
       0.0019508456 -0.015726868 -0.018836446 0.053214166
000090 ea ed a9 3d 3a 4a 26 bd a8 33 91 3b 94 ee 36 3d
       0.08297332 -0.04059813 0.0044312067 0.04466112
0000a0 8e 4f d5 bb 9c df 3f 3d 60 8e 36 3d 18 f0 0c 3d
       -0.006509728 0.04684411 0.044569373 0.03440866
0000b0 a2 ae cf 3b 47 7a ea bd f2 ae 48 bd d4 6b f2 bb
       0.0063379565 -0.11449104 -0.048994966 -0.007398108
0000c0 43 09 b2 3d e6 81 28 3e 99 eb aa bc 86 c0 40 3d
       0.08693173 0.16455802 -0.020864295 0.047058605
0000d0 be af ca bd 9b 35 ce 3c 04 a6 20 3d 26 e9 12 be
       -0.098968014 0.025172045 0.039220825 -0.14346752
0000e0 05 1c 4b bd 1d d6 f8 bb a9 92 59 3d d2 9b 67 bd
       -0.04958727 -0.0075938837 0.05311838 -0.056545086
0000f0 d1 66 8e bd a2 c5 d8 3d 53 c7 c9 bd 99 8c 0d be
       -0.069532044 0.105845705 -0.09852471 -0.13823165
000100 ce 34 63 3d e3 0e 6c bd a9 8b 83 3b b8 34 e0 3d
       0.05547028 -0.057631385 0.0040144515 0.10947555
000110 3f cd 3c 3c c7 f0 a5 3c b8 3d 0a 3e 55 3b 95 3d
       0.011523544 0.020256413 0.13500106 0.07286707
000120 16 ad f2 3b 3b 79 3f 3d 72 95 de bd 79 e4 48 bc
       0.0074058874 0.046746474 -0.10868348 -0.012261503
000130 6f d0 64 3e 48 b0 91 bd 88 fe 58 bd 22 14 b4 bd
       0.22345136 -0.07113701 -0.052977115 -0.087929025
000140 45 8f 04 3e 32 bd 39 3e 5d e0 27 3b 7b d9 4a 3d
       0.12945278 0.18138579 0.0025615909 0.04952381
000150 b0 37 c5 bd 65 ad 21 3d a3 ea 06 3e ee 68 03 bd
       -0.09629762 0.039472003 0.13175444 -0.03208249
000160 41 69 93 3d 7a 72 54 3d 95 69 b2 3d d7 f7 0e 3e
       0.0719781 0.051866986 0.087115444 0.13961731
000170 c1 61 9a bd 3d ef ea bd 31 36 ae bb 19 86 bd bd
       -0.07538176 -0.11471412 -0.0053165187 -0.09254093
000180 9f 08 d4 3d 37 f3 9e bd 23 e5 a7 3d c2 f8 f5 3d
       0.10353207 -0.07761233 0.08198001 0.120103374
000190 58 a9 af 3d 88 c2 0f 3d 96 39 77 3c 1a 39 a7 bc
       0.08577222 0.03509763 0.015089413 -0.02041297
0001a0 6e 06 bb bc a0 8d 16 bd 26 98 f1 3c 5f a9 6d bc
       -0.022830214 -0.036756158 0.029491495 -0.014505713
0001b0 9d 1c a9 bd 21 31 c2 3b ac 3b 19 be 84 75 46 be
       -0.08257411 0.005926267 -0.1496417 -0.19380766
0001c0 99 b7 9f bc 5c db 09 bd 12 7b e1 3d 25 12 fd 3d
       -0.019496726 -0.033656463 0.11009802 0.123569764
0001d0 e5 79 8e bd 13 d6 8a bd ad 28 cd bd 09 48 ae bd
       -0.06956843 -0.06779113 -0.10017524 -0.08509833
0001e0 c8 26 f2 bd 9a 2e 97 bb bb e5 05 be fc 38 55 bd
       -0.11823803 -0.0046137096 -0.13075916 -0.052056298
0001f0 2a 3d ca bc d4 65 d8 bd 1a 91 38 3d d0 9c 27 be
       -0.024687368 -0.10566297 0.045060255 -0.16368413
000200 57 37 24 3c 35 a4 91 3d 9b 65 b6 bc 4e 3e b1 3c
       0.01002296 0.07111398 -0.022265246 0.021636155
000210 24 7f 0c be 63 31 6d 3d b0 c2 6e bd 17 a7 c5 3d
       -0.13720375 0.057908427 -0.058291137 0.096510105
000220 f4 fa 73 bd c8 1e 8e 3d 2c 98 af 3a c4 83 7f 3d
       -0.0595655 0.06939465 0.0013396791 0.06238152
000230 8b 23 d1 ba b0 87 85 bd cd 29 93 3d 2a e4 47 bd
       -0.0015956027 -0.06520021 0.07185707 -0.04880158
000240 4d 67 72 3d c7 b2 5c 3d 18 e3 ab bd 93 91 4a be
       0.059180547 0.053881433 -0.08392924 -0.19782095
000250 7d 7d 3e bb 04 42 cb bd 6b 93 e3 bc 7b 82 a3 3d
       -0.0029066496 -0.09924701 -0.027780255 0.079838715
000260 5a 2b 2a bc 19 51 b4 bd cf 48 0c 3e 42 6f df 3d
       -0.010386312 -0.08804531 0.1369965 0.109098926
000270 cf 11 36 3e a9 df 1c be 52 c0 fe bd b2 9e 90 bd
       0.17780231 -0.15319695 -0.12439026 -0.07061519
000280 4c fc 3a bd fb 61 f1 bd f7 4b 2e 3c df 40 8e 3d
       -0.045650765 -0.117862664 0.010638229 0.06945967
000290 ec 20 c7 3d a1 dc 48 bd 91 0e 82 bd 19 22 d6 3c
       0.09723076 -0.049038533 -0.063504346 0.026139306
0002a0 8a 3b 72 3e 2d 6e 1f 3a 9b 37 1d be 87 ef 83 3d
       0.23655525 0.0006081786 -0.15353243 0.064421706
0002b0 31 fa 35 3e a4 c0 7e bd 1e 23 71 ba 97 8e cb bd
       0.17771222 -0.062195435 -0.0009198653 -0.09939306
0002c0 b3 b3 76 bc b2 e6 97 bc 6b dd 34 bd 6a b5 8e bd
       -0.015057492 -0.018542621 -0.044156473 -0.06968196
0002d0 85 38 ba 3d ab 16 39 be fa dc 1e 3d 0a da bc 3d
       0.090928115 -0.18075053 0.03878496 0.09221275
0002e0 5f 7c de 3c c4 7b a0 bd 1b 29 6b be 09 bd 82 3c
       0.027158914 -0.078361064 -0.22964899 0.01595928
0002f0 18 74 ca bc 91 64 3e bd 46 aa ba bc e4 92 ca 3d
       -0.024713561 -0.046482626 -0.02278627 0.098912984
000300 61 59 55 bd b8 b5 65 bd b2 55 e4 bd 07 68 14 be
       -0.05208719 -0.056081504 -0.111491576 -0.14492808
000310 30 91 a4 bd 29 d5 71 ba fa 20 64 3c fe 32 2c be
       -0.08035505 -0.0009225184 0.013923878 -0.16816327
000320 76 f3 fd 3d 2b 12 b9 bd f5 14 f0 bd 77 06 06 be
       0.12399952 -0.090366684 -0.11722747 -0.13088404
000330 56 af d1 3d dd 4f 0b bd f4 ec 51 bd a5 7d aa bd
       0.10238521 -0.03401171 -0.051251367 -0.08324746
000340 40 4a 78 3c 59 04 55 bd 05 50 7d bc 65 e5 42 bc
       0.015154421 -0.0520061 -0.015460973 -0.011895512
000350 b7 4b 94 bd 91 49 4c bd 20 53 a8 bd a3 26 e7 bc
       -0.07241004 -0.049874846 -0.0821898 -0.028216666
000360 d3 b2 a0 bd d3 8a 5e 3d f7 97 01 be 4a c5 c9 3d
       -0.07846608 0.05433161 -0.12655626 0.09852083
000370 37 26 4e 3c 5f d1 09 bd 3b 7d b4 bd 91 b8 07 be
       0.012582353 -0.033646937 -0.08812948 -0.13254
000380 43 fb 92 bd e8 56 d7 3d 0e c3 77 3d 85 6d 4e 3e
       -0.071768306 0.10514623 0.060488753 0.20158966
000390 f5 4b 4f 3d af 9f 10 3e 81 93 02 3e 43 f2 0b 3e
       0.050609548 0.14123414 0.12751581 0.13666634
0003a0 97 57 0b 3d f4 6c 82 bc 93 48 82 bd 13 0a 00 bc
       0.03401908 -0.015921094 -0.06361499 -0.007814902
0003b0 10 a4 cf bd b8 0f 94 bd ea d1 3d bd 9a ff 35 bc
       -0.10138714 -0.072295606 -0.046342768 -0.011108303
0003c0 03 02 d9 3c a0 a0 60 3c 93 bc 77 bd d4 af 4e be
       0.026490217 0.013710171 -0.060482573 -0.2018426
0003d0 b3 34 a0 3c f1 4e ad bb d0 6e 9d bd ae fd ab 3c
       0.019556379 -0.0052889516 -0.076871514 0.020994987
0003e0 7e 83 67 bd 51 6c 64 bd 6b 00 a7 bd 56 fb ba 3d
       -0.056521885 -0.05576736 -0.081543766 0.0912997
0003f0 e8 df 4e 3d d4 37 0c bd c5 08 96 3d 42 67 33 3e
       0.050506502 -0.03423293 0.073258914 0.17519858

network_body._body_endoder.seq_layers.2.bias f4 [128]
000000 0f cd 16 3b 2a fc cd bb aa 0a 16 3c 4a 43 99 bc
       0.0023010408 -0.006286164 0.009157816 -0.018708844
000010 65 f1 4e bc 5a f4 39 3c b9 84 75 39 71 99 14 bc
       -0.012630795 0.011349762 0.00023414464 -0.009069786
000020 41 49 22 3c eb 9f 97 bc 22 e4 92 bb 54 4d dd bc
       0.00990516 -0.018508872 -0.004482762 -0.027014412
000030 66 81 46 bc c2 1f af bc 5a 56 98 bc 0d 11 8c bb
       -0.012115812 -0.021377448 -0.018595863 -0.0042744935
000040 64 8a ab bc bc e5 89 3b 86 da 72 bb 7d 05 79 3c
       -0.020940013 0.0042082947 -0.003705652 0.015199062
000050 b2 97 b9 bb a2 bc 2f bc c3 29 89 bc fe 6c 25 bb
       -0.0056638354 -0.010726126 -0.016743546 -0.0025241966
000060 dc 79 87 3c 58 b2 32 3c b0 87 5f bc 5f 28 e0 3c
       0.0165376 0.010906778 -0.01364319 0.027363
000070 5a 4e 61 bb 99 58 78 bc ac 79 8f bc ca 72 08 bc
       -0.0034378977 -0.015157842 -0.017514072 -0.008328149
000080 f0 7a 4e bb d9 cf 86 bc 3b 12 cf bb b0 09 af bc
       -0.0031506382 -0.016456531 -0.006319312 -0.021366924
000090 bb 79 ab 3a 7a c4 1c bc 4d 4f db bb ff 51 6d bc
       0.0013082543 -0.009568328 -0.006692803 -0.014484881
0000a0 a6 60 7b bc d6 4e b6 bc e0 fa e9 bc 8f 93 64 bc
       -0.015342867 -0.022254389 -0.02856201 -0.013951196
0000b0 3f 6e c6 3c a8 02 05 bc 4b 0e 82 bc 9c 98 a9 3c
       0.024222491 -0.008118309 -0.015875956 0.020702653
0000c0 6e 60 89 3b 2d d1 cb bc e2 df 98 bb c2 e4 e9 3c
       0.0041924035 -0.024880016 -0.004665361 0.028551463
0000d0 7a 3c 3a bc da 9d 66 3c 40 81 3e bc 80 6a b1 bc
       -0.011366958 0.014075721 -0.011627495 -0.021657228
0000e0 79 c1 c2 bb ba 6f ce bb 69 70 d0 bb b7 66 95 bc
       -0.005943474 -0.00629994 -0.0063610566 -0.018237455
0000f0 13 e7 98 bb 71 9f 25 bc 0c d5 be ba 5d 7f e0 bc
       -0.004666218 -0.010108815 -0.0014559343 -0.027404482
000100 cc 3f c0 bc 64 5a a2 bc f8 4e 59 ba 68 2b 5d bc
       -0.02346792 -0.019818492 -0.00082896603 -0.013499118
000110 05 f0 65 bc 0a 86 92 bb 38 af 87 ba c3 d4 a0 bc
       -0.014034276 -0.004471545 -0.0010351902 -0.019632703
000120 2a 5b 13 2d 7e 2a 7d bc 8b ef 46 3c d3 a9 a7 ba
       8.376225e-12 -0.015452025 0.012142072 -0.00127917
000130 63 65 a0 bb 93 8c a0 bc 76 f0 c3 bc a0 e8 a0 bc
       -0.0048948987 -0.019598281 -0.023918372 -0.019642174
000140 0b d2 79 bc b5 a5 95 bc 6a 81 97 bc 4c 5b ee ba
       -0.015247832 -0.018267492 -0.018494327 -0.0018185168
000150 3f c9 28 bc d8 ad e5 bc 0b ec 53 bc 1a 92 8b bb
       -0.010301887 -0.028036997 -0.012934695 -0.00425936
000160 35 8a 63 bc 89 c3 29 bc ec 22 63 bb cb 30 82 3c
       -0.013887932 -0.010361561 -0.0034658266 0.015892407
000170 78 a1 cf bc 42 1d 6d bc 74 b1 b2 bb 1a 53 2e bc
       -0.025345549 -0.014472308 -0.005453283 -0.01063993
000180 0f dc 94 3c 3b 54 71 3c 6e cb 44 3c c7 0a 8b bc
       0.018171338 0.014729555 0.012011392 -0.016972912
000190 f1 62 1b 3c ef 36 af 3a a1 0c f1 b9 08 45 d1 3a
       0.009484039 0.0013367812 -0.0004597651 0.0015966007
0001a0 80 7b 8d 3c 87 b2 3b bc 0e fc 16 bc fa 6c 9e bc
       0.017270803 -0.011456138 -0.009215368 -0.019339073
0001b0 b4 69 cf bb 32 d4 39 bc db af b5 3b 67 bc 1c bc
       -0.0063297395 -0.011342095 0.0055446452 -0.009566403
0001c0 6a 3d 5e bc f8 02 da 3b 34 cf 4a bc cf f3 87 bb
       -0.013564447 0.006653186 -0.012378503 -0.0041489373
0001d0 b0 87 ce bc bd e6 7d 3c 9a f7 bd bc 36 1c c0 3b
       -0.025211185 0.015496907 -0.023189355 0.005862738
0001e0 4b 94 7d bc 41 cb 30 b8 9d 1c 15 3c 56 08 1d 3d
       -0.01547725 -4.2150965e-05 0.00910106 0.038338028
0001f0 be de 70 ba d4 01 8b 3a 9f e2 75 bc 90 e3 bf bc
       -0.00091884646 0.0010605403 -0.015007644 -0.02342394

action_model._continuous_distribution.log_sigma f4 [1, 9]
000000 89 1f 24 3e 52 88 84 3e 12 a2 16 3e e5 ee a8 3d
       0.16027655 0.25885254 0.14710262 0.082486905
000010 8c 59 05 3e 4f af 07 3e ed a0 01 3e 25 f1 5d 3d
       0.1302244 0.13250469 0.12659045 0.05418505
000020 7e f8 24 3e
       0.16110417

action_model._continuous_distribution.mu.weight f4 [9, 128]
000000 9b b4 53 3d 10 0e e2 ba 36 3f f4 bc 1d 6a e6 bb
       0.05168591 -0.0017246623 -0.029815298 -0.0070316927
000010 b1 d5 43 bb 60 a1 0b bd 95 b8 76 bb 2f 25 09 bd
       -0.0029882009 -0.034089446 -0.003764664 -0.033482727
000020 9b ca 9c bc 0d 57 75 bc ff d4 ca 3b 4a 06 11 bc
       -0.019139579 -0.014974368 0.006189942 -0.008851597
000030 d8 b3 f6 bc 45 e0 75 bc b2 04 1b 3a d9 0b 8a bb
       -0.030115053 -0.015007083 0.00059134804 -0.004212838
000040 1b 16 80 bb 6e cf 2d bb 2d 10 2c bc 4e 43 52 3b
       -0.003908885 -0.0026521343 -0.0105019035 0.0032083574
000050 be 49 ad bc 4c 26 90 bb c0 cf a7 bc 76 8b 2d 3d
       -0.021153327 -0.0043990966 -0.020484805 0.04236933
000060 d9 15 e7 bb 56 cc 01 bd 11 89 90 bc 50 cc f6 bb
       -0.007052165 -0.03168901 -0.017643483 -0.00753168
000070 56 36 72 bc ed 96 80 bc 46 57 27 3c 18 76 f4 bc
       -0.0147834625 -0.015696967 0.010213679 -0.029841468
000080 60 b3 65 3b 3d 45 14 bd 1c 36 00 bc 73 41 09 bd
       0.0035049543 -0.036198843 -0.007825401 -0.033509683
000090 86 e0 69 ba 06 d7 f7 ba d7 79 35 3d fc 55 ad 3b
       -0.0008921701 -0.0018908686 0.04430565 0.005289791
0000a0 e8 63 59 bb 4d f6 3d bb e2 1a e7 3c 80 cd 2a 3c
       -0.003317112 -0.0028985918 0.02821106 0.010424972
0000b0 1a 8c a8 bb 14 e7 cc bb 6b d8 c5 bb fa c9 a3 bc
       -0.0051436545 -0.0062531326 -0.006037762 -0.01999377
0000c0 9a 2f 3b bd b7 d7 4f bc dd ae ac 3b 64 b3 84 bb
       -0.045699693 -0.012685708 0.0052698688 -0.0040497053
0000d0 7d df 6a 3c 34 0c 51 3c c2 74 da bc 6d da 0f bd
       0.01433551 0.012759257 -0.026667003 -0.035120416
0000e0 d0 40 98 bb 7f a7 c2 bb 50 23 98 3b 64 39 78 bb
       -0.004646398 -0.0059403772 0.0046428815 -0.0037876004
0000f0 30 f4 c8 bc d6 1c 9e 3c 8f 68 57 bc 29 d0 8e bc
       -0.0245305 0.01930086 -0.013147487 -0.017433243
000100 bc e4 08 bc ce 69 6d bc f6 e4 8a bc 3d cc 52 3c
       -0.008355316 -0.014490558 -0.01695488 0.012866077
000110 14 a6 da bc 70 0f da bc 0b a1 6a 3d 53 bc 3a bc
       -0.02669052 -0.02661869 0.05728249 -0.011397439
000120 91 c9 a8 bc 44 57 6c 3c 9b 4d e5 bc be e5 0d 3c
       -0.020603927 0.014425103 -0.027991107 0.008660732
000130 a1 93 ed b9 43 76 f4 3c ad 1f bd 3c df c8 84 bc
       -0.00045314155 0.029841548 0.023086393 -0.016209064
000140 f7 8f da bc c3 a5 0c 3d 33 ce 3b 3c e4 4c 14 bd
       -0.026679976 0.03433777 0.011462736 -0.03620614
000150 6d 9d 82 3c 71 a4 d0 3c ef fb b3 3a c0 d7 9e bc
       0.015944207 0.025469037 0.0013731698 -0.019389987
000160 f9 2e 93 3c ce 2e 35 bc 25 fd 9d 3c 07 d9 2f bd
       0.017966734 -0.011058522 0.019285748 -0.042931583
000170 c5 fe dc bb 3e 89 f6 bb 55 24 c6 bc af 26 12 3d
       -0.006744238 -0.0075236848 -0.024187246 0.035681423
000180 3d 62 5f 3c 17 72 2c 3d b4 c2 f5 3c d7 57 a2 3b
       0.013634262 0.042100992 0.030000068 0.004954319
000190 b0 4d 73 3c b1 6c 44 3c ac a0 08 bd 16 28 74 bc
       0.014850065 0.011988805 -0.033356354 -0.014902135
0001a0 74 b4 33 bd b8 e0 3e bc 38 ba 39 3c 5d fb f5 ba
       -0.043873265 -0.011650257 0.011335902 -0.0018766929
0001b0 bb e4 00 bc 62 af ab bb 7c 0a ee bc fc ad 21 3d
       -0.007867034 -0.005239413 -0.029057734 0.039472565
0001c0 71 7e 1d ba 4a 31 16 bd 15 37 98 bc c0 b6 c7 3b
       -0.0006007916 -0.0366681 -0.018580953 0.0060947835
0001d0 4c 78 3e 3d 80 6f 21 bc 69 d6 5e bb 6a 4d a4 bc
       0.046501443 -0.009853244 -0.003400231 -0.020056445
0001e0 f5 74 d3 3b 9c 46 87 3c ac d3 13 3b 38 18 4b 3c
       0.0064531513 0.016513161 0.0022556586 0.012395911
0001f0 88 d0 99 3c f1 d6 4a 3c 4b 63 4b bb bd 78 bf bb
       0.018776193 0.012380348 -0.0031034525 -0.0058432505
000200 be 60 31 3b 70 f0 d6 3c 0b 7b 5c 3c 4a b1 71 3b
       0.002706572 0.026237696 0.01345707 0.0036879354
000210 57 2f 12 3d be 18 e7 bc 44 9e 7a 3c fa 92 86 3b
       0.035689678 -0.02821004 0.0152965225 0.0041068764
000220 e7 00 bc bc 22 d7 49 bc 2c f1 a6 3b 85 75 4b bb
       -0.022949649 -0.012319358 0.005094668 -0.003104539
000230 41 7a 90 3b 28 51 d5 bb f4 02 7a ba 1f e5 31 3c
       0.004409105 -0.0065099187 -0.0009537183 0.010857849
000240 0a 03 e2 b9 ce 16 0f bd 12 66 a9 3c 8f 94 04 3c
       -0.00043108343 -0.034933858 0.020678554 0.00809206
000250 1f 1b cf bc 95 05 1e 3c 3c e2 8e 3c ed 15 d2 bc
       -0.025281487 0.009644886 0.017441861 -0.02564522
000260 7a 7d 82 ba 87 2a 7d bc a9 82 f9 3c 6e 6e 3e bc
       -0.0009955608 -0.015452034 0.030457811 -0.011623008
000270 75 82 f3 3b df 01 5b bb 7c 9d 6c bd 24 45 0b 3d
       0.007431323 -0.0033417863 -0.057767376 0.034001485
000280 e4 0b da 3c 95 86 44 3b a8 48 9d bc 44 1c cb 3b
       0.026616998 0.0029987444 -0.019199684 0.006198438
000290 51 77 48 3b e9 94 79 bb 6a dd 84 3c 86 e9 87 bb
       0.0030588696 -0.0038083142 0.01621886 -0.004147711
0002a0 2e de ba 3a 31 d3 6d 3c b6 58 6c bb d9 b3 9d 3c
       0.0014256889 0.014515684 -0.0036063618 0.019250797
0002b0 be da 6e bd 9b d3 c4 bc d3 c7 6b bc 51 b9 ab bc
       -0.058314078 -0.024026683 -0.0143909035 -0.02096239
0002c0 8a 1b 1f 3c a2 79 fe 3b 9a b1 9a 3c 5c 48 37 3d
       0.009711156 0.0077659646 0.018883515 0.04474674
0002d0 c7 cb fc bc 55 cd 98 bb f7 1b 6a 3d 0d d6 3d bd
       -0.030858887 -0.0046631494 0.057155576 -0.046346713
0002e0 f0 cb 0b bd e1 10 11 bc cb 95 05 3d d2 cb b8 bb
       -0.034130037 -0.008854122 0.032613557 -0.0056395316
0002f0 55 3c c3 bb 82 15 a4 3a 4f 0d 85 bc 25 af 74 3c
       -0.00595812 0.0012518617 -0.016241698 0.014934336
000300 d8 17 24 bc 5e a3 90 3c 6e 01 ce bb 77 6a ae 3a
       -0.01001545 0.017656025 -0.0062867915 0.0013306875
000310 0e 09 ca 3b 1e 2b 89 3b c1 e3 80 3c 9a 94 4d 3c
       0.00616563 0.004186048 0.015733602 0.012547636
000320 0f c4 43 bc 9b da 3a 3c 41 a8 39 3a 1d 64 5b bc
       -0.0119485995 0.011404659 0.0007082262 -0.013390568
000330 a1 95 a5 bc 2f ca b0 bc 44 b9 19 3c 31 5f a5 3b
       -0.02021295 -0.021580784 0.00938255 0.005046748
000340 34 5f 06 bc 41 dc cb bc 2e 5c c2 3b 48 9b 80 bc
       -0.008201409 -0.024885299 0.005931399 -0.015699044
000350 7c 04 c2 3b bb 57 92 3c 18 84 b2 b9 b8 eb 78 3c
       0.0059209447 0.017864099 -0.00034049223 0.0151929185
000360 93 26 a7 bc d2 fc e4 bb 35 1f 35 bc b3 c6 f6 3b
       -0.020404136 -0.0069881463 -0.011054804 0.007531011
000370 53 e4 01 3d 69 1d 8d bc 1e f2 78 3c 95 67 58 3b
       0.031711888 -0.017225938 0.015194444 0.0033020724
000380 2a 9c f3 bc cf 2e 7d bd 8c 98 f4 3c dc 29 80 b9
       -0.02973755 -0.06181222 0.029857896 -0.0002444525
000390 2a 56 9f bc cf 65 91 bb 3c ce fc bc cc 7c a6 3c
       -0.019450266 -0.0044371854 -0.030860059 0.02032318
0003a0 f4 0b 3e bb 48 2b 6c bb 38 46 8a bb 33 a4 6d 3c
       -0.0028998824 -0.003603654 -0.0042197965 0.01450448
0003b0 0b 2d c9 bc 4c 01 fb bc f8 d2 6d bc 7d 38 3f bc
       -0.024557611 -0.030640267 -0.014515631 -0.011671183
0003c0 d1 c7 a8 3c 8a be d2 bb 8d 66 97 bc 3d 5b e8 bc
       0.020603092 -0.0064314054 -0.018481517 -0.028363818
0003d0 f5 f2 9f 3c ea 23 ea bc e5 75 a2 bc 85 f8 4f bb
       0.01952503 -0.028581578 -0.019831607 -0.0031733823
0003e0 de 5e 68 3a a2 5b 86 bc 7c dd 36 bc 4a 9a 3b 3c
       0.0008864234 -0.016401116 -0.011161204 0.01145036
0003f0 e8 a5 3d 3c db e1 92 bb d5 96 c6 3c 7a 3c 92 3c
       0.0115752 -0.0044824905 0.024241844 0.017851103

action_model._continuous_distribution.mu.bias f4 [9]
000000 14 e5 40 bb f1 b3 b1 bb 61 32 81 3c c8 b8 59 3c
       -0.0029433416 -0.005423062 0.015771093 0.013288684
000010 25 de 87 3c 31 04 25 ba 4e ce b3 3c c5 d5 04 3c
       0.016585419 -0.0006294875 0.02194896 0.008107607
000020 f4 63 b2 b9
       -0.00034025277

exp_avg f4 [128, 12]
000000 95 29 4a 3c b9 4d d4 3c 93 40 ad 3c 6a 54 fb 3c
       0.0123390155 0.025915967 0.021148955 0.0306799
000010 8d 93 f5 bb e2 06 a7 3c 3b 6e 23 bc ab 33 34 3c
       -0.007494396 0.020389024 -0.009975011 0.010998647
000020 ce b0 c7 3c 2b f3 3f 3a 3d 27 fd 39 49 df 9e 3a
       0.0243763 0.00073223066 0.00048285155 0.0012120988
000030 b4 70 83 ba 02 b1 8b bc e8 73 4c bc 8d 3d e9 ba
       -0.0010028095 -0.017052177 -0.012478806 -0.0017794833
000040 37 4b 30 bc 69 cd 62 bc 86 64 58 bc 9d ae 51 bb
       -0.01076012 -0.013842919 -0.01320756 -0.0031994947
000050 8e 20 ab bb 4a 31 8d 39 b9 27 60 b9 57 63 bb 39
       -0.0052223867 0.0002693034 -0.00021377103 0.00035741433
000060 70 3f 95 3d eb 6c 62 3d 38 cf a7 3d 7a 47 8c 3d
       0.0728749 0.055279654 0.08193821 0.068495706
000070 80 12 1e 3d 4a 99 87 3d bc 92 5e 3d 3c 25 59 3d
       0.03859186 0.066210344 0.054339156 0.053014025
000080 0a 0b 11 3d d9 4d b6 3a 04 51 c7 3a b1 f1 fe 3a
       0.03541092 0.0013908698 0.001520664 0.0019450692
000090 0f cb 31 bb a5 a6 c2 3b 23 75 bc bb f2 18 a8 3c
       -0.002712909 0.0059402757 -0.0057512685 0.020519707
0000a0 00 ef 0a 3c b5 dd b8 bb e3 06 a6 bc 67 fd 4a bb
       0.008479834 -0.005641664 -0.020266956 -0.0030973793
0000b0 ce 92 ea 3b 87 f6 1d 39 a0 fa 57 38 3f f7 8c b9
       0.0071586138 0.00015064525 5.1493407e-05 -0.00026887094
0000c0 cc 50 92 3d d5 49 82 3d 8d 31 b4 3d de 65 84 3d
       0.07144317 0.063617386 0.087985136 0.06464742
0000d0 03 d3 7f 3d 73 9a 74 3d 87 9d 55 3d fc ae 81 3d
       0.062457096 0.059717607 0.052152183 0.06332204
0000e0 2f a9 78 3d 56 5a 67 3a 39 0c d8 3a 39 3a e4 3a
       0.06070822 0.0008825412 0.0016483135 0.0017412371
0000f0 25 7e c5 3b 2a aa cb 3b 39 81 a4 3a d5 86 12 b9
       0.0060270005 0.0062153535 0.0012550718 -0.00013973874
000100 d8 01 80 3a 06 81 70 3b 11 8a b3 3b a3 c6 08 3a
       0.0009766174 0.0036697998 0.0054791053 0.00052175875
000110 cc c8 85 3b 55 5a 9d b8 34 87 ae 38 14 27 9d b8
       0.0040827747 -7.503169e-05 8.32215e-05 -7.493622e-05
000120 c4 78 24 bd 54 e5 bc bc 46 62 18 bd c2 ff 0d bd
       -0.040154234 -0.02305857 -0.037203096 -0.034667738
000130 9d 00 9d bc d4 7f 63 bb d7 21 4a bc d2 37 53 bc
       -0.019165331 -0.0034713643 -0.01233717 -0.012891727
000140 6b f4 59 3b 03 7e 94 ba 08 7d da b9 97 2c 93 ba
       0.0033257257 -0.0011329058 -0.00041673356 -0.0011228499
000150 4a 6b 6e 3d 9b 98 44 3d d9 a2 77 3d a1 03 52 3d
       0.058207788 0.0479971 0.060458038 0.051272992
000160 40 97 0b 3d db ff d1 3c a6 c7 1e 3c f7 99 e4 3c
       0.03407979 0.025634697 0.009691155 0.027905447
000170 d6 25 18 3c df 4b 85 3a de 15 64 3a 2a cb e3 3a
       0.009286365 0.0010169706 0.0008700768 0.0017379273
000180 7e 4c 97 3d e9 ea 64 3d f0 f0 b4 3d 4a 91 6f 3d
       0.073876366 0.05588809 0.08835018 0.058488168
000190 2c dc 0f 3d cb fd 6e 3d f4 18 06 3d f0 73 13 3d
       0.03512208 0.058347505 0.03273864 0.03599924
0001a0 2a ce 0d 3d f4 ff 66 3a 4a 3a b6 3a 19 66 dc 3a
       0.03462044 0.00088119437 0.001390287 0.0016815095
0001b0 c4 04 b4 3d 30 fd 3b 3d 2c 3c 7f 3d b5 c6 b1 3d
       0.087899715 0.045895755 0.062313244 0.086804785
0001c0 a8 02 19 3d db 90 29 3c 89 02 b4 3b f2 2c 22 3c
       0.03735605 0.010349478 0.0054934663 0.009898411
0001d0 db cf a3 3c b4 0c d9 39 a4 44 7d 3a 4c 23 b3 3a
       0.019996574 0.0004139893 0.00096614123 0.0013667135
0001e0 b6 aa aa 3d 0b 2d 8c 3d 9d 55 c3 3d f3 c5 a7 3d
       0.08333342 0.06844529 0.09537814 0.08192053
0001f0 eb cd 82 3d a2 4f 8c 3d d7 47 17 3d dc e3 04 3d
       0.06386932 0.06851126 0.036933746 0.032443866
000200 54 67 5f 3d b3 90 ac 39 84 09 ce 3a 19 7c 1d 3b
       0.0545419 0.00032914206 0.0015719389 0.0024030267
000210 7c d4 2b 3d a8 99 39 3d 4d f3 33 3d ce 56 a1 3d
       0.041950688 0.045312554 0.0439332 0.07877885
000220 2d 78 29 3d fc 27 60 3c 41 1c f5 bb f9 e6 c0 3c
       0.041374374 0.013681408 -0.007480175 0.023547636
000230 c4 9e ca 3c 30 8d 92 39 b5 18 66 3a f7 f3 80 3a
       0.024733908 0.00027952483 0.00087774853 0.0009838332
000240 f6 ee e4 bc 2f a0 29 bd 8f ee 56 bd 62 11 54 bd
       -0.027945977 -0.04141253 -0.0524736 -0.05177439
000250 64 91 86 bd cd 8f 77 bd c1 48 15 ba 8d b0 e5 bc
       -0.065707 -0.060439873 -0.000569474 -0.028038288
000260 df c8 38 bd 06 b9 4b 39 85 86 86 ba 08 02 ca ba
       -0.04511344 0.00019428515 -0.0010263479 -0.0015411982
000270 c5 78 1a 3d bd 30 cc 3c b6 8a 1e 3d e9 8b 33 3d
       0.03771283 0.024925584 0.038706504 0.0438346
000280 bd 3f 21 3d 62 de 0a 3d ab 36 16 3b 60 00 c6 3c
       0.039367426 0.033903487 0.0022920768 0.0241701
000290 b4 b8 fa 3c e4 b9 bd 39 39 15 47 3a ab 10 ac 3a
       0.030605651 0.00036187388 0.000759441 0.0013127526
0002a0 17 5d ef 3a 58 ac 62 3c 74 c7 31 3c 92 bb d3 3c
       0.0018261996 0.013835035 0.010850776 0.025846276
0002b0 f7 f6 44 3c 2e ae cc 3b ec 8d 11 3c a4 c6 61 3c
       0.012021772 0.00624635 0.0088839345 0.01378027
0002c0 ae c7 a0 3c 16 77 34 b8 56 95 aa 39 f3 7a cf 39
       0.019626465 -4.302625e-05 0.0003253619 0.0003957372
0002d0 eb ed 32 bc 0a f9 b0 bb 51 f2 39 bb a8 b3 e4 bb
       -0.010920982 -0.0054007815 -0.0028373192 -0.0069794245
0002e0 f9 36 26 bc 72 13 c7 ba e4 32 e4 b9 fd 97 7c bb
       -0.010144942 -0.001518829 -0.00043525465 -0.003854274
0002f0 92 5e 47 bb 79 95 59 38 0e 15 1a b9 89 68 36 b9
       -0.0030421359 5.187604e-05 -0.00014694428 -0.00017395815
000300 8f e9 96 3c 7e 4b 5b 3c 3f e9 92 3b 3b 19 83 3c
       0.018421916 0.013384698 0.0044833715 0.016003242
000310 61 c9 f8 3b bc b7 d8 3b b2 32 16 3c a7 34 34 3c
       0.0075923656 0.0066136997 0.00916736 0.010998881
000320 7f 53 18 3c e2 e3 d1 37 8f 6f 6f 39 ab 4f b4 38
       0.009297251 2.5020858e-05 0.00022834375 8.597908e-05
000330 9b 8b 94 bc 95 f4 2a bc 08 e6 78 bb df 25 52 bc
       -0.018132975 -0.010434289 -0.0037978906 -0.012826412
000340 fd 00 b4 bb 91 c5 61 39 2e c5 6b bc 93 47 70 3b
       -0.005493282 0.00021531271 -0.014390273 0.0036663755
000350 8d d2 8e bb ad af 68 37 51 c5 f7 b8 d6 2e b7 b9
       -0.0043585957 1.386918e-05 -0.00011814631 -0.00034939375
000360 19 a8 06 bb 77 a5 0e ba c8 90 f0 ba 08 07 92 b9
       -0.0020546971 -0.00054415263 -0.0018353695 -0.0002785253
000370 7d a4 28 ba 0e a8 0a ba 26 f3 0f bb 28 a0 87 ba
       -0.0006433202 -0.00052893243 -0.0021964996 -0.0010347413
000380 8a 6f e6 b7 ec 77 05 38 65 78 09 b8 fd c2 d1 37
       -2.7470076e-05 3.1821357e-05 -3.277547e-05 2.500554e-05
000390 24 1f 99 bb 2e 79 d1 bc 99 2c e8 bc 69 2c ec ba
       -0.0046729017 -0.025570478 -0.028341578 -0.0018018606
0003a0 1d a6 d2 bc f5 db 9f bc ed 27 04 bc 16 ff b0 bc
       -0.025713975 -0.019514063 -0.00806616 -0.02160601
0003b0 2e 5a d4 bc c0 40 48 39 64 6b 16 ba b2 a9 a2 38
       -0.025921907 0.00019097608 -0.00057380483 7.75637e-05
0003c0 c6 58 b4 3a 66 7b 92 bb f4 8d 5e bb 8f a1 b0 3a
       0.0013759367 -0.0044702766 -0.0033959122 0.0013475883
0003d0 8c 6b e4 3b d2 05 8a b9 d8 e8 4e 3b 8d e6 0b 3c
       0.0069708284 -0.00026325748 0.003157189 0.008538854
0003e0 13 6f e2 3b fa 80 c3 b8 0d 0f 00 39 75 32 95 38
       0.0069102137 -9.322348e-05 0.00012212638 7.114272e-05
0003f0 6c 00 d3 3c bd 7f c0 3c 78 f2 3e 3d 98 df f4 3c
       0.025757037 0.02349841 0.046617955 0.029891774

exp_avg_sq f4 [128, 12]
000000 a6 31 2e 3e 0c 72 e8 3d ad 46 03 3e 43 49 67 3e
       0.17011127 0.11349878 0.1281993 0.22586541
000010 d4 18 7e 3d 80 11 4e 3d 94 20 4e 3e 97 90 42 3c
       0.062035397 0.050309658 0.20129615 0.011875293
000020 cd 0f a0 3d 6d 5b 92 38 de 05 5c 38 07 3f 5b 38
       0.07815514 6.978852e-05 5.245755e-05 5.2272368e-05
000030 7f ea 6f 39 0f 6b 1f 3d dc 0c f0 3c ed a6 12 3d
       0.00022880173 0.03892046 0.029303007 0.035803724
000040 c9 eb 75 3c e0 e1 47 3b e9 51 43 3d 0b bb aa 3c
       0.015009829 0.0030499622 0.047685537 0.020841142
000050 12 ab ff 3c c9 ff 7c 37 af 5a 32 37 8f 0a 2f 37
       0.031209502 1.5079925e-05 1.0630741e-05 1.0433271e-05
000060 0b 6c 9e 3e 37 93 d4 3d 3a bf a4 3e 86 6e 87 3d
       0.30941805 0.103796415 0.32177144 0.066128775
000070 ea 6a 87 3e ae d0 c0 3e 35 87 51 3d 9e 78 87 3e
       0.26448756 0.3765921 0.051154334 0.2645921
000080 84 da bb 3d 65 31 b6 38 13 ef 7c 38 2b 00 7a 38
       0.09172538 8.687637e-05 6.0304137e-05 5.96048e-05
000090 41 1c bd 3d 9d 64 b8 3d 41 23 d7 3d 91 83 55 3e
       0.09233905 0.090035655 0.10504771 0.2085097
0000a0 28 f2 b2 3d 2e 90 a5 3c 4d fd 72 3e 32 e6 b5 3d
       0.08737594 0.020210352 0.23729439 0.08881797
0000b0 47 4c c3 3d 4b 5a 85 38 bc f5 6a 38 1d e1 5b 38
       0.09536033 6.3587526e-05 5.6018805e-05 5.2423322e-05
0000c0 41 e9 91 3e e5 48 ab 3d 9f ef a5 3e 9d f9 1c 3e
       0.2849827 0.08363513 0.3240938 0.15329595
0000d0 de 59 86 3e 98 cc a8 3e b0 5f 38 3e a0 5b b2 3e
       0.26240438 0.32968593 0.18005252 0.3483553
0000e0 a8 44 1c 3e 31 59 da 38 0e b0 a9 38 b2 f0 a5 38
       0.15260565 0.00010411663 8.091341e-05 7.912646e-05
0000f0 04 6d 1e 3d 8e ad f1 3c db 0a c4 3c 45 09 34 3d
       0.038678184 0.029501703 0.023930958 0.043954153
000100 62 2f 76 3b ca e7 96 3b d3 9d 5f 3d af d4 e1 3a
       0.0037564863 0.004605268 0.054593872 0.0017229522
000110 bf 6b 8b 3c a5 50 83 37 15 d3 39 37 c5 90 39 37
       0.01701915 1.565397e-05 1.1076006e-05 1.1060566e-05
000120 b8 60 9b 3f da 40 8b 3e 7f 26 a9 3f f1 ea 4a 3e
       1.2138891 0.27197915 1.3214873 0.19816186
000130 60 8f 8f 3f cb ba c8 3f 94 0d 1f 3e 49 c8 a0 3f
       1.121563 1.5682005 0.15532523 1.2561122
000140 6b 5a cb 3e 83 09 bb 39 eb 76 76 39 1e 09 73 39
       0.3971742 0.00035674506 0.00023504689 0.00023177682
000150 5b f9 5e 3e 91 16 e5 3d 04 5b 30 3e 24 fc 24 3e
       0.21774809 0.11185945 0.1722222 0.16111809
000160 05 42 f9 3d f8 14 0a 3e 9d a6 1a 3e f7 e9 ba 3d
       0.12170795 0.13484561 0.1510262 0.091266565
000170 9d 58 bb 3d 76 07 97 38 81 9d 62 38 7d 4c 5c 38
       0.09147761 7.201631e-05 5.4029286e-05 5.2523323e-05
000180 61 ee 72 3e 10 2a ef 3d 7e 34 86 3e 82 c2 0d 3e
       0.23723747 0.11677945 0.26211923 0.1384373
000190 d2 32 48 3e 4a af 80 3e 9b 2b 13 3e 2c 85 6d 3e
       0.19550636 0.25133735 0.14372103 0.23195332
0001a0 0b b3 07 3e 7c cd bc 38 bb 0b 89 38 ec 37 85 38
       0.13251893 9.002813e-05 6.534854e-05 6.3523505e-05
0001b0 be 89 48 3e 25 c0 2f 3e ab a6 7c 3e 47 f0 b1 3e
       0.19583794 0.17163141 0.24672954 0.3475363
0001c0 d2 95 00 3e bf 7e d2 3d e9 b8 d6 3e 1a f4 83 3e
       0.12557152 0.10278081 0.4193795 0.25772172
0001d0 d3 4f 87 3e a4 e7 ff 38 40 8f e0 38 0f c0 dd 38
       0.2642809 0.00012202494 0.00010707835 0.00010573875
0001e0 e2 68 ba 3e e4 9e 68 3e 66 0b 8d 3e a9 42 9d 3e
       0.36408144 0.22716862 0.2754776 0.3071492
0001f0 5b b3 5e 3e 09 df 7c 3e 93 1c 61 3e 5d 79 3e 3e
       0.21748106 0.24694456 0.21983556 0.18600984
000200 2c 80 3c 3e da 93 03 39 9c bc c2 38 96 30 bc 38
       0.18408269 0.00012548213 9.285772e-05 8.9735884e-05
000210 78 d6 af 3e 8b e9 ec 3d ad c2 b1 3e 81 66 db 3d
       0.34343314 0.11567982 0.34718838 0.107129104
000220 5a 65 8d 3e 33 d1 bc 3e 2a 0b ed 3d 1d 64 9c 3e
       0.27616388 0.36878356 0.11574395 0.3054513
000230 6f c4 f6 3d f7 3e da 38 62 c5 96 38 44 09 9b 38
       0.120491855 0.00010406778 7.189323e-05 7.392702e-05
000240 20 f6 61 3f 4d 90 63 3e 1b 1c 67 3f 2d 41 5a 3e
       0.8826618 0.22223015 0.9027726 0.21313925
000250 14 63 4c 3f 4b 94 89 3f c7 6c 2f 3e 38 48 59 3f
       0.7983868 1.074838 0.17131339 0.8487582
000260 8b 1b 97 3e 87 49 88 39 93 5d 3a 39 dc c4 38 39
       0.295132 0.00025994724 0.00017773201 0.00017620943
000270 5a bb fb 3d de 8e 78 3d eb eb e0 3d ae 96 4a 3e
       0.12291594 0.060683124 0.10982498 0.19784042
000280 b8 ec 01 3e f7 c0 04 3e 08 da cf 3d 5e a2 ba 3d
       0.12687957 0.12964235 0.10149008 0.09113
000290 35 bd be 3d e1 93 7b 38 87 42 49 38 26 3d 44 38
       0.09313432 5.9980786e-05 4.7984093e-05 4.678699e-05
0002a0 19 cd 21 3a 3c 90 8f 3d ef 88 da 3d 1a 3a 42 3e
       0.00061722245 0.070099324 0.10670649 0.18967476
0002b0 b0 7c d9 3d 88 fa a2 3d 67 97 64 3d 56 85 13 3e
       0.106194854 0.07957941 0.05580845 0.14406332
0002c0 d9 31 40 3e e4 0d 46 38 64 8b 2e 38 ce c6 2e 38
       0.18769015 4.7219815e-05 4.161465e-05 4.1669984e-05
0002d0 4e b1 21 3c 06 c7 d5 3a 98 cf a4 3b a1 a4 03 3c
       0.009868933 0.0016309924 0.00502963 0.008034856
0002e0 5f 6e 1a 3c 36 20 52 3a 07 99 1c 3c b3 90 ad 3b
       0.009425729 0.0008015664 0.009557969 0.0052967905
0002f0 92 c1 a1 3b aa 8a 48 36 b8 99 43 36 60 5f 39 36
       0.0049364055 2.9883035e-06 2.914674e-06 2.7622664e-06
000300 ed 71 5c 3e e3 03 33 3e 6f 2f 13 3e c6 fa 92 3e
       0.21527834 0.17481951 0.14373563 0.2870695
000310 1d 6c 29 3d 2c 8a c6 3c f6 8f a2 3e 2c d5 e1 3c
       0.04136287 0.024235807 0.31750458 0.027567469
000320 0b 8e d9 3d c6 92 c4 38 96 7b 8c 38 5d 15 8c 38
       0.10622796 9.373347e-05 6.69874e-05 6.6796994e-05
000330 95 88 1f 3c 35 88 86 3c 5f 77 45 3c 07 ed 9c 3c
       0.009737154 0.01642237 0.012052386 0.019155992
000340 f6 30 8c 3c 0f 17 b6 3a 44 ad c5 3c 0e c9 30 3c
       0.01711319 0.001389237 0.024130471 0.010790123
000350 b2 9e 96 3c 09 39 f3 36 94 e1 d1 36 73 e1 db 36
       0.018386219 7.248604e-06 6.254946e-06 6.5529543e-06
000360 e8 38 e4 3b c3 ea c8 3b 06 dc 05 3c a6 9b c8 3b
       0.0069647916 0.0061315014 0.008170133 0.0061220704
000370 9a b3 04 3a 9b b8 23 3a 64 cf 57 3c 2f af 70 3a
       0.0005062163 0.0006245465 0.013172004 0.0009181378
000380 45 fc 45 3b df 1c 87 36 89 83 3b 36 f1 99 3a 36
       0.0030210179 4.0266746e-06 2.7941735e-06 2.7805766e-06
000390 a0 98 41 38 be bb d5 3b 5b 17 1d 3c b6 b6 df 3b
       4.615693e-05 0.0065226248 0.009588088 0.0068272008
0003a0 fe 8b 23 3b bb 59 83 3b 5e b7 d4 3b ee ca ea 3b
       0.0024955268 0.0040084994 0.0064915856 0.0071653044
0003b0 0a 6b 03 3c ca eb 5a 36 f1 8e 3b 36 6f 41 39 36
       0.008021126 3.2621779e-06 2.7948374e-06 2.7605236e-06
0003c0 a7 64 e2 3b be 29 29 3c 4e 85 06 3c 59 5e ab 3a
       0.0069089714 0.0103248935 0.008210493 0.0013074382
0003d0 b8 f2 ed 3b ac c3 ae 3b a8 0a 74 3c 73 86 42 3c
       0.0072616003 0.0053333845 0.014895119 0.0118728755
0003e0 b7 5b f4 3b 19 6b 9c 36 c1 9d 73 36 41 a8 80 36
       0.0074572223 4.66163e-06 3.6301647e-06 3.8342846e-06
0003f0 34 76 a4 3d a5 12 90 3d 5b 8d b7 3d 65 65 00 3e
       0.08030358 0.07034806 0.08962508 0.12538679

exp_avg f4 [128]
000000 64 59 e2 38 f2 67 29 b8 61 db a4 39 34 42 fe 34
       0.0001079317 -4.0389546e-05 0.00031443968 4.7359356e-07
000010 52 39 b6 39 ae bb 8a 37 31 ec ab b8 ab 23 45 39
       0.00034756452 1.6538277e-05 -8.1979095e-05 0.00018800671
000020 97 84 9a 39 0e 92 5c 39 c2 6d bb 39 55 4c 46 39
       0.00029471956 0.00021035245 0.00035749195 0.00018911187
000030 b0 b8 7e b9 91 42 34 39 a2 0e 9c 38 20 11 10 b8
       -0.00024292129 0.00017190936 7.441385e-05 -3.4348224e-05
000040 8d 06 43 38 f1 52 02 b8 1f b4 df b6 9f 47 f5 b8
       4.6497724e-05 -3.107166e-05 -6.6668867e-06 -0.00011695851
000050 d1 36 ec 37 3b be ea 38 17 7f 18 b9 b4 3c b6 b8
       2.8158918e-05 0.00011193423 -0.00014543194 -8.689743e-05
000060 c9 75 80 38 85 62 02 39 1a 5f 45 b9 74 dd 1a b8
       6.125455e-05 0.00012434467 -0.00018822812 -3.6922705e-05
000070 dd 37 e8 b6 2e 47 01 3a 8a c3 fd 39 ae ed ac 36
       -6.920642e-06 0.0004931566 0.00048401608 5.153669e-06
000080 3c 83 91 ad bf a2 51 39 5d c1 cc b7 4c 06 0d 38
       -1.6542871e-11 0.00019992421 -2.4408737e-05 3.3622884e-05
000090 31 ea 9f 39 8a 4c 69 b8 61 ed 9c 39 6c f1 87 39
       0.0003050133 -5.562281e-05 0.000299315 0.0002592908
0000a0 ad 5b fb 38 5d b9 b7 39 04 00 00 00 db 0a 6e 39
       0.000119856886 0.00035042586 6e-45 0.00022701493
0000b0 ae 83 39 39 67 21 37 b7 77 b1 6b b8 5f 2c cf b8
       0.0001769203 -1.0915427e-05 -5.6193643e-05 -9.878794e-05
0000c0 e4 02 a3 35 29 ec 0a b8 f4 f8 52 38 23 5f 21 b8
       1.2145288e-06 -3.3121705e-05 5.0299757e-05 -3.8473994e-05
0000d0 6a d0 8e 39 8e 63 14 38 26 0a f8 37 3e e1 06 39
       0.0002723963 3.5378667e-05 2.956863e-05 0.00012863145
0000e0 b2 cf ba 39 a8 83 38 39 d4 05 ae b8 08 a2 00 39
       0.0003563143 0.00017596653 -8.298052e-05 0.00012267393
0000f0 18 45 88 b8 21 8d 6b 39 15 a5 b7 b8 3e 5a 56 39
       -6.497855e-05 0.00022463921 -8.756869e-05 0.00020442248
000100 23 70 77 39 dd 08 f4 39 ef 88 0e 39 ba a6 1b 39
       0.0002359753 0.0004654591 0.00013593187 0.00014844062
000110 cf 28 35 39 25 fe 7b 39 0b e4 92 b9 9f 5d 86 b9
       0.00017276708 0.00024031902 -0.00028017195 -0.00025628225
000120 50 11 79 34 e9 3e ac b8 01 ff db 37 d6 6f 2f 39
       2.319623e-07 -8.213317e-05 2.622558e-05 0.00016730963
000130 ea db 17 39 0c e4 55 35 6f 0c b9 39 08 67 ff 8d
       0.00014482407 7.9680535e-07 0.00035295213 -1.5740392e-30
000140 5c 33 43 37 bd 3b df b8 dc 1a 67 b9 3c d2 ee b7
       1.1634864e-05 -0.00010644596 -0.00022039883 -2.8469709e-05
000150 7e e5 2d 39 cb 62 96 38 92 c4 3a 38 d9 8b fa b5
       0.00016584058 7.170959e-05 4.4528926e-05 -1.8667153e-06
000160 ef 9d 1b 38 86 05 59 39 2c f3 94 38 f6 2e e1 39
       3.7101967e-05 0.0002069679 7.102484e-05 0.00042950333
000170 be c3 02 37 67 1d 96 39 04 00 00 00 32 db a1 38
       7.794179e-06 0.00028632136 6e-45 7.7179066e-05
000180 4d ed 4a 39 09 4e 1b 80 77 7e b2 35 4c 57 a9 b8
       0.00019352623 -2.507552e-39 1.329884e-06 -8.074808e-05
000190 1b bd a7 ac 2c 1d 10 37 4d 68 15 b9 98 26 e6 36
       -4.7674204e-12 8.589861e-06 -0.00014248602 6.859027e-06
0001a0 fe 80 4f 38 ca 28 b0 b7 51 3c 8e 35 4c 35 7c 9f
       4.947278e-05 -2.0999829e-05 1.0597379e-06 -5.3407162e-20
0001b0 72 29 df 38 88 85 7c 39 06 dc 1f 39 78 88 b0 39
       0.000106411884 0.00024082337 0.00015245387 0.00033671013
0001c0 7a 39 e0 38 04 fd 03 38 b7 4f 3e b9 7d d1 49 39
       0.00010691858 3.1468473e-05 -0.00018149508 0.00019246894
0001d0 5d 8a 21 39 c0 c0 5d 38 f2 f4 37 b7 a5 a9 15 b8
       0.00015405701 5.287002e-05 -1.0964681e-05 -3.5682362e-05
0001e0 1e 77 8d 39 aa 1b f2 36 f8 ef 9b b8 ab 2f b5 38
       0.00026982365 7.2153825e-06 -7.4356736e-05 8.6396314e-05
0001f0 04 00 00 00 e6 2e ea b6 99 f5 38 38 81 fb d3 b8
       6e-45 -6.979203e-06 4.409775e-05 -0.0001010811
