Assets/results/SimpleArm/RollerBall/RollerBall-1280.pt (torch, 471260 bytes, 36 tensors)

network_body._body_endoder.seq_layers.0.weight f4 [128, 12]
0	0xbe362543	-0.17787652
1	0x3e9a9aeb	0.30196318
2	0xbed3a866	-0.41339415
3	0x3e21e475	0.15809806
4	0xbde30485	-0.110848464
5	0x3eb9c789	0.36285046
6	0x3c3b3213	0.011425513
7	0x3ca99ead	0.020705545
8	0xbe0ec5f6	-0.13942704
9	0x3e194b9a	0.14970246
10	0x3efb153b	0.49039635
11	0x3d0dd90a	0.034630813
12	0xbe08627e	-0.13318822
13	0xbe2a3a43	-0.16623788
14	0xbd5fa654	-0.054601982
15	0xbdc31f66	-0.09527473
16	0x3e656e09	0.22405256
17	0x3d4230fa	0.04740999
18	0x3e0a738a	0.13520637
19	0x3edd3dc2	0.4321118
20	0x3e5dc4cd	0.21657105
21	0x3eae3bd3	0.34030017
22	0xbe199433	-0.1499794
23	0x3db4869e	0.08814739
24	0x3d6d2674	0.057898
25	0x3dea276e	0.11433302
26	0x3c6c4785	0.014421348
27	0x3e1f053e	0.15529343
28	0x3da518bc	0.08061358
29	0x3e9de5d7	0.30839416
30	0x3bf3a6f0	0.007435672
31	0xbe420840	-0.1894846
32	0xbedceeb7	-0.43150875
33	0x3e1c417d	0.15259357
34	0x3e848415	0.2588202
35	0x3dba3b54	0.09093347
36	0x3df8e615	0.1215326
37	0x3dc97c3f	0.09838151
38	0xbe148ec2	-0.14507583
39	0xbe58bc95	-0.21165688
40	0xbe8334f6	-0.25626343
41	0x3e7355e3	0.23763232
42	0x3f445c63	0.7670347
43	0xbf550e5f	-0.83225054
44	0xbe797737	-0.24361883
45	0xbbb50d64	-0.005525278
46	0xbefec25b	-0.49757656
47	0xbc091fe5	-0.008369421
48	0xbcdc6201	-0.0269022
49	0xbf01f270	-0.50760555
50	0xbc08fdc8	-0.008361287
51	0xbd96dcb1	-0.07366312
52	0x3dd9906e	0.10623251
53	0x3ea55c4d	0.32296982
54	0x3e770020	0.24121141
55	0x3e2c9f8c	0.16857737
56	0x3de2fff0	0.110839725
57	0xbcba4b18	-0.022740886
58	0x3e6bbf7b	0.23022263
59	0x3e3a3eca	0.18188015
60	0xbedab8d7	-0.42719147
61	0xbe9c1ab5	-0.30489126
62	0xbe9a9804	-0.30194104
63	0x3ec6c123	0.38819227
64	0x3dbb008b	0.09130963
65	0x3e606c95	0.21916421
66	0xbe17226f	-0.14759229
67	0x3e556afd	0.20841594
68	0xbef448f4	-0.4771191
69	0xbe314d2b	-0.17314593
70	0xbe696ed1	-0.2279618
71	0xbf27088c	-0.65247416
72	0xbcc7b29f	-0.024377165
73	0xbebd7f1b	-0.37011036
74	0xbef2b3f7	-0.47402927
75	0x3ea039fa	0.31294233
76	0xbdb80979	-0.08986182
77	0x3f039dc2	0.51412594
78	0x3d947aa7	0.072499566
79	0x3ec6c179	0.38819483
80	0xbd35486f	-0.04425853
81	0xbe069740	-0.13143635
82	0xbe4bc8cb	-0.19900815
83	0x3dae44b8	0.08509201
84	0xbf1932dd	-0.59843236
85	0x3d8a697a	0.06758399
86	0x3e90e843	0.28302202
87	0x3eedd729	0.46453217
88	0x3f067f32	0.52537835
89	0xbce97a98	-0.02850084
90	0x3e9da9d4	0.3079363
91	0x3f07dab3	0.53068084
92	0xbcf112db	-0.029427936
93	0xbe16893c	-0.14700788
94	0xbd77b983	-0.060479652
95	0x3ef526c4	0.47881138
96	0xbe4bcca8	-0.19902289
97	0xbe95774c	-0.2919258
98	0x3bbb3129	0.0057126475
99	0x3e6b2f45	0.2296725
100	0xbee8d830	-0.45477438
101	0x3ee9e576	0.45682877
102	0x3ddd3772	0.10801591
103	0x3e2b8af7	0.1675223
104	0x3e3c14f3	0.18367366
105	0xbd2e5a70	-0.042566717
106	0x3eba0796	0.36333913
107	0x3f08297f	0.5318832
108	0xbebffb1c	-0.3749627
109	0x3ec0d4b1	0.3766227
110	0xbeac91a6	-0.3370487
111	0xbe85d0bc	-0.26135814
112	0x3e1f39f1	0.15549447
113	0x3ec14c10	0.37753344
114	0x3d03271c	0.03201972
115	0xbe14109c	-0.14459461
116	0xbd0bc526	-0.034123562
117	0xbec6a7dc	-0.38799942
118	0xbc491889	-0.012273916
119	0xbee315c1	-0.44352534
120	0xbe481dd4	-0.19542629
121	0x3ea7e0e5	0.32788768
122	0x3d25672a	0.040381588
123	0x3ea79034	0.32727206
124	0x3e5e1464	0.21687466
125	0xbea5a28b	-0.32350573
126	0xbe9bbfac	-0.30419672
127	0x3e4ebaf2	0.20188501
128	0x3e397e0c	0.1811449
129	0x3d1af4ff	0.037831303
130	0x3eea87da	0.45806772
131	0x3e82251b	0.25418934
132	0x3e6afe57	0.22948585
133	0xbe23842d	-0.1596839
134	0xbeb124c1	-0.34598354
135	0x3cd18bfc	0.025579445
136	0x3f0d5b50	0.55217457
137	0xbe92d39c	-0.2867707
138	0xbf1ad862	-0.60486424
139	0x3ec130b3	0.37732467
140	0xbec1ce2a	-0.37852603
141	0x3e09281a	0.13394204
142	0xbe877f5e	-0.2646436
143	0x3cb5cb7b	0.022191754
144	0xbf08dbaf	-0.5346021
145	0x3e8c5304	0.27407086
146	0x3e77c6d0	0.24196935
147	0xbe62c6a9	-0.22146095
148	0xbd9a7768	-0.07542306
149	0xbe3936de	-0.18087336
150	0x3e61e6c9	0.22060694
151	0xbdeea9af	-0.11653458
152	0x3e2cd06e	0.16876385
153	0xbd78df77	-0.060759988
154	0x3ea4db42	0.3219853
155	0x3dd28e54	0.10281053
156	0xbd88b5da	-0.066753104
157	0xbe106ad9	-0.14103259
158	0xbea6481a	-0.32476884
159	0xbe7f3d0f	-0.24925636
160	0x3e6609b6	0.22464642
161	0x3e68ec71	0.22746445
162	0xbdfeeb07	-0.12447172
163	0xbe86eb8b	-0.2635158
164	0x3d26e6e1	0.040747527
165	0x3d4362af	0.047701534
166	0xbee223e2	-0.44168
167	0xbeb6178a	-0.35564834
168	0xbdf02886	-0.11726479
169	0xbeb58a92	-0.35457283
170	0xbe69328a	-0.22773185
171	0x3ea398e9	0.319526
172	0xbe11247a	-0.14174071
173	0x3eaa7653	0.332934
174	0xbedffa57	-0.43745682
175	0xbea90164	-0.33008873
176	0xbe88febb	-0.26756844
177	0xbe6bdd63	-0.23033671
178	0xbc94f440	-0.018182874
179	0xbec05064	-0.37561333
180	0x3d80af44	0.06283429
181	0x3cc613c8	0.024179354
182	0xbc67621d	-0.014122513
183	0x3e370b6e	0.17875454
184	0x3d27a230	0.04092616
185	0xbe611f19	-0.21984519
186	0x3e0ea9b2	0.13931921
187	0x3dd98ce9	0.106225796
188	0x3d599dce	0.05312901
189	0xbdf679dc	-0.120349616
190	0xbe836099	-0.25659636
191	0x3d146df4	0.036237672
192	0xbd8957ae	-0.06706177
193	0x3cf8f2fa	0.030389298
194	0xbe317087	-0.17328082
195	0x3f179633	0.5921356
196	0xbdcad6df	-0.09904265
197	0x3d393a63	0.045221698
198	0x3d64d779	0.055869553
199	0x3e501c43	0.20323281
200	0x3e38733c	0.18012708
201	0xbeb35196	-0.35023183
202	0xbeaf6bf2	-0.34262043
203	0x3ee6a610	0.4504857
204	0x3e2eed41	0.17082693
205	0x3e0bc5b2	0.13649634
206	0xbd84e8a0	-0.06489682
207	0xbe9a5b3e	-0.30147737
208	0x3d850fbf	0.06497144
209	0xbe581113	-0.21100263
210	0xbe9c145a	-0.30484277
211	0x3e2cadb2	0.16863135
212	0xbe83abfd	-0.25717154
213	0xbe43797b	-0.1908931
214	0xbe9de5f8	-0.30839515
215	0x3e27df59	0.16393794
216	0x3d46e35d	0.048556674
217	0x3e128627	0.14308988
218	0xbedf3640	-0.43596077
219	0x3ef7c393	0.483914
220	0x3e43360d	0.19063587
221	0x3ed7c5e0	0.42143154
222	0x3ddeaacb	0.1087242
223	0xbd4d9ac4	-0.050196424
224	0xbee926fd	-0.45537558
225	0x3dc7728b	0.09738644
226	0x3db62e92	0.08895601
227	0xbebc86ac	-0.36821496
228	0x3e920022	0.28515726
229	0xbd0aa070	-0.03384441
230	0x3c64c140	0.01396209
231	0xbe9c06bb	-0.30473885
232	0x3e25d18c	0.16193217
233	0x3c69c0ed	0.0142671885
234	0x3ca06c7a	0.019582976
235	0x3d84aab4	0.064778715
236	0x3f13e927	0.5777764
237	0x3e8aa592	0.27079445
238	0xbebba4fd	-0.36649314
239	0xbe2dfee5	-0.16991766
240	0x3f1bb7ec	0.6082752
241	0xbef5e98d	-0.48029748
242	0xbe978005	-0.2958986
243	0x3f11f9b7	0.5702166
244	0x3e83b41e	0.25723356
245	0xbe14f5d9	-0.14546908
246	0xbdf10eae	-0.11770378
247	0xbdf166ab	-0.117871605
248	0xbeacd4ec	-0.33756196
249	0x3f1b9474	0.60773396
250	0x3e8a3f56	0.27001446
251	0x3e90f5a7	0.28312418
252	0xbe3c742b	-0.1840369
253	0xbe1fa3f1	-0.15589882
254	0xbe3ba898	-0.18326032
255	0x3bee5c9a	0.0072742226

network_body._body_endoder.seq_layers.0.bias f4 [128]
0	0xbbaf2393	-0.005344817
1	0x39d30fef	0.00040256928
2	0x3b836792	0.0040101493
3	0xbb89eef7	-0.004209395
4	0x3add6b25	0.0016892893
5	0xbb7bd6d2	-0.0038427603
6	0xbb935ae7	-0.0044969204
7	0x3b767b60	0.0037610158
8	0x3b308a8e	0.0026938054
9	0x3932f25d	0.0001706569
10	0xbadef581	-0.0017010422
11	0x3ac66a4c	0.001513788
12	0xb9e86294	-0.00044323935
13	0x39fbb422	0.0004800866
14	0xbb935c49	-0.004497085
15	0x3b151331	0.0022747035
16	0x3a768314	0.00094036874
17	0x3bbd9b23	0.005786316
18	0x3a9a4af5	0.0011771607
19	0x3ab819cf	0.0014045777
20	0xb9c0401a	-0.00036668853
21	0x8b5da05d	-4.2683696e-32
22	0x3a23772d	0.0006235715
23	0xbba5e2e3	-0.0050624474
24	0x3b328687	0.002724083
25	0xbc081356	-0.008305391
26	0x3c106627	0.0088134175
27	0xbb3f1960	-0.0029159412
28	0x392622ad	0.00015843911
29	0x3b159859	0.0022826402
30	0x3b3722f6	0.0027944422
31	0xbbbee252	-0.0058253193
32	0x3b186014	0.0023250626
33	0x3a0f9bc6	0.0005478229
34	0xbb1aa632	-0.0023597595
35	0x3bb497f9	0.0055112806
36	0x3b5cc413	0.0033686205
37	0x3b204272	0.0024453667
38	0x3a7f98fe	0.00097502756
39	0x3bb0f7a3	0.0054006143
40	0x3bb5b859	0.0055456576
41	0xbb910c11	-0.0044264873
42	0x3b34f988	0.0027614553
43	0x3cba6145	0.02275146
44	0x3bde4569	0.0067831767
45	0x3bba7e81	0.00569135
46	0x3c01558a	0.007893929
47	0x3b9dff53	0.004821697
48	0x3bb5f1c3	0.005552502
49	0x3af8fd61	0.0018996411
50	0xba243614	-0.0006264162
51	0xbc0a8793	-0.008455175
52	0xba464261	-0.0007562992
53	0xbb82cb81	-0.0039915447
54	0x3a65ded5	0.00087688613
55	0xbbb55736	-0.005534078
56	0x3b6f1bc2	0.003648505
57	0xace249e9	-6.431512e-12
58	0xbbfcc74a	-0.007714187
59	0x3c35652f	0.011071487
60	0xb85a2dbb	-5.201784e-05
61	0xbb30b253	-0.0026961758
62	0x3b8c524b	0.004282271
63	0xbbdf7208	-0.0068190135
64	0x397c917f	0.00024086794
65	0x3bb2ab1f	0.005452528
66	0x3c114a46	0.008867806
67	0x3b086840	0.002081409
68	0xbac219f4	-0.001480876
69	0x3a998ce4	0.0011714962
70	0xbb8e428e	-0.00434143
71	0x2e23e6c3	3.7266867e-11
72	0xbaada8bf	-0.0013249143
73	0xbb0b8843	-0.0021290935
74	0xba2e963a	-0.0006659959
75	0x3c1edb88	0.009695895
76	0xbb87ca37	-0.004143979
77	0xbbc9279e	-0.006138756
78	0xbc28db68	-0.010306217
79	0xbaaec83f	-0.0013334824
80	0x3a5c6f62	0.00084089313
81	0x3b8cbaf7	0.004294749
82	0xbb5b8ef9	-0.0033501966
83	0x3a4999f5	0.0007690483
84	0x3bdd1225	0.0067465478
85	0x3a9cddb9	0.0011967934
86	0xbc265e39	-0.0101543
87	0xbb7f0f65	-0.0038919088
88	0x39a19239	0.00030817257
89	0xbc16753a	-0.009183222
90	0xbbd8cee5	-0.0066164606
91	0x3afb8b7f	0.0019191353
92	0x3aabe4bb	0.0013114432
93	0xbb040095	-0.0020141948
94	0x3a96b30f	0.0011497455
95	0x3ac5f4b1	0.0015102831
96	0xbaa4c1df	-0.0012569985
97	0xbc82ba06	-0.015957844
98	0x3b3692ba	0.0027858452
99	0x3be58a59	0.0070050177
100	0x3c338674	0.010957349
101	0x3b53cf97	0.0032319778
102	0xbc3ca2ea	-0.011513451
103	0xbbf089a9	-0.007340629
104	0x39afddcf	0.0003354386
105	0x3bdfe839	0.006833103
106	0xbb0417e3	-0.002015584
107	0xbba7a48d	-0.0051160515
108	0x3b70e1c0	0.0036755651
109	0xbba6c8a3	-0.0050898357
110	0xb9fc76ed	-0.00048153792
111	0xbabc3e8e	-0.0014361904
112	0xba89ebf0	-0.0010522585
113	0xbc109056	-0.008823475
114	0xb9c0b890	-0.00036758604
115	0x3ad5cdbc	0.0016311924
116	0xbb8481c0	-0.0040437877
117	0xba817256	-0.0009875994
118	0xbb85d9af	-0.004084788
119	0xbbf22dac	-0.0073906984
120	0x3bc5255f	0.006016418
121	0xbc066481	-0.008202673
122	0xbb1e2483	-0.002413065
123	0xbb359296	-0.002770578
124	0xbaeea692	-0.0018207601
125	0x3af117a7	0.001839389
126	0xbb3fbf9c	-0.0029258495
127	0x3c474380	0.012162089

network_body._body_endoder.seq_layers.2.weight f4 [128, 128]
0	0x3d54e235	0.05197354
1	0x3da2fcc5	0.07958368
2	0x3ce6c506	0.02817012
3	0x3beb7711	0.0071858247
4	0x3ce16a36	0.027516466
5	0xbd7d409a	-0.061829187
6	0x3e0b2334	0.13587648
7	0x3bff874b	0.0077981106
8	0x3e077e91	0.13231875
9	0x3dba2c6e	0.090905055
10	0xbd8a7867	-0.06761246
11	0xbd6c3a32	-0.057672687
12	0x3d5462a0	0.05185187
13	0x3dd84702	0.10560419
14	0x3e18c194	0.14917594
15	0x3d8bee03	0.068325065
16	0x3e111b34	0.14170533
17	0x3e153e1b	0.14574473
18	0x3cf2da40	0.029645085
19	0xbe0750f8	-0.13214481
20	0x3d807730	0.06272733
21	0xbd183977	-0.037164178
22	0x3db29903	0.08720591
23	0x3ddbc918	0.10731715
24	0xbb963408	-0.0045838393
25	0x3c594230	0.013260409
26	0x3cad78de	0.021175798
27	0xbcecbf97	-0.02889995
28	0xbe31c29e	-0.17359397
29	0xbdfbd1fc	-0.12295911
30	0x3d9f6a1a	0.07783909
31	0xbc16b179	-0.009197586
32	0xbd5321d4	-0.051545933
33	0x3e32ccdd	0.17460962
34	0xbe06ff95	-0.13183434
35	0xbc3606c1	-0.011110009
36	0x3d9d87c5	0.076919116
37	0x3e0b1085	0.1358052
38	0xbd18db02	-0.037318237
39	0x3dbef0a2	0.09323241
40	0xbe476441	-0.19471838
41	0xbd3ff18f	-0.046861228
42	0x3cce36a7	0.025172545
43	0xbc4dd9bb	-0.012564118
44	0x3d7cc8c9	0.06171492
45	0xbc910cb1	-0.017706247
46	0x3db2ce07	0.08730703
47	0xbd738f2f	-0.059462722
48	0xbe4b9537	-0.1988114
49	0xbde7be57	-0.11315601
50	0xbd39276f	-0.045203622
51	0x3daddd0b	0.08489426
52	0x3dd105bd	0.102061726
53	0x3aeb7914	0.0017965161
54	0x3d235b4a	0.039881982
55	0x3d9c2751	0.076246865
56	0xbe118f3c	-0.14214796
57	0x3dc0c502	0.09412576
58	0xbe79fa43	-0.24411874
59	0xbd4dfcf0	-0.050290048
60	0x3e69965a	0.22811261
61	0xbe0ae2b0	-0.13563037
62	0x3d9d04be	0.0766692
63	0x3ddb7bc7	0.10716968
64	0x3d222278	0.039583653
65	0x38c4c240	9.38219e-05
66	0xbcdbb4e8	-0.026819661
67	0xbdacd016	-0.08438127
68	0x3d812bc4	0.06307176
69	0xbd6754e7	-0.056477454
70	0x3db10f77	0.08645528
71	0xbd8f1db4	-0.06988087
72	0x3e31bb7c	0.17356676
73	0x3ddf8383	0.10913756
74	0xbd331b44	-0.043727174
75	0xbe04679f	-0.12930153
76	0x3c170b44	0.0092189945
77	0x3c4e266f	0.0125824055
78	0x3cc2f136	0.023796659
79	0x3d3370bd	0.043808687
80	0x3d520f75	0.051284272
81	0x3d6f21dd	0.058381904
82	0x3c9145c7	0.017733468
83	0xbd0a1df5	-0.033719976
84	0xbbf43778	-0.0074529015
85	0x3d80084a	0.06251581
86	0x3d0d8260	0.034548163
87	0xbd132ea8	-0.035933167
88	0x3ccbc784	0.02487541
89	0x3e05ab77	0.1305369
90	0x3c43e164	0.011955593
91	0xbdc61d83	-0.09673598
92	0x3c0621c2	0.008186759
93	0x3d9a79a2	0.07542731
94	0xbd54c57e	-0.051946156
95	0xbc6daa15	-0.014505883
96	0xbdaf6373	-0.0856389
97	0xbd47d37d	-0.048785675
98	0xbd27b67a	-0.040945508
99	0x3e191b9b	0.14951937
100	0x3d107ca2	0.03527511
101	0xbd9e7016	-0.077362224
102	0xbdaed80b	-0.08537301
103	0xbe6a1a4b	-0.22861592
104	0x3e4c4690	0.19948792
105	0x3e0b8699	0.13625564
106	0x3d370ef8	0.04469201
107	0xbdb8784f	-0.09007322
108	0x3d1de86e	0.03855174
109	0x3c91ec77	0.01781295
110	0xbd05932e	-0.032611065
111	0xbde345b5	-0.1109728
112	0xbca9bd49	-0.020720141
113	0x3ce7ddc6	0.028303992
114	0xbd81a6e5	-0.06330661
115	0xbd902c01	-0.07039643
116	0xbe1f9db8	-0.15587509
117	0xbdd8ad1f	-0.10579895
118	0x3d60478d	0.054755736
119	0x3bac9c1a	0.005267632
120	0x3c6a250b	0.014291058
121	0xbcb89341	-0.022531154
122	0xbdf002e8	-0.11719304
123	0xbe075341	-0.13215353
124	0x3e4b596d	0.19858332
125	0x3dc3f8eb	0.09568962
126	0xbcf93df9	-0.030425059
127	0x3d8fc8f9	0.07020754
128	0x3bebf05c	0.007200284
129	0xbe04e82b	-0.1297919
130	0xbe5159a2	-0.20444348
131	0x3dd2cdb0	0.10293138
132	0x3df4a623	0.119457506
133	0x3d0e2401	0.034702305
134	0x3de14be4	0.11000803
135	0x3ddedcce	0.10881959
136	0xbdca7fbe	-0.09887646
137	0x3cf877eb	0.030330619
138	0xbdec3693	-0.11533847
139	0x3e8916c7	0.2677519
140	0x3b6ab82d	0.0035815344
141	0xbddfed7b	-0.10933968
142	0xbd24deab	-0.040251415
143	0x3d65134b	0.055926602
144	0xbbf50341	-0.0074771945
145	0x3cc0a01d	0.023513848
146	0xbe414a21	-0.18875934
147	0xbde818a3	-0.11332824
148	0x3d64152e	0.05568426
149	0x3d9c16f9	0.07621569
150	0x3c104d28	0.008807458
151	0xbc18a07d	-0.009315607
152	0x3e368eb0	0.17827868
153	0x3dbd2bfb	0.09236904
154	0xbd739db4	-0.05947657
155	0xbd0ac82c	-0.033882305
156	0xbd9f1cdf	-0.077691786
157	0x3d4ada8c	0.04952483
158	0xbe5f199c	-0.21787113
159	0xbd9e44cc	-0.07727966
160	0x3d5d0727	0.0539619
161	0xbdde491f	-0.108537905
162	0xbd1a62f3	-0.03769202
163	0x3d0ab95f	0.03386819
164	0xbd840ab8	-0.06447357
165	0x3a1314ec	0.00056107226
166	0x3c9fbcb3	0.019499158
167	0x3db30602	0.0874138
168	0xbe0db9b5	-0.13840373
169	0x3d2f9862	0.042869933
170	0xbd93c701	-0.07215691
171	0x3dfcd2e6	0.12344913
172	0xbc02a622	-0.007974179
173	0x3c645425	0.013936077
174	0xbcf90bd0	-0.03040114
175	0x3cffccea	0.03122564
176	0x3e20146b	0.15632789
177	0x3db973ac	0.09055266
178	0x3bc7110a	0.0060750293
179	0xbc044c7e	-0.008074878
180	0x3ded6dc5	0.115932025
181	0x3e07755a	0.1322836
182	0x3ce5f4f2	0.0280709
183	0x3e563c0c	0.20921344
184	0xbc97b075	-0.018516758
185	0x3d7212db	0.059100013
186	0xbd9806b0	-0.074231505
187	0x3e889dc1	0.26682857
188	0x3d3da5fa	0.046300866
189	0x3d24ffaa	0.040282883
190	0x3ceb90c3	0.028755551
191	0x3df5396c	0.11973843
192	0x3b193066	0.0023374795
193	0xbd7ad9f2	-0.061243005
194	0xbdbc3b19	-0.091909595
195	0xbd9f8b92	-0.07790293
196	0xbdd21938	-0.10258716
197	0xbc9d45c3	-0.019198304
198	0xbd35a9c9	-0.044351373
199	0xbc2c67f1	-0.010522828
200	0xbc885312	-0.016641174
201	0x3c98700b	0.018608114
202	0x3d332ac6	0.043741964
203	0xbda80af5	-0.08205215
204	0xbdd4dbf3	-0.103935145
205	0x3dd82d1b	0.10555478
206	0x3d338ba3	0.04383434
207	0x3c90b126	0.017662596
208	0xbd75a041	-0.059967283
209	0x39dbb768	0.00041907583
210	0x3c0691f5	0.00821351
211	0x3d72963c	0.059225306
212	0xbccb7ef1	-0.024840804
213	0xbc0fcd05	-0.008776908
214	0xbd0411f9	-0.032243703
215	0xbbd9a95c	-0.0066425037
216	0xbd7f16fb	-0.062277775
217	0x3e02ae9f	0.12761925
218	0x3d3f1876	0.046654187
219	0x3ca9d8e5	0.020733306
220	0xbe06b118	-0.13153493
221	0x3df383e2	0.11890389
222	0x3cb9bd0a	0.022673149
223	0x3db2d59f	0.08732151
224	0x3d1ec7f9	0.038764928
225	0x3d05391d	0.03252517
226	0xbceab701	-0.028651716
227	0xbccc4311	-0.024934324
228	0x3cd9ed4a	0.026602406
229	0x3c853bc0	0.016263843
230	0x3d20be51	0.039244
231	0x3baff2ec	0.0053695347
232	0x3e344ebe	0.17608163
233	0xbe1d4d99	-0.15361632
234	0xbd5a0f22	-0.053237088
235	0xbe0b1cbc	-0.1358518
236	0xbda57685	-0.080792464
237	0x3b520713	0.0032047674
238	0xbe845e4a	-0.25853187
239	0x3dc20279	0.09473128
240	0x3d3ec088	0.04657033
241	0x3d33ac95	0.04386576
242	0x3cdce8bc	0.026966445
243	0xbc9f7c2f	-0.019468395
244	0xbe189fae	-0.14904663
245	0xbc3f72a8	-0.011685051
246	0x3d735a05	0.05941202
247	0x3c8f0722	0.017459456
248	0x3e0f3e07	0.13988505
249	0xbb5f5fff	-0.0034084318
250	0xbd4d574b	-0.050132077
251	0xbc7693ff	-0.015049933
252	0xbe135333	-0.14387207
253	0x3d5e50d1	0.05427629
254	0xbce116aa	-0.027476627
255	0xbdbe5eed	-0.092954494

network_body._body_endoder.seq_layers.2.bias f4 [128]
0	0x3a296efb	0.0006463376
1	0x3a49ec75	0.00077027763
2	0xbbc89ee1	-0.0061224555
3	0xbafebf01	-0.0019435586
4	0xbaf6227e	-0.001877859
5	0xba9b7550	-0.0011860523
6	0x3a78660c	0.00094756554
7	0xbc0d0fdb	-0.008609737
8	0x39e1dca0	0.00043079723
9	0x3be46374	0.0069698635
10	0xbba61cd4	-0.0050693545
11	0x3b6c4754	0.0036053257
12	0x3b1ba044	0.0023746649
13	0xbb2c106c	-0.0026254905
14	0x3b2dc0fa	0.0026512728
15	0xbb4a1b9b	-0.0030839208
16	0xbb3a750c	-0.0028451113
17	0xb9e60bac	-0.00043877715
18	0x31bbf77d	5.4705525e-09
19	0xbb9f2b47	-0.004857454
20	0x3bcbebec	0.0062231924
21	0xbba96cb8	-0.005170431
22	0xbb832ba8	-0.004003007
23	0x3b95917d	0.0045644627
24	0xbb2adde3	-0.0026072196
25	0x3aab3ac5	0.0013063779
26	0x3b9c85aa	0.004776676
27	0x3c12eec6	0.008968061
28	0x3bde4168	0.0067826994
29	0x00000000	0.0
30	0xba5abc6b	-0.00083441165
31	0x3ad15cae	0.0015973055
32	0x3ab483b4	0.0013772161
33	0xbb9672ff	-0.0045913453
34	0xbb6ef23b	-0.0036460299
35	0x3c222437	0.00989633
36	0xbb5f0633	-0.0034030795
37	0x3bd673df	0.0065445746
38	0x3b9baa0a	0.004750495
39	0x3a897030	0.0010485705
40	0x3b88fc32	0.0041804546
41	0xbae69214	-0.0017591142
42	0xbbf8024a	-0.0075686323
43	0xbb236c79	-0.002493648
44	0x3b52f04c	0.0032186685
45	0xbb5c8876	-0.0033650673
46	0xb88a201c	-6.5863336e-05
47	0x3adb04bb	0.0016709784
48	0xbb255d63	-0.0025232665
49	0xbbcac2d3	-0.0061877756
50	0xbb2944cd	-0.0025828362
51	0xbb643b48	-0.0034825373
52	0xbaa2eb2a	-0.0012429703
53	0x3b17ab06	0.002314271
54	0x3b47e496	0.0030501238
55	0xba93b144	-0.0011268039
56	0x3bf7464c	0.007546222
57	0xbab6c499	-0.0013944089
58	0xba2baff1	-0.00065493496
59	0xbb2538b1	-0.0025210793
60	0x3c776958	0.0151007995
61	0xbaf7d136	-0.0018906954
62	0xbbc3dab4	-0.005976999
63	0xbc06646b	-0.008202652
64	0xb93a049e	-0.00017740062
65	0x3a40111c	0.0007326768
66	0x3b66519a	0.0035143853
67	0xba92a9d7	-0.0011189532
68	0x3a9eeffa	0.0012125962
69	0x3b007d55	0.0019605954
70	0x3b08b4f9	0.0020859821
71	0xbad47470	-0.0016209017
72	0x3bc1b206	0.0059111146
73	0xbb012f14	-0.0019711899
74	0x3b2a6027	0.0025997253
75	0xbbde3c95	-0.0067821243
76	0xbba8503f	-0.005136519
77	0x3c636e88	0.013881333
78	0x3b53e478	0.0032332223
79	0x3b7f5348	0.0038959552
80	0x3b88c30f	0.0041736434
81	0xbaa76af6	-0.0012772966
82	0x3abaefdb	0.0014262156
83	0x3bb1224a	0.005405699
84	0x3b638d64	0.0034721727
85	0x3b7c6384	0.0038511464
86	0xba46f4e5	-0.0007589593
87	0x39a6087a	0.00031668303
88	0x3b3368ae	0.0027375626
89	0xbb547997	-0.0032421106
90	0xbb64757d	-0.0034860068
91	0xbb9e95f3	-0.0048396527
92	0x3aebb3e8	0.0017982693
93	0x3afec601	0.0019437672
94	0x3b9ed63d	0.0048473165
95	0xba433e31	-0.0007447927
96	0xb9e13779	-0.00042956675
97	0xb9fbd3de	-0.00048032304
98	0x3b4f39ef	0.0031620224
99	0xbb1e74e8	-0.0024178568
100	0xbbadcf32	-0.0053042406
101	0x3a05dd39	0.0005106512
102	0xbb546ed1	-0.0032414685
103	0x3ade67a6	0.0016968146
104	0xbac1bce9	-0.0014781031
105	0xbac7b537	-0.0015236501
106	0xbbc6d70e	-0.006068117
107	0x3a1947de	0.0005847196
108	0xbadb0e02	-0.0016712549
109	0xbb521c69	-0.003206039
110	0xba836e85	-0.0010027444
111	0x3aca9b84	0.0015457724
112	0xbb877527	-0.0041338387
113	0xba070695	-0.0005150822
114	0xbab964f3	-0.0014144465
115	0xbafb5950	-0.0019176397
116	0xbb565028	-0.0032701585
117	0x3b051710	0.0020307936
118	0xba549d41	-0.0008110591
119	0x9ea52f3f	-1.7489595e-20
120	0xba9c9f16	-0.0011949267
121	0xbb7176c4	-0.0036844471
122	0xba231f95	-0.00062226626
123	0xbaae8a57	-0.0013316375
124	0xbb38fa46	-0.0028225346
125	0xba6c55d9	-0.0009015478
126	0x3a6ec036	0.0009107621
127	0xbc059680	-0.008153558

action_model._continuous_distribution.log_sigma f4 [1, 9]
0	0x3cef8fa4	0.029243298
1	0x3d124e16	0.035719
2	0x3d0215d5	0.031759102
3	0x3ceb0e51	0.02869335
4	0x3d0b4575	0.034001786
5	0x3d42322a	0.04741112
6	0x3c9c4a1a	0.019078303
7	0x3c513743	0.012769523
8	0x3d23c152	0.039979286

action_model._continuous_distribution.mu.weight f4 [9, 128]
0	0x3c13874e	0.009004427
1	0x3c29b9dc	0.010359254
2	0xbc8605b5	-0.016360143
3	0xbc7b7dff	-0.015349864
4	0xbcefbcab	-0.029264769
5	0x3af989cd	0.001903826
6	0x3c55e0e8	0.01305411
7	0xbb552b5f	-0.0032527072
8	0xbc802839	-0.01564418
9	0xbcc789f6	-0.024357777
10	0xbc446442	-0.011986794
11	0x3a77ef7f	0.000945799
12	0x3aee8acf	0.0018199327
13	0x3c485794	0.0122279115
14	0xbcfc1a35	-0.030774215
15	0xbc416277	-0.011803261
16	0x3b250f80	0.002518624
17	0xbcec97b9	-0.02888094
18	0xbc478695	-0.012178083
19	0xbaf73340	-0.0018859878
20	0x3c010a79	0.007876032
21	0x3c6054fd	0.013692138
22	0x3c355b0a	0.011069069
23	0xbcf62028	-0.03004463
24	0xbc29d6f2	-0.010366188
25	0x39113d14	0.00013851031
26	0xbd133cd2	-0.035946675
27	0x3d15ce5a	0.036573745
28	0xbb06b0c3	-0.0020552136
29	0x3c82975a	0.01594131
30	0xbcbde45f	-0.023180185
31	0x3c8ae1d8	0.016953394
32	0x3cb70c98	0.022344872
33	0xbc732f50	-0.014842823
34	0xbc069b5a	-0.00821575
35	0xbaa4650d	-0.0012542323
36	0x3c80d2bb	0.015725484
37	0xbcc2e11f	-0.023788987
38	0xbd11a664	-0.035559073
39	0xbc1fb18c	-0.00974692
40	0x3c44e54f	0.012017562
41	0xba520a9a	-0.0008012444
42	0xbd174ff0	-0.03694147
43	0xb9bf2e99	-0.00036465077
44	0xbca8fdd1	-0.020628842
45	0x3b5c51f2	0.003361818
46	0x3c209b0b	0.00980259
47	0x3cd4e40f	0.025987653
48	0xbc788f8b	-0.015170942
49	0xbb0eec15	-0.0021808196
50	0x3b8d6656	0.004315178
51	0xbca32b21	-0.019918026
52	0xbc8f9262	-0.017525855
53	0xbd22b10b	-0.039719623
54	0xbbb25cd8	-0.0054431967
55	0xbcf2e1b2	-0.029648636
56	0xbcfe3eaf	-0.03103575
57	0x3caeebdb	0.021352699
58	0x3ca8c1ef	0.020600287
59	0x3c663c60	0.01405248
60	0x3c3aaf99	0.011394405
61	0x3be5982b	0.007006665
62	0xbb2a8779	-0.002602069
63	0x3bbe9932	0.005816602
64	0x3c364bd3	0.011126476
65	0x3c225672	0.0099083055
66	0xbb8c641f	-0.0042843963
67	0x3a94d236	0.0011354152
68	0x3ba0618e	0.004894442
69	0x3c921596	0.017832559
70	0xbc79c5fc	-0.015244957
71	0xbd12fb04	-0.03588392
72	0x3b7beba7	0.003844002
73	0x3cd2eec2	0.025748614
74	0x3c8149ca	0.015782256
75	0xbbaf2075	-0.0053444454
76	0x3cab4248	0.020905629
77	0xbbc16e60	-0.0059030503
78	0xbb1acd81	-0.0023621025
79	0xbc38dc51	-0.011282996
80	0x3ccb07d0	0.024783999
81	0x3ca0d202	0.01963139
82	0xbbba1a9b	-0.005679441
83	0xbce6d47a	-0.028177489
84	0x3cd5bc26	0.026090693
85	0xbb959802	-0.00456524
86	0xbd05cdb1	-0.032666866
87	0xbbc98acc	-0.006150579
88	0x3c726e43	0.014796796
89	0x3a02a5a7	0.00049837906
90	0xbc7b6460	-0.0153437555
91	0x3d3b278f	0.045692023
92	0xbcd3b113	-0.025841272
93	0x3c926ba8	0.0178736
94	0x3c508f9b	0.012729551
95	0xbcb045c4	-0.021517642
96	0xbd312dec	-0.043256685
97	0xbc34793f	-0.011015235
98	0x3d29c18e	0.041444354
99	0xbc1f5b36	-0.009726336
100	0xbd196730	-0.037451923
101	0xbca69fa7	-0.0203398
102	0x3c365ae6	0.01113007
103	0xbc785cd9	-0.015158855
104	0x3bd5ad45	0.0065208995
105	0x3cb5118a	0.02210309
106	0x3ac49d09	0.0015000413
107	0xbc7f7917	-0.015592835
108	0x3cb15aee	0.021649804
109	0x3b0ad572	0.0021184352
110	0xbbba775b	-0.005690498
111	0xbc9be99e	-0.019032296
112	0xbbddfd14	-0.006774554
113	0x3a98cff9	0.001165866
114	0x3bf987d6	0.00761507
115	0xbb376f57	-0.0027989948
116	0x3cc62eb6	0.024192195
117	0x3bbe7f06	0.005813482
118	0x3c324a99	0.010882043
119	0xbc22c36d	-0.009934288
120	0x3c8d8e9b	0.017279914
121	0xbbfbc95a	-0.007683915
122	0x3d2638e9	0.040581618
123	0xbc794c42	-0.015215935
124	0xba38f76e	-0.0007055913
125	0xbccb4d2e	-0.024817076
126	0xbd054071	-0.03253216
127	0xbca50861	-0.020145597
128	0x3c89f1cb	0.016838929
129	0x3d0b02fd	0.033938397
130	0x3d1015a3	0.035176884
131	0xbbceb4cf	-0.006308175
132	0xbc13d22a	-0.009022275
133	0xbcafed95	-0.021475593
134	0xbbe13088	-0.0068722405
135	0x3d2dfa73	0.042475175
136	0xbb526b93	-0.0032107576
137	0x3b4bda4f	0.0031105464
138	0x3bef5ea8	0.007304985
139	0xbbe7b89a	-0.007071567
140	0x3b524401	0.003208399
141	0x3d06f67d	0.032949913
142	0xbac2c22b	-0.0014858892
143	0x3d0da2c2	0.034579046
144	0x3ce9f58e	0.028559472
145	0xbc83c847	-0.01608671
146	0xbc7cb661	-0.015424342
147	0xbabb4b1f	-0.0014289356
148	0xbc379109	-0.011204013
149	0xbca29fd2	-0.019851599
150	0x3b50fc57	0.0031888688
151	0x3bf56a91	0.0074895103
152	0x3d09a9cb	0.033609193
153	0x3c1a45b1	0.00941603
154	0xbb88ced5	-0.004175047
155	0xbc12e1f4	-0.008965004
156	0xbd46930c	-0.04848008
157	0x3c929fdb	0.01789849
158	0x3bef1bc6	0.007297012
159	0x3b7fc55e	0.0039027552
160	0x3c83c11b	0.01608329
161	0xbc1cda79	-0.009573572
162	0x3937cfda	0.00017529671
163	0xba47e369	-0.00076251343
164	0xbac52370	-0.0015040468
165	0xbcd215bb	-0.025645128
166	0xbb8850df	-0.004160031
167	0x3ca84e87	0.020545257
168	0xbcadb505	-0.02120448
169	0x3b7f2919	0.0038934408
170	0xbcce58dd	-0.025188858
171	0xbbda19cf	-0.0066559087
172	0x3ab351a3	0.0013680946
173	0x3be35d28	0.0069385953
174	0xbba3be42	-0.0049970457
175	0x3cdaff6d	0.026733125
176	0x3b58dd47	0.0033090876
177	0xbcd57161	-0.02605504
178	0xbc9fbdfa	-0.019499768
179	0x3c738e7b	0.014865513
180	0xbb1fff76	-0.0024413741
181	0x3d1fd5fb	0.039022427
182	0x3cb8af16	0.022544425
183	0x3c620ff4	0.013797749
184	0xbc27e877	-0.010248295
185	0x3d512f7d	0.05107068
186	0x3c22a367	0.0099266535
187	0xbd317ab5	-0.043329913
188	0x3bce6cdb	0.0062995977
189	0xbcf148e2	-0.029453699
190	0x3bcf0c99	0.0063186404
191	0xbc887893	-0.016659057
192	0x3cc3ab6a	0.023885448
193	0xbc19121d	-0.009342697
194	0x3c33785f	0.010953992
195	0x3be7a183	0.0070688142
196	0x3cf533d3	0.029931938
197	0xb9eda68f	-0.00045328258
198	0x3b7141ee	0.0036812979
199	0x3c849f7f	0.016189335
200	0x3cf5e3a7	0.03001578
201	0xbc837b4d	-0.016050005
202	0x3aa63c1d	0.001268271
203	0xbc3e377d	-0.011609909
204	0xbc72f2f3	-0.014828431
205	0xbb0b1327	-0.0021221132
206	0xbc8a989c	-0.016918473
207	0xbd2ae025	-0.041717667
208	0x3bd22352	0.006412902
209	0x3c87bf23	0.016570633
210	0xbc8ed0b3	-0.0174335
211	0xbc358633	-0.011079359
212	0x3b171c83	0.0023057766
213	0x3c0f26dc	0.008737292
214	0x3b5a5bdd	0.0033318915
215	0x3b29764d	0.0025857866
216	0xbc587763	-0.013212058
217	0xbcea45bc	-0.028597705
218	0xbc8c6031	-0.017135711
219	0xba8a1b72	-0.0010536744
220	0x3b80b139	0.0039273766
221	0x3c3b56fe	0.011434315
222	0x3caa6a41	0.020802619
223	0xbcac19f3	-0.021008467
224	0x3ca3ef03	0.02001143
225	0x3c8c68fa	0.0171399
226	0x3cbbd723	0.022929734
227	0xbc1b07b4	-0.009462286
228	0x3a87619c	0.0010328772
229	0x3bf5f803	0.007506372
230	0xbc3612b0	-0.011112854
231	0x3b45be30	0.0030173175
232	0xbcec1453	-0.028818285
233	0x3ba520c0	0.0050393045
234	0xbc4a3976	-0.012342801
235	0x3c23128a	0.0099531505
236	0xbbf2e2cb	-0.0074122897
237	0x3b7c7487	0.0038521604
238	0x3c0a0976	0.008425107
239	0xbc15813a	-0.009125048
240	0x3c5d7153	0.013515788
241	0xbcffd113	-0.031227624
242	0x3b74ef8e	0.003737423
243	0xbc4ec1dc	-0.012619462
244	0x3a96034d	0.0011445076
245	0xbbcdfa06	-0.0062859086
246	0x3c92aca7	0.017904593
247	0x3b4ffe3a	0.0031737224
248	0xbcbe5e74	-0.023238398
249	0xba86a82f	-0.0010273511
250	0x3c4a668f	0.012353553
251	0xbd35e4a2	-0.044407494
252	0xbb73a5f8	-0.0037177783
253	0xb8b2f94f	-8.534139e-05
254	0x3a61bf1e	0.00086115475
255	0x3c96c56b	0.018404683

action_model._continuous_distribution.mu.bias f4 [9]
0	0xbb6374f2	-0.0034707156
1	0x3adc0e31	0.0016788897
2	0xbb63979e	-0.0034727822
3	0xbbc6ab4c	-0.0060629006
4	0x3a8700c2	0.0010299908
5	0xbb51ad62	-0.0031994213
6	0xbb03fcb9	-0.0020139648
7	0xbb02f45f	-0.0019982082
8	0x3ae219c2	0.0017250108

exp_avg f4 [128, 12]
0	0xba9eff92	-0.0012130609
1	0xbc09d4e6	-0.008412575
2	0xbbfab425	-0.0076508694
3	0xbc6d73c4	-0.014492933
4	0x3c05b4a5	0.008160745
5	0x3900ca65	0.00012282429
6	0x3c7eeb76	0.015559068
7	0xb9c6f095	-0.0003794475
8	0xbb78bcd7	-0.0037954354
9	0x38c0cb0b	9.193093e-05
10	0xb8c0cb0b	-9.193093e-05
11	0xb8c0cb0b	-9.193093e-05
12	0x3b8b42b8	0.004249897
13	0x3bce0455	0.0062871375
14	0xbc1231b1	-0.00892298
15	0xbb8eedb9	-0.004361835
16	0xbbbb4b2a	-0.0057157474
17	0xbc0f8bf0	-0.008761391
18	0x3c07998a	0.008276353
19	0xbc3dd5fe	-0.011586664
20	0xbc285e14	-0.010276336
21	0x38fc8a8b	0.00012042102
22	0xb8fc8a8b	-0.00012042102
23	0xb8fc8a8b	-0.00012042102
24	0x3cbec722	0.023288313
25	0x3c4208c2	0.011842908
26	0x3c862571	0.016375275
27	0x3c27f908	0.010252245
28	0x3c934d22	0.017981116
29	0x3c5d983f	0.013525068
30	0x3ca2da83	0.019879585
31	0x3cf8a8ea	0.030353982
32	0x3c7384ee	0.014863236
33	0xb9cc00b5	-0.0003891044
34	0x39cc00b5	0.0003891044
35	0x39cc00b5	0.0003891044
36	0x3c0b92da	0.008518899
37	0x3b28c557	0.002575239
38	0xb998dba9	-0.0002915536
39	0xbb1ab651	-0.0023607204
40	0x3c2966f7	0.01033949
41	0x3c1b6497	0.009484432
42	0x3b8cfcee	0.0043026125
43	0xbb439e61	-0.002984904
44	0x3b7346ab	0.0037120979
45	0xb9337b0d	-0.0001711661
46	0x39337b0d	0.0001711661
47	0x39337b0d	0.0001711661
48	0x3d458793	0.048224997
49	0x3ce52bf8	0.027975067
50	0x3c99217a	0.01869272
51	0x3c926699	0.017871188
52	0x3d150898	0.03638515
53	0x3d0fc21e	0.035097234
54	0x3d394537	0.045232024
55	0x3d1fe87d	0.039040077
56	0x3d05c15b	0.0326551
57	0xba4c23e2	-0.00077873294
58	0x3a4c23e2	0.00077873294
59	0x3a4c23e2	0.00077873294
60	0xb9a75070	-0.00031912653
61	0xba1d88c1	-0.00060094526
62	0x392b4960	0.00016335165
63	0xbc1cc6e2	-0.009568902
64	0xba9b0e3c	-0.0011829804
65	0xbb52e730	-0.0032181256
66	0x3b32537b	0.0027210403
67	0x3c448671	0.011994944
68	0xbbf05e54	-0.0073354635
69	0xb72ef352	-1.0427861e-05
70	0x372ef352	1.0427861e-05
71	0x372ef352	1.0427861e-05
72	0xbd180e4e	-0.037123017
73	0xbcb5494f	-0.022129683
74	0xbc433415	-0.011914273
75	0xbc9a0248	-0.018799916
76	0xbcb170bc	-0.021660201
77	0xbcb7316d	-0.022362435
78	0xbac05ed1	-0.0014676695
79	0xbd37750f	-0.04478937
80	0xbc8703b8	-0.016481265
81	0x3a254d00	0.00063057244
82	0xba254d00	-0.00063057244
83	0xba254d00	-0.00063057244
84	0x3cf32a4b	0.029683253
85	0x3ca3a5da	0.019976545
86	0x3bf70faf	0.0075397114
87	0x3c4dd465	0.012562846
88	0x3c9ecfbc	0.019386165
89	0x3ca32e51	0.019919546
90	0x3d06e587	0.032933738
91	0x3c98b5d4	0.01864139
92	0x3ca3421b	0.019928982
93	0xb9d6dd1a	-0.00040981994
94	0x39d6dd1a	0.00040981994
95	0x39d6dd1a	0.00040981994
96	0x39b43552	0.00034372002
97	0x3c2febd8	0.010737382
98	0x3c91bfb4	0.017791606
99	0x3c4fe3a3	0.01268855
100	0x3cb801f6	0.022461873
101	0x3c3102de	0.010803906
102	0x3ca21d43	0.019789344
103	0x3cee0244	0.029053815
104	0x3c404479	0.011735075
105	0xb9d6cbd0	-0.00040969113
106	0x39d6cbd0	0.00040969113
107	0x39d6cbd0	0.00040969113
108	0x3c6be9d6	0.014399013
109	0x3c52f783	0.012876394
110	0x3bc6e770	0.00607007
111	0xbc8c9b72	-0.017163966
112	0xbc8715aa	-0.016489822
113	0xb8b3cd59	-8.573634e-05
114	0x3c36973c	0.0111444555
115	0xbc30dec0	-0.010795295
116	0x3b25c1f4	0.0025292607
117	0x385dfa29	5.2923486e-05
118	0xb85dfa29	-5.2923486e-05
119	0xb85dfa29	-5.2923486e-05
120	0xbd15eac9	-0.03660086
121	0xbcf7eb6a	-0.030263621
122	0xbba89772	-0.005145007
123	0x393b5b31	0.00017867681
124	0x3c2cd933	0.010549831
125	0xbc5c182c	-0.013433497
126	0xbc8aadb8	-0.016928539
127	0xbcc3481a	-0.023838092
128	0xbc8b1dd3	-0.016981995
129	0x39857dbe	0.00025461422
130	0xb9857dbe	-0.00025461422
131	0xb9857dbe	-0.00025461422
132	0x3c541c0d	0.012946141
133	0xb9da71fb	-0.00041665122
134	0x39aa2ae5	0.00032456886
135	0xbab30eef	-0.0013661067
136	0x3b42f0eb	0.002974565
137	0xbb3ab7b0	-0.0028490834
138	0x3b471e2e	0.0030382979
139	0x3b25b357	0.0025283897
140	0x3a82ab25	0.0009969218
141	0xb86d71b3	-5.6611094e-05
142	0x386d71b3	5.6611094e-05
143	0x386d71b3	5.6611094e-05
144	0x3ac50d17	0.0015033808
145	0xbb516a5c	-0.0031954264
146	0xba7539ae	-0.0009354603
147	0xba29fbf0	-0.000648438
148	0xbbc8d93a	-0.006129411
149	0xbc3379cc	-0.010954332
150	0xbc167da7	-0.009185231
151	0xbb95f679	-0.004576501
152	0xbbb40f4e	-0.0054949885
153	0x39111d24	0.00013839133
154	0xb9111d24	-0.00013839133
155	0xb9111d24	-0.00013839133
156	0xbbf63eb8	-0.007514801
157	0xbbda6d54	-0.006665865
158	0xb973ec4e	-0.00023262316
159	0x399df1e9	0.0003012561
160	0xba5777ce	-0.00082194514
161	0xbbf15568	-0.0073649175
162	0xbae716b8	-0.0017630672
163	0xb921b9f3	-0.00015423428
164	0xbb7c2df2	-0.0038479534
165	0x38c8e864	9.580029e-05
166	0xb8c8e864	-9.580029e-05
167	0xb8c8e864	-9.580029e-05
168	0xb948d755	-0.00019153704
169	0xbb43e6cd	-0.0029892207
170	0xbb089871	-0.0020842815
171	0xbb93d1e0	-0.004511103
172	0xba927ee7	-0.0011176736
173	0xbb61bf7c	-0.003444641
174	0xb9237557	-0.00015588604
175	0xb95354b3	-0.00020154081
176	0xbb2d0d45	-0.0026405614
177	0x388c10c1	6.678841e-05
178	0xb88c10c1	-6.678841e-05
179	0xb88c10c1	-6.678841e-05
180	0x3db699fa	0.089160874
181	0x3d5af363	0.053454768
182	0x3c82f638	0.015986547
183	0x39854c35	0.00025424515
184	0x3bf11a29	0.007357855
185	0x3cee832a	0.029115278
186	0x3d5fb3b6	0.054614745
187	0x3d857502	0.06516458
188	0x3d132b24	0.035929814
189	0xba832ece	-0.0010008456
190	0x3a832ece	0.0010008456
191	0x3a832ece	0.0010008456
192	0x3b4616ce	0.0030225995
193	0x3c505b3e	0.012717066
194	0x3a3583d9	0.0006924249
195	0x3c90d0e0	0.017677724
196	0x3c8b79f0	0.017025918
197	0x3c5d8a8d	0.013521803
198	0x3c69178e	0.014226807
199	0x3c7f9776	0.015600076
200	0xba366b25	-0.0006958715
201	0xb968b074	-0.00022190978
202	0x3968b074	0.00022190978
203	0x3968b074	0.00022190978
204	0x3cacd6f6	0.021098595
205	0x3c54a984	0.012979869
206	0x3be887d2	0.007096269
207	0x3af8a5c2	0.0018970298
208	0x3cbbe139	0.022934543
209	0x3c3c379f	0.0114878705
210	0x3bb08de9	0.0053880108
211	0x3b575eb0	0.0032862835
212	0x3bf18823	0.007370965
213	0xb9d12492	-0.00039890833
214	0x39d12492	0.00039890833
215	0x39d12492	0.00039890833
216	0xbbb0a9ec	-0.00539135
217	0x3cad0884	0.021122225
218	0x3cf0964b	0.02936854
219	0x3d52ceda	0.0514668
220	0x3d023235	0.031786162
221	0x3ccc6eeb	0.024955234
222	0xbc045ed0	-0.008079246
223	0x3c9853ef	0.01859471
224	0x3c8af8f1	0.016964408
225	0xba35c9cb	-0.00069346715
226	0x3a35c9cb	0.00069346715
227	0x3a35c9cb	0.00069346715
228	0xbd1d7018	-0.03843698
229	0xbcb9e2ed	-0.022691214
230	0xbc38f01f	-0.011287718
231	0xbb19ed46	-0.0023487373
232	0xbc965a4d	-0.018353606
233	0xbb5464e3	-0.0032408766
234	0xbd0a7cc6	-0.0338104
235	0xbc500fb5	-0.012699057
236	0xbd057078	-0.03257796
237	0x39c89fd5	0.00038266057
238	0xb9c89fd5	-0.00038266057
239	0xb9c89fd5	-0.00038266057
240	0xb9aaa60f	-0.0003254865
241	0x3be0c37e	0.006859242
242	0x3b247f4e	0.0025100294
243	0x3c6d9efb	0.014503236
244	0x3c11bb17	0.008894703
245	0x3a9bb40b	0.0011879219
246	0x3c6fa914	0.014627714
247	0x3c69341d	0.014233616
248	0x3b8f3198	0.0043699257
249	0xb8fc4109	-0.0001202841
250	0x38fc4109	0.0001202841
251	0x38fc4109	0.0001202841
252	0x80000004	-6e-45
253	0x80000034	-7.3e-44
254	0x8000001a	-3.6e-44
255	0x80000048	-1.01e-43

exp_avg_sq f4 [128, 12]
0	0x3e089329	0.13337387
1	0x3dec9f83	0.11553862
2	0x3cabbc43	0.020963794
3	0x3df7637c	0.12079522
4	0x3cb7e330	0.022447199
5	0x3d1f040d	0.038822223
6	0x3cf4e7ae	0.02989563
7	0x3ccd10e3	0.025032466
8	0x3cf27790	0.029598027
9	0x38111cdd	3.4597575e-05
10	0x38111cdd	3.4597575e-05
11	0x38111cdd	3.4597575e-05
12	0x3c282e91	0.010265009
13	0x3be784e8	0.007065404
14	0x3b65555b	0.0034993503
15	0x3be7dde1	0.0070760106
16	0x3c042a1e	0.008066682
17	0x3bccef50	0.006254114
18	0x3bd5eb08	0.006528262
19	0x3bdbab2b	0.0067037544
20	0x3bf529fe	0.0074818125
21	0x3687ca47	4.0468617e-06
22	0x3687ca47	4.0468617e-06
23	0x3687ca47	4.0468617e-06
24	0x3d4a760d	0.04942899
25	0x3d207063	0.03916968
26	0x3c354c59	0.011065566
27	0x3d466375	0.048434693
28	0x3c10e740	0.008844197
29	0x3c5130ca	0.01276798
30	0x3c30862b	0.010774176
31	0x3c159093	0.009128707
32	0x3bfc5f3d	0.007701783
33	0x374ee95a	1.2332888e-05
34	0x374ee95a	1.2332888e-05
35	0x374ee95a	1.2332888e-05
36	0x3c0b3781	0.00849712
37	0x3c19cf2a	0.009387771
38	0x3b708a3b	0.0036703486
39	0x3b9e3d8b	0.004829114
40	0x3bb836e3	0.0056217774
41	0x3c11ddf7	0.008903018
42	0x3c6fa856	0.014627537
43	0x3b3b749e	0.0028603445
44	0x3bc2f821	0.0059499894
45	0x368605e3	3.9941965e-06
46	0x368605e3	3.9941965e-06
47	0x368605e3	3.9941965e-06
48	0x3bc8c2da	0.0061267437
49	0x3bc7a283	0.006092371
50	0x3bc01c72	0.005862766
51	0x3c000cb8	0.007815532
52	0x3ba4d330	0.0050300583
53	0x3bd67e58	0.006545823
54	0x3c0c072c	0.008546632
55	0x3bef62a8	0.007305462
56	0x3ba3c742	0.0049981186
57	0x365ad23c	3.2606904e-06
58	0x365ad23c	3.2606904e-06
59	0x365ad23c	3.2606904e-06
60	0x387d9015	6.0454087e-05
61	0x3a39d5eb	0.0007089066
62	0x3a2c2c75	0.0006567904
63	0x3b4e4967	0.0031476857
64	0x3ad65eed	0.0016355194
65	0x3b08ab50	0.0020854063
66	0x3a86d34c	0.001028636
67	0x3b056b05	0.0020357978
68	0x3a039843	0.0005019942
69	0x35416e54	7.205865e-07
70	0x35416e54	7.205865e-07
71	0x35416e54	7.205865e-07
72	0x3c9b3a9e	0.01894885
73	0x3c44a212	0.012001531
74	0x3c241117	0.01001384
75	0x3c8e2380	0.017350912
76	0x3c37339c	0.011181738
77	0x3c16e648	0.009210177
78	0x3c83d67d	0.016093487
79	0x3c5e92ba	0.013584787
80	0x3be60560	0.0070196837
81	0x36e3bcc4	6.7871024e-06
82	0x36e3bcc4	6.7871024e-06
83	0x36e3bcc4	6.7871024e-06
84	0x3d139f69	0.036040697
85	0x3d1fce39	0.03901503
86	0x3c67d06c	0.014148813
87	0x3d063e82	0.032774456
88	0x3c8879e6	0.016659688
89	0x3cc911c2	0.0245446
90	0x3cbd45b2	0.023104522
91	0x3c9b4213	0.018952405
92	0x3c9b0c07	0.018926634
93	0x375c500d	1.313166e-05
94	0x375c500d	1.313166e-05
95	0x375c500d	1.313166e-05
96	0x3c573d0d	0.013137114
97	0x3c37f769	0.011228421
98	0x3bc5606a	0.0060234563
99	0x3c746db6	0.014918735
100	0x3c061a09	0.008184918
101	0x3c416532	0.011803912
102	0x3ca7ad71	0.020468445
103	0x3c499657	0.01230391
104	0x3c2bc89c	0.010484841
105	0x36df5f97	6.657046e-06
106	0x36df5f97	6.657046e-06
107	0x36df5f97	6.657046e-06
108	0x3bb8f997	0.005644988
109	0x3bf541ab	0.007484635
110	0x3b17b580	0.0023148954
111	0x3b52184a	0.0032057934
112	0x3ba484f1	0.0050207307
113	0x3c0cac53	0.008586007
114	0x3be8016a	0.0070802467
115	0x3b8a9f41	0.0042304103
116	0x3b9381e0	0.0045015663
117	0x364e7432	3.0764027e-06
118	0x364e7432	3.0764027e-06
119	0x364e7432	3.0764027e-06
120	0x3ce2352d	0.027613247
121	0x3d090e97	0.03346118
122	0x3cf6d88a	0.03013255
123	0x3d36a15b	0.044587474
124	0x3ce4db3a	0.027936567
125	0x3c9f90b7	0.019478185
126	0x3cde0ce4	0.027105756
127	0x3cf7f5e6	0.03026862
128	0x3ca4b89d	0.020107562
129	0x3782e25b	1.5602613e-05
130	0x3782e25b	1.5602613e-05
131	0x3782e25b	1.5602613e-05
132	0x3b13d26f	0.0022555848
133	0x3aa4889a	0.0012552917
134	0x39ad6c11	0.00033077647
135	0x3a7a4b43	0.0009547958
136	0x3ad7782f	0.0016439016
137	0x3a6b05c4	0.0008965398
138	0x38a4c12e	7.856112e-05
139	0x3aff5e4a	0.0019483056
140	0x3a5602a4	0.00081638456
141	0x355c6c7c	8.211425e-07
142	0x355c6c7c	8.211425e-07
143	0x355c6c7c	8.211425e-07
144	0x3965b22c	0.00021905516
145	0x3b28fdb0	0.0025785975
146	0x3b2e326b	0.0026580344
147	0x3b922fd8	0.00446127
148	0x3b5461ea	0.0032406994
149	0x3b04af31	0.0020246024
150	0x3bab38d1	0.005225279
151	0x3b0ffcb0	0.0021970682
152	0x3b4bfad6	0.0031124852
153	0x35e17238	1.6797048e-06
154	0x35e17238	1.6797048e-06
155	0x35e17238	1.6797048e-06
156	0x3a3e41f0	0.000725775
157	0x39201842	0.00015267826
158	0x3831f0dc	4.2424406e-05
159	0x372a3540	1.0145188e-05
160	0x3a47c2b2	0.00076202594
161	0x3a1bd988	0.00059451954
162	0x39ad4f70	0.00033056317
163	0x38ed6472	0.0001131975
164	0x39cb3406	0.00038757938
165	0x347d6c3d	2.3601838e-07
166	0x347d6c3d	2.3601838e-07
167	0x347d6c3d	2.3601838e-07
168	0x39d77ac3	0.0004109946
169	0x391290c7	0.00013977579
170	0x385c2734	5.2488598e-05
171	0x3a5b7b84	0.0008372592
172	0x39239bd0	0.00015602936
173	0x39c966da	0.00038414338
174	0x362526f9	2.46096e-06
175	0x3911d8ab	0.00013908993
176	0x38c885b8	9.56165e-05
177	0x3448abd5	1.8688964e-07
178	0x3448abd5	1.8688964e-07
179	0x3448abd5	1.8688964e-07
180	0x3cb6d354	0.022317566
181	0x3c53a839	0.012918525
182	0x3c1313e3	0.008976909
183	0x3c6f4203	0.014603141
184	0x3c52f719	0.0128762955
185	0x3c310b91	0.01080598
186	0x3c6e0c3d	0.014529285
187	0x3c61ca34	0.013781119
188	0x3c385a6e	0.011252029
189	0x36f52f59	7.307081e-06
190	0x36f52f59	7.307081e-06
191	0x36f52f59	7.307081e-06
192	0x3d7a6638	0.06113264
193	0x3d3daca7	0.046307232
194	0x3c6f933c	0.014622506
195	0x3d8de042	0.069275394
196	0x3c223536	0.009900382
197	0x3c32048f	0.010865345
198	0x3c162f6d	0.009166581
199	0x3c57362e	0.013135476
200	0x3c35e1ae	0.0111011695
201	0x37881ba8	1.6225342e-05
202	0x37881ba8	1.6225342e-05
203	0x37881ba8	1.6225342e-05
204	0x3b305f87	0.0026912407
205	0x3a98d7fd	0.0011661049
206	0x39c83876	0.0003818904
207	0x384e8c46	4.9244867e-05
208	0x3aaf79db	0.0013387756
209	0x3a5322c2	0.00080541905
210	0x383e28a8	4.5337394e-05
211	0x3a8eb396	0.0010887261
212	0x3a2b6e3a	0.00065395574
213	0x3533dace	6.70011e-07
214	0x3533dace	6.70011e-07
215	0x3533dace	6.70011e-07
216	0x3e16b957	0.14719139
217	0x3de890cc	0.11355743
218	0x3d16564e	0.0367034
219	0x3e1fa3a3	0.15589766
220	0x3ce14e46	0.027503144
221	0x3cf7d2e7	0.030251933
222	0x3cddb35e	0.027063068
223	0x3d21a478	0.03946349
224	0x3ce072b8	0.027398452
225	0x382502c2	3.9341634e-05
226	0x382502c2	3.9341634e-05
227	0x382502c2	3.9341634e-05
228	0x3d7b70ed	0.06138699
229	0x3d3e0102	0.04638768
230	0x3ca0732c	0.019586168
231	0x3d6e99c6	0.05825212
232	0x3ca5caa6	0.020238232
233	0x3caccffc	0.021095268
234	0x3ce7cf63	0.028297132
235	0x3cd87b2c	0.02642592
236	0x3caa027c	0.020753138
237	0x379e6281	1.8880937e-05
238	0x379e6281	1.8880937e-05
239	0x379e6281	1.8880937e-05
240	0x3bb31623	0.0054652854
241	0x3b30e3d7	0.0026991272
242	0x3a9ba2bb	0.0011874059
243	0x3bb0a290	0.0053904727
244	0x3b15c044	0.0022850195
245	0x3b08bf91	0.0020866136
246	0x3b0c2045	0.0021381539
247	0x3af9af6b	0.0019049471
248	0x3aa264d1	0.0012389665
249	0x35cffe79	1.5496763e-06
250	0x35cffe79	1.5496763e-06
251	0x35cffe79	1.5496763e-06
252	0x00000000	0.0
253	0x00000000	0.0
254	0x00000000	0.0
255	0x00000000	0.0

exp_avg f4 [128]
0	0xb79a3c0b	-1.838619e-05
1	0xb7ca0874	-2.4084213e-05
2	0x38a333c5	7.7820885e-05
3	0x380f95a3	3.4233217e-05
4	0x39234fe9	0.0001557466
5	0x360bf5e5	2.0855744e-06
6	0xb9043d9b	-0.00012611451
7	0x38abe417	8.1964004e-05
8	0x38abd642	8.193824e-05
9	0xb73194ea	-1.0584694e-05
10	0xb85595fd	-5.0922845e-05
11	0x373df497	1.1322226e-05
12	0xb7e82ea3	-2.7678272e-05
13	0xb7a0b9e9	-1.9160057e-05
14	0xb7601ad2	-1.3357685e-05
15	0x3951e47d	0.00020016912
16	0x383a26c9	4.4381977e-05
17	0x38a75074	7.978166e-05
18	0x39116e3c	0.00013869343
19	0xb8a07fe2	-7.6532146e-05
20	0x37c9cda2	2.4056822e-05
21	0x80000004	-6e-45
22	0x36e5d8dc	6.8499776e-06
23	0x381c3cac	3.7249803e-05
24	0xb8b3888a	-8.5608175e-05
25	0x356b4e0e	8.7657907e-07
26	0x3804bc18	3.164643e-05
27	0x389c0c17	7.4409116e-05
28	0x3858de66	5.1705538e-05
29	0xa8857e2b	-1.4820683e-14
30	0x374f8876	1.2369934e-05
31	0xb770e595	-1.43585685e-05
32	0xb6102634	-2.147991e-06
33	0x3924e5d7	0.00015725881
34	0xb7039902	-7.843833e-06
35	0x3814a418	3.5438774e-05
36	0x39ae8d88	0.00033293315
37	0x38beac8f	9.0920475e-05
38	0x3704b31c	7.909515e-06
39	0x3637d970	2.739569e-06
40	0xb7fe1b8d	-3.0291989e-05
41	0x37da1a6f	2.5999934e-05
42	0x3890bd8d	6.901762e-05
43	0xb70dc2a8	-8.449577e-06
44	0xb645de63	-2.9484734e-06
45	0x37f5bb83	2.9293593e-05
46	0xb5525494	-7.8354174e-07
47	0x3907f447	0.00012965604
48	0xb66debb0	-3.545294e-06
49	0x38da0043	0.00010395099
50	0xb8714a39	-5.7528003e-05
51	0x37b661f0	2.1741696e-05
52	0x390024c7	0.00012220732
53	0x38ed409c	0.00011313075
54	0xb7dc099a	-2.6230515e-05
55	0x3582daab	9.749396e-07
56	0x3851abc0	4.9989438e-05
57	0x1e7dda7b	1.3438889e-20
58	0xb74debd4	-1.227386e-05
59	0xb4ac4603	-3.2088437e-07
60	0xb8939dc2	-7.038891e-05
61	0xb88ff572	-6.864489e-05
62	0x38d8c8ac	0.00010337061
63	0xb73a43e8	-1.1102275e-05
64	0xb8591d7b	-5.1764287e-05
65	0xb8d998e3	-0.00010375844
66	0xb7b9aae8	-2.2133303e-05
67	0xb84681db	-4.7327816e-05
68	0x3749a484	1.2018838e-05
69	0x388d193e	6.728106e-05
70	0x38803636	6.113613e-05
71	0x9547b817	-4.033295e-26
72	0x378876c5	1.626777e-05
73	0x390fa606	0.00013699391
74	0xb80101f8	-3.075783e-05
75	0xb74aade4	-1.2080625e-05
76	0x37bb4da9	2.23283e-05
77	0x37f4a3f3	2.9163411e-05
78	0xb686a806	-4.0130717e-06
79	0xb8a82979	-8.018589e-05
80	0xb75029d5	-1.2407506e-05
81	0x388d6f20	6.7441026e-05
82	0x39673af4	0.00022051838
83	0xb79cb9e9	-1.868322e-05
84	0x37f5adc4	2.9287192e-05
85	0x388ddcfe	6.764567e-05
86	0x2e440fd8	4.4579312e-11
87	0xb8153f4b	-3.5583314e-05
88	0x35695adb	8.6931476e-07
89	0xb6526031	-3.134843e-06
90	0xb6bde194	-5.6588997e-06
91	0x308b6d39	1.0144624e-09
92	0x371e9244	9.451589e-06
93	0x38a95e93	8.076164e-05
94	0x37825a58	1.5539277e-05
95	0xb8df4acc	-0.000106474006
96	0x375d80ea	1.3202642e-05
97	0x37a038ca	1.909993e-05
98	0xb8f8c517	-0.000118622724
99	0x38e78611	0.0001103991
100	0x38e3a040	0.000108540524
101	0xb822a100	-3.8773753e-05
102	0xb6b18673	-5.290663e-06
103	0xb7a953f3	-2.0185462e-05
104	0x37cd23e8	2.4454625e-05
105	0xb8466c70	-4.730787e-05
106	0x36388230	2.7493916e-06
107	0xb726bfaf	-9.939001e-06
108	0x38b87e99	8.797384e-05
109	0xb88fb6c4	-6.852814e-05
110	0xb733e5f6	-1.0722773e-05
111	0x38b14407	8.452689e-05
112	0xb320988c	-3.7391644e-08
113	0x3844f12f	4.695466e-05
114	0xaeba4352	-8.470259e-11
115	0xb5446602	-7.316413e-07
116	0xb4a54e03	-3.0790406e-07
117	0x38beb2fb	9.093244e-05
118	0x38b81085	8.776881e-05
119	0x378efa02	1.7044138e-05
120	0x389e08f5	7.5356955e-05
121	0xb7ccb527	-2.440305e-05
122	0x373cae99	1.1246325e-05
123	0xb8a4447a	-7.832884e-05
124	0xa399b85a	-1.6666369e-17
125	0xb4e60c7e	-4.2849928e-07
126	0xb951684d	-0.00019970648
127	0xb7872e81	-1.611491e-05

exp_avg_sq f4 [128]
0	0x35b9be85	1.3839023e-06
1	0x342dcfb3	1.6187441e-07
2	0x35046c67	4.933158e-07
3	0x342b8c9e	1.5976772e-07
4	0x340c0ba8	1.3042757e-07
5	0x32f79776	2.8823461e-08
6	0x3491c083	2.7148425e-07
7	0x350d000a	5.252665e-07
8	0x348ef57f	2.6628183e-07
9	0x34042167	1.230561e-07
10	0x35278821	6.241044e-07
11	0x330d123f	3.2845715e-08
12	0x33904916	6.718817e-08
13	0x322230c9	9.4407335e-09
14	0x32006dff	7.475591e-09
15	0x349ceb1c	2.922833e-07
16	0x352e37e8	6.4901405e-07
17	0x32e636cd	2.6800445e-08
18	0x35d336a6	1.573663e-06
19	0x354abb90	7.5523803e-07
20	0x33851dbd	6.1987045e-08
21	0x00000000	0.0
22	0x324c2329	1.1882357e-08
23	0x321b5404	9.04129e-09
24	0x34cbbb2d	3.7947885e-07
25	0x321cc847	9.125933e-09
26	0x35302497	6.5618354e-07
27	0x35041981	4.9210945e-07
28	0x346e22c1	2.217812e-07
29	0x2e94b673	6.76267e-11
30	0x338d93b9	6.592695e-08
31	0x349e036f	2.9432292e-07
32	0x350faff6	5.352771e-07
33	0x34a39683	3.0470628e-07
34	0x34376576	1.7080114e-07
35	0x33d66c85	9.984891e-08
36	0x353e89b2	7.098089e-07
37	0x341a3875	1.4362907e-07
38	0x352a9328	6.3544076e-07
39	0x32becd24	2.2212198e-08
40	0x33ad53a9	8.071158e-08
41	0x332cc3c6	4.0224926e-08
42	0x341dadc9	1.4684987e-07
43	0x325cb1c9	1.2846109e-08
44	0x32a62702	1.9342682e-08
45	0x33c3487e	9.093581e-08
46	0x33695b34	5.433249e-08
47	0x3508adaf	5.091669e-07
48	0x34e26828	4.2171564e-07
49	0x34837682	2.4486877e-07
50	0x3559092a	8.0852135e-07
51	0x3136eca5	2.6619003e-09
52	0x34bdf5aa	3.5382737e-07
53	0x346cc2b8	2.2050051e-07
54	0x34031d1b	1.2210914e-07
55	0x30c7948d	1.4521376e-09
56	0x3433dff3	1.6752146e-07
57	0x05695357	1.09709145e-35
58	0x3018b84e	5.555919e-10
59	0x3117ec31	2.2107651e-09
60	0x3576f3a7	9.19967e-07
61	0x34bc6212	3.5089084e-07
62	0x33c9e45e	9.4013316e-08
63	0x3512a66a	5.46314e-07
64	0x34748dbc	2.2775833e-07
65	0x34cef079	3.8545457e-07
66	0x34c3be3c	3.6459994e-07
67	0x345b3310	2.0414541e-07
68	0x33f3a8d8	1.1346282e-07
69	0x32e8d6b0	2.7105983e-08
70	0x354bd6b0	7.5935804e-07
71	0x08bed234	1.1484628e-33
72	0x3533ffe5	6.705507e-07
73	0x34802b1a	2.3873218e-07
74	0x31655547	3.337236e-09
75	0x323c130c	1.0947371e-08
76	0x32c5949c	2.3001398e-08
77	0x3424b392	1.5339018e-07
78	0x33d51aaf	9.923439e-08
79	0x34cc8bf6	3.8099796e-07
80	0x3066a8b7	8.391327e-10
81	0x34898f33	2.562243e-07
82	0x340941e0	1.2783084e-07
83	0x344d49fa	1.9119025e-07
84	0x347be689	2.3460065e-07
85	0x34fa9263	4.667264e-07
86	0x30fb65ae	1.8291553e-09
87	0x34a88619	3.1390007e-07
88	0x3137132e	2.6640907e-09
89	0x338cc0d4	6.554333e-08
90	0x320baa14	8.129536e-09
91	0x30c03212	1.398407e-09
92	0x3451a48c	1.9524504e-07
93	0x34a08147	2.9896384e-07
94	0x34280a3f	1.5649947e-07
95	0x3433597b	1.6703227e-07
96	0x35129695	5.4608364e-07
97	0x320ad601	8.081316e-09
98	0x355b235d	8.163532e-07
99	0x3541e51e	7.223151e-07
100	0x3467a30c	2.1572868e-07
101	0x3459c9a5	2.0283058e-07
102	0x33335840	4.1756948e-08
103	0x341ff84e	1.4898362e-07
104	0x34c9eea8	3.7612813e-07
105	0x34db356b	4.0830795e-07
106	0x3447f333	1.8621795e-07
107	0x340173c5	1.2056178e-07
108	0x34957dfa	2.7845073e-07
109	0x3473da3d	2.2710533e-07
110	0x35a1b501	1.2048114e-06
111	0x35e6494a	1.7157665e-06
112	0x2fd0d24d	3.7984407e-10
113	0x34898295	2.561325e-07
114	0x30862027	9.758921e-10
115	0x33cc3fd4	9.5111005e-08
116	0x2ef57341	1.1161783e-10
117	0x345c47fd	2.0515286e-07
118	0x338343cf	6.112497e-08
119	0x33711375	5.612988e-08
120	0x349e01ee	2.9431197e-07
121	0x346f70dd	2.2299669e-07
122	0x34fa4770	4.6618106e-07
123	0x343e4e0d	1.7723524e-07
124	0x2fd47ef4	3.865278e-10
125	0x3314b6db	3.462524e-08
126	0x348dfad6	2.6445804e-07
127	0x32034940	7.641859e-09
