Assets/results/RollerBall/RollerBall/checkpoint.pt (torch, 447915 bytes, 36 tensors)

network_body._body_endoder.seq_layers.0.weight f4 [128, 8]
0.18263353 -0.16337852 0.04831287 0.16219696 -0.22518298 0.07971209 -0.31112653 0.009224424
-0.34495577 0.16508262 -0.027586745 -0.1265371 0.08801074 0.074474595 -0.46401027 0.19853966
0.38439733 0.053545732 -0.21222885 -0.06072058 0.07402706 0.6288207 -0.11585843 -0.012359986
-0.2524388 0.028182115 0.21284227 0.7136503 0.18673666 -0.16911873 0.43360925 -0.16108952
-0.11966827 -0.2202677 0.07553718 0.24875742 0.08399058 0.22731458 -0.40166348 0.18141752
0.126255 -0.09348128 -0.18020043 -0.41463095 -0.48194662 -0.49290138 0.14795044 0.0019284748
-0.8275542 -0.036522403 -0.0047372626 0.3960463 -0.24042195 0.6125233 -0.7206332 0.3772175
0.21222545 -0.4622411 -0.19828892 -0.63293755 -0.515187 -0.20636335 0.5671596 0.28322095
-0.08531246 -0.44545174 -0.053936325 -0.289711 0.67054105 -0.38390064 0.20583463 0.56076866
0.3139293 -0.5479796 0.42413053 0.23228705 -0.1311935 0.29263902 -0.3547632 0.32960558
-0.5280655 -0.38957393 -0.45894486 0.2054546 0.30593646 0.511456 0.2232027 0.1963182
-0.124981105 0.0067740157 0.28634268 0.0840846 0.2031044 0.022523101 -0.34885484 -0.26474598
-0.012529839 -0.43353274 -0.12908979 0.15679875 -0.31191376 -0.27181447 -0.10250317 0.37234372
0.5129686 0.5131871 0.13833666 -0.30535635 -0.30362767 -0.36563763 -0.09506843 -0.40559602
0.6160755 0.5968809 0.20782042 0.54357255 0.086749986 0.20262301 -0.26113066 -0.3927603
-0.24485534 -0.114790075 0.28247693 -0.42470792 0.5018341 -0.05463888 0.7386049 -0.34567136
0.29782265 0.025919192 0.05813706 0.2051813 -0.022428688 -0.24689665 -0.26629877 -0.5578719
0.5171526 -0.2057158 -0.053868923 0.4634751 -0.11299022 0.09801459 0.60792994 0.4024308
-0.91443974 -0.00086156983 -0.009906549 0.4303278 0.3001288 -0.24637142 -0.03316689 -0.88989997
-0.24945885 0.26866192 -0.0045561567 -0.26230597 0.009983066 -0.3240228 0.38141015 0.18845463
0.24092363 0.042176 0.044485647 -0.10308973 -0.8635922 0.00064242067 0.3423842 -0.021661073
0.11767128 0.08201042 -0.5430379 0.06578026 0.47300425 0.12587887 -0.059887648 -0.17854953
0.46752614 -0.0982226 -0.09063214 -0.10686689 -0.1379111 0.13685094 0.15915963 0.3262112
-0.05062993 0.22432764 -0.012511329 0.19043094 0.2410684 -0.41769034 -0.18404874 -0.11256434
0.6372799 -0.41828683 -0.029719947 0.05813993 0.115500815 -0.20463811 -0.2760992 0.33624992
0.0512128 -0.36558348 -0.25847018 -0.38543898 0.22761622 0.3361427 0.24657635 0.45829934
0.21014273 -0.50288624 0.30558053 -0.4185684 0.27140066 -0.045290004 0.06332305 0.18018569
0.0059719025 0.51344377 0.19774911 -0.21810858 -0.23544295 0.45338956 -0.101896726 -0.20737942
0.44899553 -0.7536851 0.09175956 -0.005537157 0.38645673 0.42424986 0.15458882 -0.115384065
0.51881415 -0.62278384 -0.02200797 -0.37590683 -0.25188664 0.11596276 0.29348323 0.36581334
-0.2424359 0.54102975 -0.06202862 0.5483308 -0.02577968 0.17905809 0.28042254 0.14400795
0.08065147 0.13833849 -0.54168665 -0.044555176 0.62359095 0.27390188 -0.22612289 -0.54234123
00000000: 4904 3b3e b34c 27be b7e3 453d f616 263e
00000010: 5e96 66be 1840 a33d fa4b 9fbe 0a22 173c
00000020: 0b9e b0be 6b0b 293e 99fd e1bc f192 01be
00000030: fa3e b43d 2386 983d c192 edbe fb4d 4b3e
00000040: bacf c43e c552 5b3d 8552 59be 25b6 78bd
00000050: 809b 973d 65fa 203f 2f47 edbd 8a81 4abc
00000060: a93f 81be 2ede e63c 53f3 593e c9b1 363f
00000070: e537 3f3e 762d 2dbe 0802 de3e a7f4 24be
00000080: a314 f5bd db8d 61be 3db3 9a3d 44ba 7e3e
00000090: 4103 ac3d 27c5 683e d6a6 cdbe 84c5 393e
000000a0: fe48 013e 1d73 bfbd 7686 38be 824a d4be
000000b0: b5c1 f6be 925d fcbe 5280 173e e0c4 fc3a
000000c0: 98da 53bf 8498 15bd 0a3b 9bbb 95c6 ca3e
000000d0: 2c31 76be 54ce 1c3f 6b7b 38bf a722 c13e
000000e0: a151 593e deaa ecbe 400c 4bbe 3208 22bf
000000f0: 4ce3 03bf ea50 53be 5f31 113f 5602 913e
00000100: 4db8 aebd 4012 e4be 56ec 5cbd 0055 94be
00000110: 94a8 2b3f a08e c4be 50c6 523e 898e 0f3f
00000120: 57bb a03e 6448 0cbf a327 d93e a8dc 6d3e
00000130: 9757 06be c8d4 953e 86a3 b5be 10c2 a83e
00000140: 4d2f 07bf 3c76 c7be d2fa eabe b162 523e
00000150: b4a3 9c3e c8ee 023f 408f 643e a307 493e
00000160: 18f6 ffbd 90f8 dd3b 829b 923e 8c34 ac3d
00000170: 9afa 4f3e 5e82 b83c 1a9d b2be c98c 87be
00000180: f449 4dbc 01f8 ddbe 1d30 04be da8f 203e
00000190: 29b3 9fbe 442b 8bbe 2fed d1bd d6a3 be3e
000001a0: e951 033f 3b60 033f 20a8 0d3e ab57 9cbe
000001b0: 1675 9bbe db34 bbbe 3db3 c2bd 48aa cfbe
000001c0: 20b7 1d3f 30cd 183f e0ce 543e 9227 0b3f
000001d0: faa9 b13d 687c 4f3e ebb2 85be e117 c9be
000001e0: 5cbb 7abe 0f17 ebbd d1a0 903e 5173 d9be
000001f0: 3378 003f 05cd 5fbd 3615 3d3f d6fb b0be
00000200: 367c 983e 7c54 d43c 2021 6e3d 0c1b 523e
00000210: 5ebc b7bc 7ad2 7cbe 5058 88be b1d0 0ebf
00000220: 1d64 043f 2aa7 52be a9a5 5cbd 9c4c ed3e
00000230: 6b67 e7bd e0bb c83d 4ca1 1b3f 690b ce3e
00000240: b918 6abf f9da 61ba 144f 22bc ed53 dc3e
00000250: 7baa 993e ca48 7cbe 01da 07bd 7cd0 63bf
00000260: 2472 7fbe 0e8e 893e d04b 95bb f84c 86be
00000270: 0390 233c 51e6 a5be 3148 c33e 40fa 403e
00000280: afb4 763e bec0 2c3d 9536 363d b520 d3bd
00000290: 6114 5dbf 1f68 283a fb4c af3e 9072 b1bc
000002a0: a4fd f03d 14f5 a73d 8804 0bbf cdb7 863d
000002b0: 9d2d f23e 64e6 003e c04c 75bd b0d5 36be
000002c0: 965f ef3e ee28 c9bd 589d b9bd 07dd dabd
000002d0: 9138 0dbe a722 0c3e befa 223e 2805 a73e
000002e0: 5461 4fbd 25b6 653e 51fc 4cbc 5400 433e
000002f0: a2da 763e 82db d5be 4677 3cbe 2288 e6bd
00000300: c724 233f b129 d6be 3f77 f3bc 2324 6e3d
00000310: b18b ec3d a78c 51be e05c 8dbe f328 ac3e
00000320: 83c4 513d c22d bbbe 3456 84be 4258 c5be
00000330: 3a14 693e e51a ac3e 837e 7c3e 36a6 ea3e
00000340: a82f 573e 27bd 00bf 0d75 9c3e 994e d6be
00000350: 07f5 8a3e 0382 39bd 84af 813d 9982 383e
00000360: f3af c33b 0d71 033f be7e 4a3e db57 5fbe
00000370: f517 71be ad22 e83e 3baf d0bd 455b 54be
00000380: bee2 e53e 82f1 40bf 70ec bb3d 0a71 b5bb
00000390: a8dd c53e 4737 d93e 884c 1e3e 7b4e ecbd
000003a0: 01d1 043f c36e 1fbf 0f4a b4bc dc76 c0be
000003b0: 49f7 80be e27d ed3d 6f43 963e e34b bb3e
000003c0: 1e41 78be ed80 0a3f b911 7ebd 685f 0c3f
000003d0: e82f d3bc 015b 373e 8b93 8f3e d276 133e
000003e0: 992c a53d 9ba8 0d3e faab 0abf 7d7f 36bd
000003f0: a8a3 1f3f de3c 8c3e c28c 67be e0d6 0abf

network_body._body_endoder.seq_layers.0.bias f4 [128]
-0.06713219 -0.07567052 0.056767974 0.047588922 -0.05274111 -0.071531706 0.027105462 -0.104907684
-0.05033221 -0.06291439 0.11280903 -0.017711818 -0.13842379 0.04957757 -0.06485631 0.035063814
-0.09986791 -0.099238984 -0.024331845 -0.05726329 -0.0629979 -0.048330322 -0.122721165 -0.0036034698
-0.061214585 -0.010086977 -0.031157944 -0.10889678 -0.05886029 -0.11312014 0.13533027 0.016514314
-0.04361995 0.09439787 0.045259055 -0.1488093 0.009427787 0.014523513 -0.020435661 0.07118442
-0.12006208 0.035601173 -0.0557049 0.045660987 -0.03523247 -0.1322604 0.04897796 -0.015005097
-0.11299933 0.10539431 -0.05656709 0.016713377 -0.0008355102 0.09605753 -0.051058386 -0.086982794
0.0047350824 -0.010511885 -0.047059286 -0.14973743 0.1113042 0.034576762 -0.078634955 -0.014565905
-0.10483942 0.02085418 0.075245015 0.030813506 -0.032071643 -0.022765001 0.008616218 -0.13178295
-0.09760271 0.045603927 -0.062303286 0.03251711 -0.21402135 -0.06147002 0.043869507 0.049349084
-0.089098655 -0.1560707 0.07438384 -0.10064267 -0.012594038 0.072723374 -0.029313307 0.006707218
-0.11094234 0.003909313 -0.11711088 -0.030413851 0.0050687687 0.121470354 0.06268703 -0.18310423
0.060678117 -0.06674881 0.10435018 -0.04966752 -0.19321774 -0.053753626 -0.029996736 -0.025698164
0.0147301005 -0.038566634 -0.12326329 -0.12579548 -0.092441976 -0.07539514 -0.046369065 0.12713125
0.08170289 0.0321727 0.0798687 -0.0145561835 -0.057898354 -0.044472456 0.0123995785 -0.0034384178
-0.036372457 0.0153762465 -0.10212123 0.15680383 -0.034404367 0.075347945 -0.07192174 -0.04808671
00000000: 9a7c 89bd 25f9 9abd 8985 683d 9aec 423d
00000010: 1007 58bd 377f 92bd 460c de3c d7d9 d6bd
00000020: 2629 4ebd 42d9 80bd 6c08 e73d 6018 91bc
00000030: f7be 0dbe da11 4b3d 63d3 84bd 139f 0f3d
00000040: 8c87 ccbd cf3d cbbd 9453 c7bc e98c 6abd
00000050: 0b05 81bd 04f6 45bd 3c55 fbbd 3128 6cbb
00000060: 25bc 7abd d943 25bc f23e ffbc 4605 dfbd
00000070: 7d17 71bd 88ab e7bd 0594 0a3e 0749 873c
00000080: d5aa 32bd ac53 c13d 8f61 393d 7761 18be
00000090: 0177 1a3c 07f4 6d3c b068 a7bc 23c9 913d
000000a0: 1ce3 f5bd 89d2 113d d22a 64bd 0407 3b3d
000000b0: ec4f 10bd 456f 07be 1d9d 483d f0d7 75bc
000000c0: 316c e7bd f9d8 d73d e5b2 67bd 7eea 883c
000000d0: 2406 5bba cfb9 c43d 9922 51bd 0924 b2bd
000000e0: c028 9b3b 0b3a 2cbc 3dc1 40bd c554 19be
000000f0: 75f3 e33d 5da0 0d3d 5d0b a1bd d5a5 6ebc
00000100: 0db6 d6bd 63d6 aa3c 0f1a 9a3d 9b6c fc3c
00000110: 8e5d 03bd ab7d babc 0a2b 0d3c 1cf2 06be
00000120: eee3 c7bd 2fcb 3a3d bb31 7fbd a930 053d
00000130: 6a28 5bbe fdc7 7bbd 83b0 333d 4422 4a3d
00000140: 5b79 b6bd ffd0 1fbe 8e56 983d bf1d cebd
00000150: 3957 4ebc feef 943d 7622 f0bc 39c8 db3b
00000160: bd35 e3bd b219 803b d4d7 efbd 7826 f9bc
00000170: ea17 a63b 73c5 f83d 0f62 803d ad7f 3bbe
00000180: 9e89 783d 9ab3 88bd 8cb5 d53d 2b70 4bbd
00000190: dfda 45be c32c 5cbd b7bb f5bc f584 d2bc
000001a0: 8556 713c 0cf8 1dbd 7771 fcbd 88d0 00be
000001b0: 3852 bdbd c468 9abd 7ded 3dbd b22e 023e
000001c0: d853 a73d 85c7 033d 3392 a33d 0f7d 6ebc
000001d0: d326 6dbd c028 36bd 9a27 4b3c 1457 61bb
000001e0: 49fb 14bd a7ec 7b3c ef24 d1bd 2f91 203e
000001f0: 98eb 0cbd 0650 9a3d b54b 93bd 92f6 44bd

network_body._body_endoder.seq_layers.2.weight f4 [128, 128]
0.05000625 -0.032117028 -0.008487841 -0.009651581 -0.06295024 -0.02189267 0.102547385 0.006378797
0.09618979 -0.005099471 0.13488324 -0.19602078 -0.06365891 -0.023183087 -0.027514467 0.082723185
-0.04188325 -0.07923662 -0.09583516 -0.103990376 -0.34085962 0.047174606 0.092745565 0.120405495
-0.034943394 -0.16535662 -0.117033675 -0.057242706 -0.02163692 0.024030108 0.09965183 0.05548958
0.04828898 0.029371953 0.012313113 -0.19206545 0.11240841 -0.15137626 -0.094139434 -0.039629772
-0.069090694 0.07304411 -0.04198491 -0.1337812 -0.051365804 0.020684574 -0.10350235 -0.038964458
-0.018410673 -0.093236186 0.10526136 0.07279584 0.030842166 0.11242903 0.052111715 -0.1025133
0.061397925 -0.089046 -0.21372786 -0.16892567 0.11118409 -0.13082747 0.03511206 0.05451705
-0.08545435 0.024331039 -0.033400286 -0.21048255 0.09125992 -0.04552303 -0.010623736 -0.046275437
-0.059936985 -0.09236991 -0.038432144 -0.14426865 -0.0130790835 0.10763877 0.0021447856 0.16604353
0.19907248 -0.09567393 -0.08234339 0.12976237 -0.015573411 0.10763123 0.021720003 -0.056455992
-0.22127071 0.1591559 0.02900953 -0.037413836 -0.0027537553 0.10916857 0.20578721 -0.0943309
0.093208745 -0.16585499 -0.25884825 -0.0014529158 -0.14154917 0.07481729 -0.11507068 -0.09063448
-0.15458389 -0.09251526 -0.14298595 0.11601345 0.052246235 -0.009130922 0.13475172 -0.20141836
0.11841869 0.07136107 -0.2044606 0.022974554 0.17087778 -0.04115158 0.17188092 0.0042124703
-0.13984817 -0.0496223 0.09294508 0.10469003 0.07715256 0.10783935 0.03584232 -0.20456281
-0.0045494884 0.067691065 -0.13334017 0.23290646 -0.06641805 -0.061060566 0.1427496 -0.11437679
-0.10975753 -0.05890837 0.23336476 -0.13126199 0.22136988 -0.33798507 0.041942753 -0.0018332506
0.1332375 0.06405134 0.19630931 -0.17336473 -0.14279233 0.118391894 -0.027330957 -0.029414508
0.15695423 -0.08062863 0.028957237 -0.009142845 -0.0886431 -0.068162434 0.015097988 0.06364293
-0.12025727 -0.035698764 -0.07993878 -0.0026554342 0.031194845 -0.044267274 -0.036790855 -0.067417815
-0.10284403 -0.05717528 0.14126584 -0.17239825 0.0026337137 0.017767863 -0.06451466 0.013944402
-0.031240204 -0.17371503 -0.024086537 0.021583388 -0.05206662 -0.16061884 0.07338933 -0.03622892
-0.026646407 -0.11993935 0.11093918 -0.13542825 0.1561527 -0.063309155 -0.04408796 -0.2595103
-0.10399393 -0.11258967 0.14648625 -0.14297378 -0.051490445 -0.12331953 -0.27674317 0.09384253
-0.15562063 -0.21362868 -0.06736955 -0.17882936 -0.07523114 0.036413375 0.13165636 -0.13844335
0.13363954 0.05950996 0.009069442 0.06913764 -0.04898398 0.014802336 -0.061706465 -0.020671265
-0.13132836 0.1516138 -0.072435044 -0.11140175 -0.0840256 -0.047391485 -0.16817994 0.02272238
0.11767961 0.016667003 -0.012122902 -0.03433948 -0.08091619 0.20192274 -0.14589348 -0.16706729
0.09251018 0.0071287393 0.0076718195 -0.014098431 0.07355352 0.18089367 -0.15350081 -0.25501224
-0.20670885 -0.022357047 -0.2503225 -0.15339392 -0.07673835 -0.058104284 0.34869948 -0.20058534
0.12135365 0.18953167 0.06374835 -0.04708603 -0.040776376 -0.06365637 -0.021000162 -0.06058089
00000000: 5bd3 4c3d 258d 03bd 9610 0bbc aa21 1ebc
00000010: 0eec 80bd 4258 b3bc 5d04 d23d 3a05 d13b
00000020: 27ff c43d 7719 a7bb d51e 0a3e acb9 48be
00000030: 9a5f 82bd 75ea bdbc 0566 e1bc c66a a93d
00000040: c58d 2bbd cf46 a2bd 3945 c4bd e8f8 d4bd
00000050: 2785 aebe 293a 413d 63f1 bd3d 2897 f63d
00000060: ce20 0fbd 3f53 29be 5aaf efbd 5477 6abd
00000070: e93f b1bc cada c43c 4216 cc3d 0b49 633d
00000080: aaca 453d 739d f03c f0bc 493c ceac 44be
00000090: 6136 e63d 6102 1bbe 2dcc c0bd d452 22bd
000000a0: 6c7f 8dbd 2698 953d 5ef8 2bbd f0fd 08be
000000b0: f364 52bd b272 a93c 0af9 d3bd 3299 1fbd
000000c0: fbd1 96bc 9df2 bebd 4593 d73d fc15 953d
000000d0: b6a8 fc3c 3141 e63d 1873 553d 7ef2 d1bd
000000e0: 647c 7b3d c05d b6bd 7adb 5abe dafa 2cbe
000000f0: 7cb4 e33d a3f7 05be aad1 0f3d 454d 5f3d
00000100: b102 afbd e351 c73c bdce 08bd bd88 57be
00000110: 7be6 ba3d 5b76 3abd 2e0f 2ebc 508b 3dbd
00000120: 7c80 75bd 6f2c bdbd 066b 1dbd 29bb 13be
00000130: a749 56bc b771 dc3d 888f 0c3b 5107 2a3e
00000140: a8d9 4b3e b2f0 c3bd a7a3 a8bd 6de0 043e
00000150: 9f27 7fbc c36d dc3d 26ee b13c 663e 67bd
00000160: ca94 62be c4f9 223e 65a5 ed3c 403f 19bd
00000170: 5978 34bb c593 df3d e2b9 523e 8f30 c1bd
00000180: 3ae4 be3d e4d5 29be c287 84be c46f beba
00000190: 44f2 10be cf39 993d 2daa ebbd 929e b9bd
000001a0: 3d4b 1ebe a478 bdbd e96a 12be 7698 ed3d
000001b0: 2600 563d dd99 15bc 5bfc 093e 9d40 4ebe
000001c0: 8085 f23d c125 923d 1f5e 51be 2235 bc3c
000001d0: 96fa 2e3e 8f8e 28bd 8d01 303e c308 8a3b
000001e0: 5c34 0fbe c140 4bbd fd59 be3d ba67 d63d
000001f0: 2902 9e3d e1da dc3d 66cf 123d ea78 51be
00000200: e013 95bb 9da1 8a3d 538a 08be 087f 6e3e
00000210: 3006 88bd a51a 7abd f32c 123e 613e eabd
00000220: 8ec8 e0bd e749 71bd 2cf7 6e3e 8b69 06be
00000230: c9ae 623e 610c adbe 2acc 2b3d af49 f0ba
00000240: 696f 083e 592d 833d 4f05 493e 8686 31be
00000250: 2738 12be 7377 f23d 2ce5 dfbc b2f6 f0bc
00000260: 9cb8 203e a020 a5bd ba37 ed3c dfcb 15bc
00000270: 838a b5bd bf98 8bbd 8d5d 773c 3957 823d
00000280: 7249 f6bd de38 12bd f1b6 a3bd cb06 2ebb
00000290: 558c ff3c 9a51 35bd 02b2 16bd 5a12 8abd
000002a0: e49f d2bd a030 6abd fea7 103e 2b89 30be
000002b0: 629a 2c3b e98d 913c 4320 84bd 1077 643c
000002c0: 75eb ffbc 5ae2 31be 2151 c5bc a5cf b03c
000002d0: cf43 55bd 4479 24be 254d 963d c764 14bd
000002e0: 9149 dabc c3a2 f5bd 1534 e33d b4ad 0abe
000002f0: 7ee6 1f3e 3ba8 81bd 9495 34bd 89de 84be
00000300: c5fa d4bd 6a95 e6bd 7e00 163e b867 12be
00000310: a5e7 52bd f38e fcbd 48b1 8dbe 8330 c03d
00000320: 045b 1fbe 7ac1 5abe 0cf9 89bd 0b1f 37be
00000330: c912 9abd 3126 153d edd0 063e 18c4 0dbe
00000340: ced8 083e b7c0 733d ff97 143c 0998 8d3d
00000350: 6da3 48bd 7f85 723c ebbf 7cbd c956 a9bc
00000360: f17a 06be a640 1b3e d358 94bd 9a26 e4bd
00000370: 9d15 acbd 931d 42bd 5d37 2cbe 4924 ba3c
00000380: 0202 f13d 3d89 883c 239f 46bc 8ea7 0cbd
00000390: 63b7 a5bd d6c4 4e3e 1a65 15be b013 2bbe
000003a0: fa75 bd3d 3398 e93b e363 fb3b 1bfd 66bc
000003b0: 3aa3 963d 313c 393e 512f 1dbe f790 82be
000003c0: 7cab 53be 2026 b7bc 452a 80be 4c13 1dbe
000003d0: ff28 9dbd c2fe 6dbd bd88 b23e 3e66 4dbe
000003e0: 4388 f83d 9714 423e 7f8e 823d 48dd 40bd
000003f0: 2105 27bd 455e 82bd 8808 acbc ab23 78bd

network_body._body_endoder.seq_layers.2.bias f4 [128]
0.08247482 0.0376765 0.016144952 -0.09725628 0.103072084 0.07896005 0.060065523 0.04010271
0.07758513 0.09314672 0.04708647 -0.015744256 0.07029454 0.0018860855 0.062040523 0.10216444
0.05998974 0.023514168 0.0403046 0.08510956 -0.04057512 -0.020821117 -0.007700679 -0.032585323
-0.07032147 -0.12889312 -0.02695071 -0.012706892 0.013753361 -0.098330885 -0.05516999 -0.040422883
-0.04427567 0.027766604 -0.07206901 0.047522534 0.033342786 0.011244702 -0.061282843 -0.01922879
0.058608152 -0.050246015 -0.08054027 0.06375281 -0.085621364 -0.039333243 0.06745673 -0.07096333
-0.08695734 0.051194265 -0.0061891787 0.059353746 0.0009794687 0.06162157 0.0071113203 -0.066453524
0.029729206 -0.060379427 -0.046372976 0.069836974 -0.016771786 0.013463458 -0.045205727 0.008168024
0.011223836 -0.048540622 0.14082767 0.08464205 -0.007967992 -0.03224892 0.036447037 0.105754375
-0.051710904 -0.06285686 0.03596589 -0.070637316 0.078563385 0.031186257 0.020692416 0.05413113
0.034834135 -0.05584905 -0.07975447 -0.028120564 0.03915129 0.051732082 -0.08026121 0.050064474
-0.060012158 0.09505086 -0.07975893 -0.06601218 0.04218179 -0.02098306 0.025161201 -0.015099897
0.0757439 -0.0021490732 0.054832738 -0.09502478 0.00089333183 -0.055694047 -0.02437057 -0.10497046
0.0074546463 -0.053752214 0.047027156 -0.03146476 -0.010516861 0.043616556 -0.055663574 0.04639131
-0.07633314 0.04695729 -0.031163204 -0.09501549 0.06972636 0.08133537 -0.033898305 -0.0107037425
-0.054706562 0.055410568 0.077382006 0.020577872 0.0633921 -0.009013057 -0.05614003 0.029716447
00000000: 8fe8 a83d ac52 1a3d 6b42 843c 4d2e c7bd
00000010: 7517 d33d cfb5 a13d 4407 763d bd42 243d
00000020: f4e4 9e3d b5c3 be3d bedd 403d 19fa 80bc
00000030: 95f6 8f3d 8736 f73a 341e 7e3d 973b d13d
00000040: cdb7 753d c9a0 c03c 7016 253d ec4d ae3d
00000050: 1932 26bd 0c91 aabc fa55 fcbb 3078 05bd
00000060: b404 90bd 8ffc 03be bcc7 dcbc 9130 50bc
00000070: c755 613c b461 c9bd edf9 61bd 7792 25bd
00000080: 685a 35bd ca76 e33c eb98 93bd fda6 423d
00000090: 7292 083d b33b 383c b803 7bbd b285 9dbc
000000a0: 1a0f 703d c4ce 4dbd 4cf2 a4bd d590 823d
000000b0: 415a afbd e51b 21bd c126 8a3d 3955 91bd
000000c0: b116 b2bd 14b1 513d 98ce cabb ea1c 733d
000000d0: 8461 803a e666 7c3d 1406 e93b c918 88bd
000000e0: aa8a f33c 6b50 77bd 97f1 3dbd b006 8f3d
000000f0: fc64 89bc d695 5c3c a429 39bd 2dd3 053c
00000100: 2ee4 373c 88d2 46bd 2135 103e d058 ad3d
00000110: 2e8c 02bc 7217 04bd 7d49 153d c095 d83d
00000120: d0ce 53bd 19bb 80bd f850 133d 4caa 90bd
00000130: d7e5 a03d 527a ff3c 2483 a93c 9bb8 5d3d
00000140: 3dae 0e3d f9c1 64bd 5056 a3bd 195d e6bc
00000150: 1a5d 203d 05e5 533d fd5f a4bd 6810 4d3d
00000160: 4fcf 75bd 06aa c23d a658 a3bd 6531 87bd
00000170: d0c6 2c3d abe4 abbc dd1e ce3c 8f65 77bc
00000180: 9e1f 9b3d 77d7 0cbb 4b98 603d 5a9c c2bd
00000190: 7c2e 6a3a 711f 64bd caa4 c7bc c1fa d6bd
000001a0: 1b46 f43b 482b 5cbd 8c9f 403d 31e1 00bd
000001b0: ea4e 2cbc 46a7 323d 7dff 63bd d004 3e3d
000001c0: 8d54 9cbd 4a56 403d fa49 ffbc 7b97 c2bd
000001d0: b2cc 8e3d 2993 a63d f3d8 0abd c05e 2fbc
000001e0: fd13 60bd 31f6 623d 757a 9e3d ed92 a83c
000001f0: b8d3 813d 80ab 13bc 17f3 65bd e86f f33c

action_model._continuous_distribution.log_sigma f4 [1, 2]
-0.26523387 -0.30495167
00000000: bccc 87be a022 9cbe

action_model._continuous_distribution.mu.weight f4 [2, 128]
-0.07391623 -0.08147372 0.024724254 -0.049740344 0.052986924 0.054384213 -0.0037254507 -0.028989423
-0.018894244 -0.04848947 -0.03280331 0.016313309 -0.09008842 -0.025446974 0.051702835 0.07615823
0.09708762 -0.060553376 0.044530436 -0.11703998 -0.011437481 0.0025096964 -0.04258312 0.08197101
0.0012384536 0.05208111 -0.03345345 -0.018826101 0.0062476844 0.015402163 0.041442405 0.0209235
0.058924034 -0.007319384 0.07403519 0.013229315 0.008024078 -0.0053756963 0.07243037 -0.004569514
-0.080448374 0.0026136464 0.016717656 0.08613761 0.012618845 -0.031751286 0.016026922 0.018981364
-0.024622455 -0.0016671882 0.044850886 -0.029132353 -0.013698643 0.021718737 0.058495328 -0.020087624
-0.028170537 0.022164207 0.005354215 0.069792986 0.011942832 0.03021159 -0.08921267 -0.066325024
-0.018688954 0.023783784 0.023563292 -0.04123011 -0.053738046 0.056385465 0.04535799 0.019862287
-0.04555343 0.006787518 0.06387732 0.028611304 -0.0451934 0.016876806 -0.09544494 0.07058108
0.03410621 -0.029379323 -0.012419479 -0.049022004 -0.0029048459 -0.024025725 0.07979097 0.017088208
0.0006373976 0.07738643 0.034323264 0.007288269 -0.0537399 -0.0074342443 -0.030185174 -0.022191554
-0.04117103 -0.04310769 -0.011900676 0.022676315 -0.0015708659 -0.06746794 0.050041102 0.03266665
0.076527916 0.09488383 0.027549235 0.028911866 -0.0325971 -0.08455898 0.090970494 -0.074398115
-0.054579977 0.037787933 0.045116354 0.015873304 0.09476058 0.0053177103 -0.06217557 0.009859393
-0.017065668 0.08732915 0.01804161 -0.06145191 -0.0932195 0.013110537 0.02860927 -0.030482128
-0.04159137 0.022084283 0.09973777 0.038921658 0.061279297 0.0676523 0.05401057 -0.052653607
0.105629675 0.06954521 0.03515883 -0.041113213 -0.0057206666 -0.08073529 -0.11627265 0.061574988
0.00939882 0.0423304 -0.13835849 -0.007270294 0.045148425 0.037373003 0.013725457 0.044813517
0.025520261 0.088089004 0.03223603 0.01842162 0.018199714 -0.035790473 -0.07301417 -0.031648327
-0.051633622 0.008788024 -0.00431787 0.030285995 0.0342479 0.026028223 -0.04167492 0.04220776
-0.008384007 0.008816964 0.02750363 0.04248884 -0.053046606 0.07080919 -0.1063559 -0.009485601
-0.014353987 -0.06961837 0.029028147 -0.09275918 9.336271e-05 0.07062252 -0.016173529 0.004079406
0.030172952 -0.03840251 0.016198324 0.003512371 -0.052081086 -0.020043278 0.0071291593 0.0040843254
0.043432146 -0.017106108 -0.056131087 0.13133562 -0.00025431867 0.022056244 0.009482691 0.095588945
0.005212206 -0.013903865 0.058522757 -0.00088426843 0.07779414 -0.09258317 -0.02480059 -0.08124343
0.052874293 -0.025784804 0.09737494 0.026556578 -0.07846987 0.08116091 -0.046260845 -0.055530805
0.035922546 0.010998365 0.021475257 0.024476422 -0.074276164 0.0117062805 -0.019711077 -0.04896643
-0.06662179 0.061758637 -0.07206581 -0.09460234 0.043008417 -0.006995949 -0.059782013 -0.046814736
-0.014595757 -0.012924048 -0.12424585 0.06434248 0.097335204 0.019564308 -0.020924252 0.065579474
0.079749815 0.042805944 0.03702302 0.011616431 0.0028053648 -0.08469123 0.12900333 -0.064499944
0.03083447 -0.0073780734 -0.09203914 -0.013473832 0.008239506 0.11029275 0.02313243 -0.075299
00000000: 6461 97bd b2db a6bd 858a ca3c 88bc 4bbd
00000010: d108 593d fbc1 5e3d b126 74bb 3a7b edbc
00000020: 1ac8 9abc e59c 46bd c35c 06bd 7da3 853c
00000030: 4780 b8bd 2c76 d0bc 5ac6 533d d9f8 9b3d
00000040: e0d5 c63d d106 78bd 8c65 363d a8b2 efbd
00000050: 4664 3bbc b879 243b a36b 2ebd 6be0 a73d
00000060: 9b53 a23a 0153 553d 7c06 09bd 3239 9abc
00000070: 60b9 cc3b 5b59 7c3c 83bf 293d c367 ab3c
00000080: 545a 713d 71d7 efbb c39f 973d c5bf 583c
00000090: 6c77 033c 9c26 b0bb 6056 943d ddbb 95bb
000000a0: 1ec2 a4bd b649 2b3b 77f3 883c ea68 b03d
000000b0: 46bf 4e3c a30d 02bd e44a 833c ce7e 9b3c
000000c0: 08b5 c9bc 8e85 daba 90b5 373d f9a6 eebc
000000d0: 4670 60bc 7eeb b13c cc98 6f3d cd8e a4bc
000000e0: e6c5 e6bc b691 b53c 6972 af3b a0ef 8e3d
000000f0: deab 433c 4c7e f73c 22b5 b6bd 6ad5 87bd
00000100: 9419 99bc 36d6 c23c ce07 c13c e7e0 28bd
00000110: 6d1c 5cbd 72f4 663d 4dc9 393d 3cb6 a23c
00000120: 3c96 3abd d469 de3b 1dd2 823d 4162 ea3c
00000130: b71c 39bd 3a41 8a3c a378 c3bd d08c 903d
00000140: f4b2 0b3d e8ac f0bc 127b 4bbc 4ccb 48bd
00000150: 3a5f 3ebb 99d1 c4bc 7369 a33d 92fc 8b3c
00000160: 0717 273a c77c 9e3d 8d96 0c3d 6ed2 ee3b
00000170: 5f1e 5cbd f69a f3bb e646 f7bc 10cb b5bc
00000180: f4a2 28bd b091 30bd 0efb 42bc aec3 b93c
00000190: 83e5 cdba a22c 8abd e6f7 4c3d 77cd 053d
000001a0: abba 9c3d 7452 c23d efae e13c 94d8 ec3c
000001b0: 8984 05bd 422d adbd bd4e ba3d 0a5e 98bd
000001c0: 418f 5fbd 85c7 1a3d edcb 383d bb08 823c
000001d0: d611 c23d 3040 ae3b cfab 7ebd 4b89 213c
000001e0: 4dcd 8bbc a0d9 b23d 00cc 933c ffb4 7bbd
000001f0: dde9 bebd 94cd 563c fd5d ea3c a8b5 f9bc
00000200: b65b 2abd 19ea b43c 5143 cc3d 516c 1f3d
00000210: 0000 7b3d 4a8d 8a3d 303a 5d3d 4fab 57bd
00000220: 5f54 d83d b86d 8e3d b502 103d 5466 28bd
00000230: 6e74 bbbb 8b58 a5bd 5b20 eebd 0e36 7c3d
00000240: 82fd 193c a462 2d3d d9ad 0dbe a53b eebb
00000250: 8eed 383d 6f14 193d bde0 603c 618e 373d
00000260: de0f d13c 0268 b43d ed09 043d f0e8 963c
00000270: 9117 953c 0899 12bd 7488 95bd ada1 01bd
00000280: c77d 53bd a5fb 0f3c eb7c 8dbb 561a f83c
00000290: 8747 0c3d 2439 d53c 52b3 2abd 0be2 2c3d
000002a0: 135d 09bc 0775 103c 4b4f e13c c708 2e3d
000002b0: 6647 59bd 6904 913d 1fd1 d9bd 7f69 1bbc
000002c0: fc2c 6bbc 1394 8ebd 70cc ed3c 86f8 bdbd
000002d0: b9cb c338 8aa2 903d 597e 84bc 8aac 853b
000002e0: 442d f73c f34b 1dbd 59b2 843c cf2f 663b
000002f0: fa52 55bd cd31 a4bc b99b e93b ced5 853b
00000300: e8e5 313d 1c22 8cbc b6e9 65bd d87c 063e
00000310: 1356 85b9 4caf b43c 4a5d 1b3c 23c4 c33d
00000320: 27cb aa3b 09cd 63bc 8fb5 6f3d 40ce 67ba
00000330: 8952 9f3d 3f9c bdbd 9b2a cbbc f562 a6bd
00000340: b792 583d a73a d3bc 836c c73d 2e8d d93c
00000350: d0b4 a0bd b137 a63d 037c 3dbd 4574 63bd
00000360: 8523 133d 7c32 343c e1ec af3c c782 c83c
00000370: 1a1e 98bd b3cb 3f3c 2079 a1bc 0691 48bd
00000380: 0171 88bd a0f6 7c3d 3d97 93bd dfbe c1bd
00000390: 9829 303d 463e e5bb fcdd 74bd cfc0 3fbd
000003a0: 0b23 6fbc 63bf 53bc 9c74 febd fdc5 833d
000003b0: ae57 c73d 5445 a03c 5669 abbc 884e 863d
000003c0: df53 a33d 4955 2f3d 73a5 173d d852 3e3c
000003d0: 36da 373b 9872 adbd 7319 043e 8c18 84bd
000003e0: 9298 fc3c c4c3 f1bb 047f bcbd 59c1 5cbc
000003f0: fefe 063c 2ae1 e13d 3980 bd3c 5d36 9abd

action_model._continuous_distribution.mu.bias f4 [2]
-0.018690612 -0.039331764
00000000: 0e1d 99bc 581a 21bd

exp_avg f4 [128, 8]
0.0007223659 1.5724976e-05 0.0012577468 -0.0024607412 1.5739193e-05 -8.8955814e-05 -0.004006397 0.0026282968
0.00046828607 0.0004830806 -0.004796084 -0.00022456933 0.00048292213 -0.009412624 -0.0018090154 0.0033669674
0.0062217596 -0.0006516225 0.0072189774 -0.0027872196 -0.00065159576 0.0013477583 -0.002930169 -0.010873328
-0.021945372 -0.0036277585 0.04153898 -0.02266146 -0.0036277412 0.028630527 -0.019889127 0.02787524
0.0010287117 -0.000120911034 0.0018166294 -0.002189223 -0.00012093224 -0.0014582942 0.00020005922 0.00075604836
0.0065769367 0.00042520545 -0.0064354306 0.0036961432 0.00042553328 -0.0031417154 0.0070173293 -0.0053212517
0.001646982 0.0003261708 -0.0039572576 0.0017434353 0.00032589986 -0.008420606 0.0022095195 0.0085922275
0.009396007 0.00030839138 -0.008552484 0.012709257 0.00030875232 -0.005660184 0.0071266107 0.0011158615
0.004479925 0.0010776758 -0.009585827 0.0004271292 0.0010778663 -0.0062334407 -0.0023584354 -0.0010993995
0.0002425634 -1.310581e-05 2.0030224e-05 0.00031579647 -1.30829685e-05 -0.00035663848 -5.711687e-05 0.0001703199
-0.00017181896 -0.0002376293 0.0023848002 0.0005914885 -0.00023824649 -0.00870975 0.0022856526 0.0075571877
-0.0029895664 -0.00013677667 0.0006532554 0.004669245 -0.00013667624 -0.00040661986 0.0028163188 0.001963673
-0.002094151 -3.9420374e-05 0.00040976203 -0.0065964106 -3.9414277e-05 0.0024262923 -0.0047664735 0.0022558942
0.01287512 0.0016978307 -0.019338885 -0.0023816181 0.0016978333 -0.002813039 0.010308633 -0.025823683
-0.010390074 -0.0020510752 0.018318076 -0.002885436 -0.0020510624 0.011184214 -0.0073624854 0.0154578425
0.0015388789 0.0010377053 -0.0038317735 -0.017070666 0.0010380229 -0.004957647 0.0023841297 -0.01435968
-0.0019639707 0.0003284612 0.00081611826 -0.02325185 0.00032846956 0.0063863453 -0.010240757 0.00019612983
0.0012179161 1.4785169e-05 0.0050084046 -0.011095156 1.4782572e-05 0.0039982526 -0.0035468577 0.009921186
-0.023381742 -0.0020171637 0.023278795 -0.027628893 -0.0020174433 0.013790844 -0.017608047 0.016794868
-0.0017556734 -0.00045224628 0.0037814952 0.0027843385 -0.00045228456 0.001318236 -0.001209008 0.0045415876
0.004154427 0.0010484565 -0.01314448 0.011901141 0.0010484596 -0.012365257 0.0070146737 -0.001008859
0.017060785 0.0014712366 -0.0040772017 -0.020530432 0.0014712228 0.0067782956 -0.001801705 -0.023500267
-0.003611273 -0.0003815996 -0.00030568987 0.009770842 -0.0003815793 0.00046237424 0.005009475 -0.0019040284
-0.014641883 -0.00082971144 0.008008716 -0.0119998995 -0.00082968915 0.0026221583 -0.020213 0.02071899
0.0036037322 0.0006167625 -0.0029992436 -0.012039763 0.00061677117 0.0053890664 -0.005314199 0.0012174996
-0.0004784302 -0.0012249455 0.009807955 0.004310409 -0.0012248545 0.009105669 -0.004196631 0.0014755888
-0.0040796977 -0.00065830274 0.0032670568 0.007820087 -0.0006580941 0.00069463614 0.0005905635 0.006125077
0.0085063465 0.00041250777 0.00078300654 -0.012685804 0.0004124893 -0.0010532998 -0.007801587 -0.004465159
0.006712261 0.0010079795 -0.006566551 -0.003891839 0.0010079917 -0.0010730505 -0.004814823 -0.008166657
-0.006301211 -0.00074983906 0.00140149 0.010566889 -0.00074991165 0.0012904507 -0.00355668 0.005024635
-0.007115721 -0.00054605893 0.007945184 -0.0035729604 -0.0005460023 0.009347964 -0.012235869 0.015710318
0.02135697 0.0013846707 -0.007829634 -0.0064550424 0.0013846406 0.0021870045 0.010132236 -0.029483028
00000000: 285d 3d3a 21e9 8337 fbda a43a 6344 21bb
00000010: a907 8437 ca8d bab8 1848 83bb 813f 2c3b
00000020: 4b84 f539 fb45 fd39 7828 9dbb 5f7a 6bb9
00000030: b630 fd39 6837 1abc 7c1c edba 57a8 5c3b
00000040: e7df cb3b a5d1 2aba 2c8d ec3b c9a9 36bb
00000050: dacf 2aba 44a7 b03a 1408 40bb 0b26 32bc
00000060: c8c6 b3bc b0bf 6dbb c724 2a3d 87a4 b9bc
00000070: 66bf 6dbb 918a ea3c 86ee a2bc 9e5a e43c
00000080: d6d5 863a 9e91 fdb8 f81b ee3a 1179 0fbb
00000090: 019d fdb8 3c24 bfba fdc6 5139 8c31 463a
000000a0: 5883 d73b 1cee de39 4ee0 d2bb fe3a 723b
000000b0: 1c1a df39 3de5 4dbb a0f1 e53b e55d aebb
000000c0: 8cdf d73a e701 ab39 e2ab 81bb fb83 e43a
000000d0: 8add aa39 95f6 09bc 96cd 103b 6ac6 0c3c
000000e0: b6f1 193c 97af a139 b81f 0cbc 7d3a 503c
000000f0: 09e0 a139 1179 b9bb 5886 e93b 1942 923a
00000100: 56cc 923b cd40 8d3a df0d 1dbc 50f0 df39
00000110: 3147 8d3a e441 ccbb fb8f 1abb ba19 90ba
00000120: 9e58 7e39 06e1 5bb7 9406 a837 7c91 a539
00000130: ec7e 5bb7 35fb bab9 c690 6fb8 e697 3239
00000140: 4d2a 34b9 212c 79b9 4f4a 1c3b 1f0e 1b3a
00000150: ced1 79b9 57b3 0ebc e3ca 153b 49a2 f73b
00000160: 9aec 43bb b56b 0fb9 3a3f 2b3a 7700 993b
00000170: c050 0fb9 982f d5b9 fd91 383b f7b0 003b
00000180: 063e 09bb 4e57 25b8 54d5 d639 b426 d8bb
00000190: c250 25b8 6e02 1f3b 1430 9cbb a0d7 133b
000001a0: 2bf2 523c bf89 de3a 956c 9ebc ec14 1cbb
000001b0: d589 de3a f75a 38bb 8ae5 283c 308c d3bc
000001c0: 213b 2abc 556b 06bb ca0f 963c 9519 3dbb
000001d0: 1e6b 06bb fe3d 373c 0141 f1bb e442 7d3c
000001e0: 35b4 c93a 9d03 883a 7e1e 7bbb c8d7 8bbc
000001f0: 450e 883a c273 a2bb 0f3f 1c3b dd44 6bbc
00000200: f6b5 00bb 5135 ac39 c5f0 553a aa7a bebc
00000210: 7036 ac39 8c44 d13b d9c8 27bc 33a8 4d39
00000220: 7ca2 9f3a d10d 7837 8b1d a43b 75c8 35bc
00000230: aa02 7837 c603 833b 6672 68bb 788c 223c
00000240: 118b bfbc 6432 04bb 2cb3 be3c fd55 e2bc
00000250: 1537 04bb fef2 613c c03e 90bc 6495 893c
00000260: a01e e6ba 781b edb9 f6d2 773b 7379 363b
00000270: 9b20 edb9 a9c8 ac3a 9477 9eba 99d1 943b
00000280: dc21 883b 5d6c 893a f25b 57bc 01fd 423c
00000290: 776c 893a a697 4abc 59db e53b b13b 84ba
000002a0: 0fc3 8b3c 82d6 c03a 0c9a 85bb 702f a8bc
000002b0: 0cd6 c03a 771c de3b 3027 ecba a283 c0bc
000002c0: 1bab 6cbb 6e11 c8b9 0045 a0b9 e215 203c
000002d0: b50e c8b9 d26a f239 8626 a43b 9790 f9ba
000002e0: 82e4 6fbc fe80 59ba fd36 033c 3a9b 44bc
000002f0: 7f7f 59ba 84d8 2b3b bc95 a5bc dfba a93c
00000300: 982c 6c3b 3bae 213a f58e 44bb 6d42 45bc
00000310: d0ae 213a c496 b03b bb22 aebb 8294 9f3a
00000320: d0d5 fab9 5a8e a0ba 8bb1 203c 553e 8d3b
00000330: 4c8b a0ba f22f 153c e483 89bb 8b68 c13a
00000340: fcae 85bb f391 2cba 1e1c 563b d21f 003c
00000350: f383 2cba 3e18 363a 0cd0 1a3a dfb4 c83b
00000360: 345e 0b3c db45 d839 ae42 4d3a 1ed8 4fbc
00000370: 6043 d839 e00e 8aba 75a4 ffbb 7850 92bb
00000380: 87f2 db3b 2e1e 843a 392c d7bb 390e 7fbb
00000390: 971e 843a 9aa5 8cba aac5 9dbb 71cd 05bc
000003a0: 647a cebb d990 44ba 33b2 b73a bf20 2d3c
000003b0: b895 44ba 5724 a93a 3017 69bb b1a5 a43b
000003c0: fe2a e9bb 6525 0fba 842c 023c 5428 6abb
000003d0: 9821 0fba 3428 193c f478 48bc edb2 803c
000003e0: d0f4 ae3c d77d b53a dd47 00bc d284 d3bb
000003f0: d47c b53a d953 0f3b ae01 263c 6486 f1bc

exp_avg_sq f4 [128, 8]
0.001174176 9.578657e-06 0.0010056025 0.0012575842 9.168235e-06 0.00065261865 0.0005547737 0.00044050632
0.0043072943 3.253338e-05 0.0028804452 0.0030914627 3.2300453e-05 0.0017466634 0.0040569757 0.0018536053
0.008904273 8.5313746e-05 0.010498473 0.006567313 8.521125e-05 0.0056995167 0.007151829 0.0057940367
0.01500718 0.0001287276 0.01818655 0.011428054 0.00012806203 0.010457086 0.008040634 0.0068838196
0.0015731986 1.0636011e-05 0.0009646916 0.0012636081 1.048867e-05 0.00066861906 0.0013802701 0.00057897106
0.0024401515 2.2735307e-05 0.0030389228 0.003098652 2.2304608e-05 0.001771016 0.0027296387 0.0017352799
0.01085029 7.8594145e-05 0.0068059782 0.007256607 7.849578e-05 0.0044928384 0.008673551 0.0042422772
0.002870379 2.7306627e-05 0.0035145446 0.0033129775 2.6867356e-05 0.002141863 0.0020707017 0.0014270797
0.0032382691 2.7958333e-05 0.0031950143 0.0042114635 2.6795848e-05 0.0022958445 0.002572146 0.0009783081
0.00040251706 4.2518955e-06 0.00047669097 0.00042563945 4.215344e-06 0.0003278879 0.0005069397 0.00016620947
0.015702367 0.00013105241 0.014441239 0.012582402 0.00013076827 0.0066622626 0.009906683 0.008022109
0.0021600777 1.625162e-05 0.0015355861 0.0018441522 1.5978503e-05 0.00085381523 0.0017483685 0.0007991735
0.0009105501 9.383753e-06 0.0013369138 0.0009556845 9.200261e-06 0.0009248679 0.0006365513 0.0002388812
0.018752387 0.00017975255 0.024544515 0.021275667 0.00017785282 0.014226987 0.017432226 0.011326592
0.00346116 3.0385361e-05 0.0044781324 0.003301352 2.9832008e-05 0.0024052449 0.002148913 0.0018758888
0.0135820815 0.00010146113 0.010843736 0.018869607 9.764463e-05 0.0059204022 0.009536236 0.007929623
0.0067216367 6.5237175e-05 0.008711471 0.008326645 6.417941e-05 0.00562295 0.0065697287 0.0042121788
0.002512708 2.2717779e-05 0.0030083454 0.0020617088 2.2635828e-05 0.0017229769 0.0013034806 0.0010773126
0.016010985 0.00010543832 0.0099516 0.011105405 0.000104454666 0.005669971 0.011462348 0.005470683
0.0016298966 1.1422434e-05 0.0013065087 0.002133445 1.1128317e-05 0.00078369933 0.0013869451 0.0008417403
0.0017219251 1.3593499e-05 0.0021508394 0.0013296598 1.3485533e-05 0.0010964348 0.00076063036 0.0006835525
0.006844794 6.07627e-05 0.0080727 0.007013106 5.993602e-05 0.0040327203 0.0067626364 0.0050337263
0.0019878824 1.7445585e-05 0.0022839417 0.002063072 1.732707e-05 0.0013653759 0.00089465786 0.0006486123
0.014260071 0.00011578266 0.014985919 0.013031674 0.000114818424 0.008138143 0.0151637895 0.007509748
0.0051649455 4.58853e-05 0.0064802417 0.0039105844 4.530423e-05 0.003756808 0.0024972584 0.0014472089
0.0058145253 4.806173e-05 0.0048088287 0.0067366534 4.6616704e-05 0.0030561136 0.0030583674 0.001844785
0.0020994428 1.6557206e-05 0.0015499308 0.0023677987 1.6288419e-05 0.0012710292 0.0017860518 0.0006908328
0.0016734592 1.4647506e-05 0.0014630669 0.0015715454 1.4521605e-05 0.0010074085 0.002102581 0.0011980968
0.0007493063 6.8823565e-06 0.00091250555 0.0006397394 6.8725417e-06 0.00033508101 0.0005499716 0.0006383956
0.0018356496 1.5041184e-05 0.0019676893 0.0014467005 1.4989019e-05 0.0012624506 0.0009206207 0.00039680523
0.008125666 6.983924e-05 0.008592787 0.004555673 6.9851216e-05 0.0047296593 0.0039065727 0.0031531823
0.010680991 8.99738e-05 0.011803653 0.010786329 8.9089444e-05 0.0058500236 0.011030291 0.007820138
00000000: cfe6 993a 05b4 2037 6cce 833a 86d5 a43a
00000010: 45d1 1937 7f14 2b3a 3c6e 113a c2f3 e639
00000020: 3424 8d3b 7374 0838 dac5 3c3b 239a 4a3b
00000030: 597a 0738 4cf0 e43a 61f0 843b acf4 f23a
00000040: 3ae3 113c 78ea b238 ca01 2c3c 9d32 d73b
00000050: 71b3 b238 03c3 ba3b e459 ea3b e7db bd3b
00000060: ade0 753c 0dfb 0639 f6fb 943c bc3c 3b3c
00000070: 6448 0639 3354 2b3c ddbc 033c aa91 e13b
00000080: c933 ce3a 5271 3237 5be3 7c3a a79f a53a
00000090: 7ff8 2f37 4446 2f3a 2eea b43a 17c6 173a
000000a0: f3ea 1f3b b3b7 be37 aa28 473b c112 4b3b
000000b0: c81a bb37 7021 e83a bde3 323b 5572 e33a
000000c0: 6ac5 313c e9d2 a438 af04 df3b d5c8 ed3b
000000d0: 1a9e a438 a938 933b 821b 0e3c cd02 8b3b
000000e0: f81c 3c3b 8910 e537 4654 663b 8a1e 593b
000000f0: 3561 e137 805e 0c3b 9cb4 073b d90c bb3a
00000100: 2439 543b 1088 ea37 7263 513b 5100 8a3b
00000110: a5c7 e037 e175 163b 7391 283b 933a 803a
00000120: ed08 d339 81ab 8e36 61ec f939 5c28 df39
00000130: 8771 8d36 5ee8 ab39 26e4 043a 8448 2e39
00000140: 40a2 803c 1d6b 0939 f29a 6c3c 6b26 4e3c
00000150: d71e 0939 1c4f da3b a44f 223c 2a6f 033c
00000160: 1790 0d3b 1754 8837 b845 c93a 7bb7 f13a
00000170: 9309 8637 92d2 5f3a 8329 e53a a07f 513a
00000180: fcb1 6e3a ea6e 1d37 623b af3a e786 7a3a
00000190: d25a 1a37 d672 723a 3cde 263a 2f7c 7a39
000001a0: 9b9e 993c f57b 3c39 9411 c93c 4f4a ae3c
000001b0: 017e 3a39 4f18 693c 07ce 8e3c 2c93 393c
000001c0: a1d4 623b 11e4 fe37 4cbd 923b 7f5b 583b
000001d0: c03f fa37 50a1 1d3b c7d4 0c3b 62e0 f53a
000001e0: 6187 5e3c 88c7 d438 eda9 313c 6f94 9a3c
000001f0: 90c6 cc38 efff c13b df3d 1c3c 40eb 013c
00000200: 2d41 dc3b f1cf 8838 8fba 0e3c 7b6c 083c
00000210: 0f98 8638 b940 b83b e146 d73b 5106 8a3b
00000220: 3fac 243b 0f92 be37 a927 453b bc1d 073b
00000230: 12e2 bd37 83d5 e13a 8dd9 aa3a 9d34 8d3a
00000240: 7829 833c c41e dd38 090c 233c 72f3 353c
00000250: ac0e db38 2acb b93b 92cc 3b3c 6a43 b33b
00000260: 41a2 d53a fba2 3f37 283f ab3a 45d1 0b3b
00000270: c2b3 3a37 2c71 4d3a 28ca b53a 3ca8 5c3a
00000280: 38b2 e13a a20f 6437 19f5 0c3b fb47 ae3a
00000290: ec3f 6237 3fb6 8f3a 0a65 473a 6f30 333a
000002a0: 4b4a e03b 74db 7e38 5c43 043c 32ce e53b
000002b0: d063 7b38 e924 843b 1b99 dd3b f5f1 a43b
000002c0: 2247 023b 1c58 9237 2fae 153b 9b34 073b
000002d0: 9959 9137 6af6 b23a 7987 6a3a a207 2a3a
000002e0: 13a3 693c 58d0 f238 8087 753c cd82 553c
000002f0: acca f038 d955 053c 8b71 783c 5514 f63b
00000300: b43e a93b f774 4038 3558 d43b 5c24 803b
00000310: 0c05 3e38 c734 763b 0ba9 233b 46b0 bd3a
00000320: c687 be3b e495 4938 6193 9d3b 25bf dc3b
00000330: 4e86 4338 1449 483b e46e 483b b6cc f13a
00000340: ce96 093b 54e4 8a37 0c27 cb3a 122d 1b3b
00000350: 1da3 8837 aa98 a63a f419 ea3a 0119 353a
00000360: f957 db3a 8fbe 7537 61c4 bf3a 50fc cd3a
00000370: d2a1 7337 050b 843a 75cb 093b 7509 9d3a
00000380: 186d 443a feee e636 3635 6f3a 2fb4 273a
00000390: af9a e636 d0ad af39 f82b 103a 015a 273a
000003a0: 2e9a f03a 6559 7c37 59f4 003b 379f bd3a
000003b0: 5979 7b37 d078 a53a cf55 713a 4c0a d039
000003c0: 8321 053c a876 9238 c3c8 0c3c c147 953b
000003d0: 167d 9238 42fb 9a3b b502 803b 9fa5 4e3b
000003e0: 53ff 2e3c 51b0 bc38 1c64 413c 25b9 303c
000003f0: 88d5 ba38 8eb1 bf3b 65b8 343c 0920 003c

exp_avg f4 [128]
3.1449952e-05 0.0009661612 -0.0013032448 -0.007255517 -0.00024182207 0.000850411 0.0006523417 0.00061678275
0.0021553517 -2.6211626e-05 -0.0004752583 -0.0002735534 -7.884063e-05 0.0033956615 -0.004102151 0.0020754104
0.00065692223 2.957079e-05 -0.004034328 -0.00090449257 0.002096913 0.0029424739 -0.0007631991 -0.0016594239
0.0012335255 -0.0024498908 -0.0013166055 0.00082501554 0.0020159592 -0.001499678 -0.0010921181 0.002769342
-0.0018830957 0.0028762645 -0.0011936751 -0.0016300303 0.002373216 -0.0030578799 0.00016605578 0.0013209415
-0.0005737794 -0.001473135 -0.0011664643 0.00049128575 0.001108539 -0.001411742 -0.0005384743 0.0014238909
-0.0020249952 -0.0023471862 -0.0025875745 -0.0059502525 -0.002500602 0.0009158376 -0.0010305858 -0.0005440469
-0.00013831706 -0.00090359565 -0.00011006825 -0.0026676566 -0.000977493 0.0004584994 0.00029606823 0.0007188802
0.0010688135 0.0013444878 0.0018843168 0.0062624775 0.0008535842 3.815845e-05 0.0021932742 0.00028692902
0.0014257216 0.0044954135 0.0023827408 -0.00069892337 0.0008152909 0.00044697538 0.0044299085 -0.0012719906
-0.0018169926 0.0008435138 0.00095712027 0.000577347 -0.0016574323 0.0026790572 0.0015799146 0.0024061354
0.0048882067 0.0018765655 0.00057555217 5.478713e-07 0.0014864994 0.0059420583 0.0014243157 -0.0018154981
0.0029735176 -0.002403968 0.0073855105 -0.0009097774 0.001562101 0.00055596005 0.0012135908 0.00081778294
0.0008090865 1.8279183e-05 -0.0040981793 -0.00033288 0.0010887549 -0.0012261518 -0.0015238038 -0.0026235064
-0.0011734362 -0.0030122523 0.00041133628 0.0037075977 -0.0019707948 0.00035736404 0.00023708904 0.002690997
0.0009285305 0.00021581294 0.0003777682 0.0023727235 0.0013343674 -0.0010828882 0.0008844215 -0.0025723556
00000000: 21e9 0338 fb45 7d3a a4d1 aaba b0bf edbb
00000010: 9e91 7db9 1eee 5e3a e901 2b3a 97af 213a
00000020: cd40 0d3b 0ae1 dbb7 172c f9b9 b76b 8fb9
00000030: 3e57 a5b8 bf89 5e3b 566b 86bb 9c03 083b
00000040: 4e35 2c3a ca0e f837 6532 84bb 781b 6dba
00000050: 5d6c 093b 85d6 403b 6d11 48ba 0781 d9ba
00000060: 3fae a13a 598e 20bb f391 acba db45 583a
00000070: 2f1e 043b d890 c4ba 6725 8fba d97d 353b
00000080: 35d2 f6ba b67f 3c3b 1775 9cba bea6 d5ba
00000090: f587 1b3b b666 48bb 421f 2e39 7123 ad3a
000000a0: af69 16ba 3516 c1ba 0ce4 98ba a1c9 003a
000000b0: 664c 913a 330a b9ba 6628 0dba daa1 ba3a
000000c0: c8b5 04bb 40d3 19bb 4c94 29bb 56fa c2bb
000000d0: 24e1 23bb d214 703a b914 87ba 5f9e 0eba
000000e0: 3409 11b9 47df 6cba 71d4 e6b8 dad3 2ebb
000000f0: 391f 80ba bf62 f039 9b39 9b39 3c73 3c3a
00000100: 6e17 8c3a 8639 b03a 2efb f63a 7835 cd3b
00000110: 11c3 5f3a 530c 2038 09bd 0f3b f66e 9639
00000120: 47df ba3a 434e 933b c227 1c3b f437 37ba
00000130: 3fb9 553a 0558 ea39 c428 913b ecb8 a6ba
00000140: 2828 eeba 411f 5d3a 41e7 7a3a 1a59 173a
00000150: 333e d9ba 1f93 2f3b 2315 cf3a 41b0 1d3b
00000160: 402d a03b 17f7 f53a a7e0 163a 6e11 1335
00000170: a5d6 c23a 99b5 c23b 1bb0 ba3a 02f6 edba
00000180: 59df 423b e48b 1dbb 2702 f23b 217e 6eba
00000190: 69bf cc3a d9bd 113a 5a11 9f3a 7c60 563a
000001a0: e018 543a 3f56 9937 054a 86bb 6686 aeb9
000001b0: 8db4 8e3a d4b6 a0ba 5fba c7ba 22ef 2bbb
000001c0: fccd 99ba 3569 45bb 9fa8 d739 2bfb 723b
000001d0: 7328 01bb 975c bb39 1b9b 7839 705b 303b
000001e0: a168 733a d84b 6239 310f c639 b27f 1b3b
000001f0: f1e5 ae3a b3ef 8dba 86d8 673a f794 28bb

exp_avg_sq f4 [128]
3.831463e-05 0.00013013351 0.00034125496 0.0005149104 4.2544045e-05 9.094122e-05 0.00031437658 0.0001092265
0.00011183333 1.7007582e-05 0.00052420964 6.5006476e-05 3.753501e-05 0.0007190102 0.00012154146 0.00040584453
0.0002609488 9.0871115e-05 0.0004217533 4.5689736e-05 5.4374e-05 0.00024305083 6.978235e-05 0.0004631307
0.0001835412 0.00019224692 6.622883e-05 5.859003e-05 2.7529424e-05 6.0164744e-05 0.0002793569 0.0003598952
0.00022144006 0.0003417393 0.00012954487 1.3323974e-05 0.0003421223 0.001374503 9.7761746e-05 0.0016166553
7.1495786e-05 0.00036613224 0.00022868483 0.0002538602 4.8286583e-05 3.35455e-05 0.00031717136 0.00030478646
0.00036824762 0.00043020435 0.0003113639 0.0012378067 0.00049145945 0.0006996652 3.1768595e-05 4.3170483e-05
0.00013415399 0.0001327686 4.594321e-05 0.00049874955 0.00087658677 0.00035294887 2.0581263e-05 3.3045977e-05
0.00026699968 0.00016802402 0.00039354656 0.00018624419 5.4860026e-05 0.00021400227 0.00052229845 4.9605747e-05
4.275748e-05 0.0007149252 0.00027355837 0.00014109752 2.0036385e-05 1.5079884e-05 0.00027741736 0.00012475793
0.00038196822 3.2204356e-05 0.00015589218 0.00013812604 0.0005655319 0.00026766036 8.11263e-05 6.790718e-05
0.00011661715 0.0004495982 2.339986e-05 6.201473e-05 0.0001600861 0.00034913875 0.00018714157 0.00010031984
7.757761e-05 0.00031269595 0.00065595435 0.00016133545 4.475072e-05 6.049138e-05 2.4918752e-05 2.9364666e-05
0.0001502144 9.740559e-05 0.00025232157 6.310714e-05 0.00016833234 0.00048327408 0.00057726994 0.0007780603
0.00016513004 0.0001418753 0.00023489053 3.9666447e-05 0.0002735524 4.7277146e-05 0.00012795997 0.0001947005
0.00024163631 0.00023990174 5.731224e-05 0.00020388684 2.619561e-05 0.00045149485 0.00013520854 0.00017004034
00000000: 05b4 2038 7374 0839 77ea b239 0dfb 063a
00000010: 5271 3238 b2b7 be38 e9d2 a439 8810 e538
00000020: 1088 ea38 81ab 8e37 1d6b 093a 1654 8838
00000030: e96e 1d38 f57b 3c3a 13e4 fe38 88c7 d439
00000040: f4cf 8839 0f92 be38 c51e dd39 fba2 3f38
00000050: a30f 6438 76db 7e39 1d58 9238 5ad0 f239
00000060: f774 4039 e495 4939 55e4 8a38 91be 7538
00000070: fdee e637 6759 7c38 a676 9239 51b0 bc39
00000080: 5d32 6839 792b b339 70d6 0739 088a 5f37
00000090: e15e b339 ab28 b43a 7005 cd38 f3e5 d33a
000000a0: 02f0 9538 70f5 bf39 1ecb 6f39 8a18 8539
000000b0: 5387 4a38 35b3 0c38 054a a639 bfcb 9f39
000000c0: 5c11 c139 0d8d e139 8e3e a339 e73d a23a
000000d0: 49d5 003a bd69 373a 453f 0538 f411 3538
000000e0: b0ab 0c39 cd37 0b39 25b3 4038 84be 023a
000000f0: beca 653a ff0b b939 eda5 ac37 d99a 0a38
00000100: 17fc 8b39 9b2f 3039 ed54 ce39 8b4a 4339
00000110: 8119 6638 cc65 6039 dbea 083a c40f 5038
00000120: 7f56 3338 d169 3b3a 626c 8f39 94f3 1339
00000130: cf13 a837 9cff 7c37 5472 9139 74d1 0239
00000140: e842 c839 2a13 0738 fd76 2339 edd5 1039
00000150: 3440 143a c454 8c39 5a22 aa38 6469 8e38
00000160: 5b90 f438 0db8 eb39 d14a c437 e80d 8238
00000170: c9dc 2739 9c0c b739 6f3b 4439 ce62 d238
00000180: 2ab1 a238 57f1 a339 5af4 2b3a 282c 2939
00000190: b8b2 3b38 20b8 7d38 9d08 d137 2454 f637
000001a0: df82 1d39 3a46 cc38 074a 8439 6358 8438
000001b0: 5e82 3039 f35f fd39 ee53 173a bef6 4b3a
000001c0: c226 2d39 5cc4 1439 f24c 7639 865f 2638
000001d0: 956b 8f39 734b 4638 fe2c 0639 8428 4c39
000001e0: c15f 7d39 228e 7b39 8d62 7038 75ca 5539
000001f0: a5be db37 9db6 ec39 c4c6 0d39 db4c 3239
