Assets/results/RollerBall/RollerBall/RollerBall-650.pt (torch, 448159 bytes, 36 tensors)

network_body._body_endoder.seq_layers.0.weight f4 [128, 8]
000000 c5 fa a7 3e 8b fd b0 bf 6e cc 36 3f d8 fd e2 be
       0.3280851 -1.3827375 0.71405685 -0.44334292
000010 b2 3c 3e bc 92 19 04 bf ac 16 29 bf bb b6 25 bf
       -0.011611151 -0.5160152 -0.6605022 -0.6473195
000020 ea 0d 0e bf a8 4f 46 be 50 73 7b be c5 2d 87 3e
       -0.5548998 -0.19366324 -0.24555707 0.26402107
000030 fa b0 fa bd a6 02 99 3e 31 99 84 bd 31 f7 42 3e
       -0.12240787 0.29884833 -0.064745314 0.19039609
000040 85 73 3f bf fa a9 aa 3c 37 25 98 be b3 63 fe 3e
       -0.74785644 0.020833004 -0.29715893 0.4968544
000050 a4 b3 b6 3d 32 28 63 3e 0a d4 1e 3d 8e 1d 21 3f
       0.089209825 0.22183302 0.038776435 0.6293572
000060 40 f5 a3 bd fd c9 ed bd 38 b5 ab be 01 ae 81 3e
       -0.08005762 -0.11610792 -0.33536696 0.25328067
000070 db 43 c4 3d 25 69 1e 3f 67 de d3 be 43 9d 23 bf
       0.09583255 0.6187919 -0.41380617 -0.6391184
000080 14 13 c6 be a8 99 42 3f 72 f6 fa bc 9d 27 07 3f
       -0.3868643 0.7601571 -0.030635092 0.5279482
000090 22 11 72 be f2 2f 9b 3d 3f 55 e7 3e b7 0a 1a be
       -0.23639348 0.07577504 0.45182225 -0.1504315
0000a0 fe 3e 99 3e 29 ec 4c bd 23 97 93 be 68 16 59 3e
       0.29930872 -0.050029907 -0.28826246 0.21199954
0000b0 c1 02 58 be db 6b 01 3e 3d 09 a0 be 57 6d 0e 3e
       -0.210948 0.126388 -0.31257048 0.13908897
0000c0 29 9c 9b 3e ce 29 6c 3f 04 a3 63 bf 4e 90 e0 be
       0.30392578 0.9225129 -0.8892062 -0.43860096
0000d0 44 28 87 be 8a 40 26 3f fe 54 7e 3c 31 29 1d bf
       -0.26397908 0.6494223 0.015523193 -0.6139098
0000e0 7e f3 1f bf c1 13 de 3d 49 5c 53 bf b7 de 1c bd
       -0.62480915 0.108436115 -0.8256269 -0.038298335
0000f0 56 f2 3c 3f ec 32 9c be eb 40 98 3e 3c d6 53 be
       0.73807275 -0.305076 0.29737028 -0.20687193
000100 15 9b dd be a5 75 b5 be 48 e6 f4 be 30 67 85 3e
       -0.4328238 -0.35441318 -0.4783194 0.26055288
000110 a3 b8 0e 3f df 1e 6b 3d 95 57 91 3e 34 53 cd 3c
       0.55750483 0.057402488 0.28387132 0.025064088
000120 de 3a b1 be f2 18 45 be f8 68 93 3b ba 8a 95 3e
       -0.34615225 -0.19247797 0.0044985972 0.29207402
000130 54 26 15 3f ff 00 88 be 14 66 d0 3c ce 12 da bd
       0.5826161 -0.2656326 0.0254393 -0.10648118
000140 2b 50 aa bd 16 33 56 be 59 cf 33 be 5c e4 b3 3e
       -0.08316072 -0.20917925 -0.17559566 0.35135162
000150 9b d8 6f bd 3f 84 2f bc 51 2c 95 3e 24 51 8b 3d
       -0.05855618 -0.010712682 0.29135373 0.06802586
000160 c8 a2 87 3e c3 e1 07 bf d7 e6 29 bf c2 cc 01 bf
       0.2649138 -0.5307886 -0.6636786 -0.5070306
000170 e2 a1 46 3f 3b 04 d5 3e ea 9b 23 bf e0 70 83 be
       0.77590764 0.4160479 -0.6390978 -0.25672054
000180 55 ce 6c 3c 0e 57 a6 bd ee a8 95 3e 1e bb d9 be
       0.01445349 -0.08122073 0.29230446 -0.42525572
000190 a6 4b 4e bf 23 68 1c be 3e 1b 05 bf 89 9e 63 bf
       -0.8058418 -0.152741 -0.51994693 -0.8891378
0001a0 e9 9b bf be 1a 3c 41 3f 63 e9 e0 3d 84 4c f2 be
       -0.37423638 0.7548233 0.10982015 -0.47324002
0001b0 2d be 62 3d 34 e8 90 3e c2 27 f5 be 05 26 0a 3e
       0.055357147 0.28302157 -0.47881895 0.13491066
0001c0 36 5f 9a be fb 95 be be f7 f6 3c bf 23 af 97 be
       -0.30150765 -0.372238 -0.7381434 -0.29625806
0001d0 91 7e 0b 3d da 25 0b 3e d1 46 b2 bd f3 14 2f 3e
       0.03405625 0.13588658 -0.087049134 0.17097835
0001e0 8b 13 fc be 14 19 b9 be 33 17 ab bd fe 29 4a 3e
       -0.4923366 -0.36151946 -0.08354034 0.19742581
0001f0 9d 89 15 bd 09 c9 f3 3c d3 c0 21 be fd d5 e0 be
       -0.03650819 0.029758947 -0.15796213 -0.4391326
000200 a3 9f ae 3d 8f aa 1b 3e 84 b5 ad 3e e0 52 a8 3e
       0.08526542 0.15201782 0.33927548 0.3287573
000210 c8 dc 17 3f c2 46 a8 bb 34 75 74 3e 85 a4 15 3f
       0.5932126 -0.005135388 0.23872834 0.5845416
000220 8b 01 2e 3f 1b 64 a9 be d7 bc cf be 95 05 3d be
       0.67971104 -0.33084187 -0.4057376 -0.1845916
000230 d9 c1 3f bf 6a 96 be bd 22 f6 3f 3d 4c 7e a6 be
       -0.74905163 -0.09306033 0.04686559 -0.32518232
000240 b3 7e 0b bf d9 29 82 3d 04 92 f7 bd aa f5 bb 3e
       -0.544902 0.06355638 -0.12088397 0.36710864
000250 f5 46 2a be 0f 0c 14 3f 92 2f e0 3e 2e 08 11 bf
       -0.1662863 0.578309 0.43786293 -0.56653106
000260 32 a2 00 be e6 56 c4 be 10 56 63 be 4c 01 6a 3e
       -0.12561873 -0.38347548 -0.22200799 0.22852057
000270 6f d7 80 bd b7 f5 6b be e4 4b 07 bf 14 ea 1f be
       -0.06291091 -0.23042952 -0.52850175 -0.15616637
000280 23 bf 54 3d e7 af 2d bf 5a f4 a2 3e 65 0c 83 3e
       0.051940095 -0.6784653 0.3182705 0.25595394
000290 d1 45 8d bc ea 99 85 bd ab 21 88 3e 66 69 c4 bb
       -0.017245205 -0.065234974 0.26588187 -0.00599401
0002a0 52 82 f6 3d 90 a8 98 bd 2c 0e eb be ac 1e 2c bf
       0.120365754 -0.07454026 -0.4590925 -0.672343
0002b0 3a c8 ee 3e 01 3c 54 3f 7f c1 e5 3e 7c bb 1c bd
       0.46637136 0.8290406 0.44874188 -0.038264737
0002c0 f5 14 61 3f ce e3 a2 3e 3d c8 53 be 5c ae 65 be
       0.879226 0.31814426 -0.20681854 -0.22429794
0002d0 74 1a ed be c9 01 24 bf 1b 2b 3a be de d0 b9 be
       -0.46309245 -0.64065224 -0.18180506 -0.36292166
0002e0 91 08 09 bd f0 b3 0b bf c9 3e 3e 3e 68 cf d9 bd
       -0.033455435 -0.5457144 0.18578638 -0.10635263
0002f0 cd 00 d5 bd be 7f c0 3e 12 05 e4 3d 80 76 4e be
       -0.10400543 0.3759746 0.111337796 -0.20162392
000300 a6 16 21 bf 98 df 00 3f 92 a4 9d 3a 77 9d 33 bf
       -0.62925184 0.50341177 0.0012027195 -0.7016215
000310 e0 ae 4b 3d b1 72 42 be 43 bb 87 be d3 69 32 be
       0.04972732 -0.18989064 -0.26510057 -0.17423181
000320 b3 da 8e be 2b 37 c6 3e ca 0e ba bd de fe 13 3e
       -0.2790123 0.38713965 -0.09084852 0.14452693
000330 89 3b 7e be 13 77 c0 3c 15 34 7e 3e fd 16 d9 3d
       -0.24827398 0.023494279 0.24824555 0.10600088
000340 e6 e7 9b 3e bd 61 62 be a3 14 97 3d 07 23 52 3e
       0.30450362 -0.22107597 0.07376983 0.20521174
000350 86 cd 20 3f f6 e6 bc 3d a9 6a 81 be 67 9d 38 be
       0.62813604 0.0922374 -0.25276688 -0.18028794
000360 af 49 a7 3e 54 63 9b 3c c2 12 f8 3e f9 3b 9f 3e
       0.32673404 0.018968262 0.4845181 0.31100443
000370 29 42 74 be 00 2e 06 bf 5e e3 78 be d8 6c 04 3f
       -0.23853363 -0.5241394 -0.24305484 0.5172858
000380 21 c9 0d bf 5c 11 90 bc 33 21 0a be 1e 9e d2 be
       -0.55385023 -0.017586403 -0.13489227 -0.4113626
000390 5d 50 85 be cc c6 3a 3d 5a 46 d8 3e 94 f3 87 3e
       -0.26037875 0.045599744 0.42241174 0.26553023
0003a0 50 6f 0d bd 49 ba e5 3d ce 66 18 3f a6 e1 0c 3e
       -0.034529984 0.11217172 0.5953187 0.13757953
0003b0 26 3f 46 3e d3 3a fb be 3d c3 fc 3d 93 26 0d bf
       0.19360027 -0.49068317 0.12341926 -0.55136985
0003c0 fd 2e bc be 66 ab 29 be 15 36 23 3c 9f 5d 89 3e
       -0.367546 -0.1656929 0.009961625 0.2682924
0003d0 1e bd 0a 3e 36 d3 08 3f 66 cc 7f be 64 02 bb 3e
       0.13548705 0.5344728 -0.24980316 0.3652526
0003e0 02 3c 1b 3f 12 0c 16 bd b4 3d 8e be 69 44 f2 3e
       0.6063844 -0.036632605 -0.2778145 0.47317818
0003f0 52 cd 49 be ce 85 9a 3e 59 44 79 be db df 01 3d
       -0.1970723 0.3018021 -0.24342479 0.031707626

network_body._body_endoder.seq_layers.0.bias f4 [128]
000000 ab 79 a6 bb 09 19 65 b9 eb b0 b5 ba c5 e3 a6 bb
       -0.005080422 -0.00021848468 -0.001386193 -0.00509307
000010 5a a7 8f ba ff f4 19 bb 83 75 e7 bb 9e 6f 37 39
       -0.0010959909 -0.0023491976 -0.007063569 0.0001749382
000020 44 0f 94 bb 3d 69 d2 38 cd 85 d4 b9 72 5e 6d 3a
       -0.0045184214 0.000100331825 -0.0004053548 0.0009054906
000030 4d 14 e3 bb 00 70 bc 3a 09 2e aa b9 c0 80 15 39
       -0.0069299103 0.001437664 -0.00032459226 0.0001425771
000040 e7 cc 39 bc 6c 16 11 bc 9d c1 16 bc 6d 62 3f bb
       -0.011340356 -0.008855443 -0.009201434 -0.0029202953
000050 c8 3b 51 ba 98 36 88 bb 72 49 f6 3a 64 03 7e 3a
       -0.00079816254 -0.0041568987 0.0018790199 0.00096898363
000060 0d d5 86 bb 89 2a b6 38 a8 71 cb ba 75 6d 73 bb
       -0.004114753 8.686359e-05 -0.0015521543 -0.00371441
000070 37 f3 62 39 4d 91 e4 3b da 59 db 3a f4 54 0b 3c
       0.00021643644 0.006975329 0.0016735152 0.008504141
000080 50 f8 ca 3a fc ef a3 3b 14 17 05 bc ef 8b ab bb
       0.001548538 0.0050029736 -0.008123178 -0.0052351872
000090 5e fa 33 bb 30 ad 00 bb 1b df 05 bb c0 34 be bb
       -0.0027462463 -0.0019634478 -0.002042717 -0.005804628
0000a0 8b 92 ef 3a 71 23 2c bc 19 08 3e bb 3d 72 bf ba
       0.0018277926 -0.010506497 -0.0028996526 -0.0014606189
0000b0 87 3b 86 3b 3d 4a 21 ba e7 78 8a ba 17 85 48 ba
       0.0040964517 -0.0006152725 -0.0010564596 -0.00076492265
0000c0 23 28 d5 b9 49 3c 4a ba f5 1a 93 3b 98 45 f1 ba
       -0.0004065643 -0.00077146717 0.0044892975 -0.0018407581
0000d0 63 75 83 bb 44 33 80 3a c8 29 36 ba dc 82 a9 ba
       -0.0040117963 0.0009780903 -0.0006948975 -0.0012932676
0000e0 b3 80 4a 3a 32 03 77 3b e5 4b 46 ba 47 60 a3 bb
       0.0007724866 0.0037691114 -0.000756441 -0.0049858424
0000f0 30 92 2f 3b dd 9f 6d ba e4 36 a9 ba 9f 14 81 ba
       0.0026790015 -0.0009064654 -0.0012910035 -0.0009848065
000100 8d d3 c9 3b 7a 75 97 ba 4e 52 26 3a 05 7a f3 ba
       0.006159252 -0.0011555396 0.0006344662 -0.0018575793
000110 10 10 e1 3b 92 94 ea 3a d7 85 2a bc 2a db ab ba
       0.00686837 0.0017897061 -0.0104078865 -0.0013111581
000120 4b a8 95 bb f8 3f 1e ba 6e 68 40 bb 04 50 80 3b
       -0.004567181 -0.0006036754 -0.002935912 0.0039157886
000130 0f 4f 50 3b d9 1d 87 ba e3 cd c0 b9 57 44 95 b9
       0.0031785404 -0.0010308578 -0.0003677449 -0.00028470412
000140 fc c5 70 3b 05 0e e6 b9 66 39 6a bb dd 67 c0 bb
       0.0036739102 -0.00043879464 -0.0035739779 -0.0058717565
000150 d2 2d 61 3b 59 90 79 3b 40 9a 9a 3b 8d 7d de 3a
       0.0034359586 0.0038080423 0.004718095 0.0016974673
000160 6c d9 3b 3a 6c 83 51 bb f7 ce d8 ba 27 23 95 bb
       0.0007165882 -0.0031969203 -0.0016541173 -0.0045513096
000170 6b 5d e2 ba 47 00 75 bb 71 75 5d bb 02 d0 d9 bb
       -0.0017270272 -0.0037384199 -0.0033791924 -0.006647111
000180 6b 08 26 bb 84 24 a4 ba 81 1a b4 3b 36 c9 d4 3a
       -0.0025334607 -0.001252309 0.0054963236 0.0016234282
000190 28 2f 12 3b 3a 78 7f 3b 4d 5f 2b bb 73 34 d2 b9
       0.002230594 0.0038981573 -0.0026149333 -0.000400934
0001a0 4e 11 b4 bb 6b f5 e9 ba d2 24 90 3b 3d 10 9d bb
       -0.005495227 -0.001784963 0.0043989206 -0.0047931955
0001b0 7a 6c 9e bb f4 64 45 bc c7 d1 05 3a 8d 0a 44 bb
       -0.0048347088 -0.012047995 0.00051048066 -0.0029913515
0001c0 0c d5 81 ba 43 13 e3 3a 01 a9 d9 ba 74 d6 67 bb
       -0.0009905412 0.0017324466 -0.0016606153 -0.0035375627
0001d0 09 40 eb 3a 21 38 5b 3a 14 4f b9 bb 3e 4d ee 3a
       0.0017948161 0.0008362551 -0.005655179 0.0018180979
0001e0 de 1d 47 3b 94 1d 94 3a e4 05 ad ba 91 24 1a ba
       0.0030382792 0.0011300319 -0.0013200608 -0.00058800826
0001f0 bd e2 07 3b 59 51 a8 3a ef 19 d8 ba 34 f1 1f bb
       0.0020734512 0.0012841626 -0.0016487221 -0.0024405243

network_body._body_endoder.seq_layers.2.weight f4 [128, 128]
000000 b6 8c cf 3d 24 0e a5 3c 53 ce 6f 3b 71 3c 1f 3d
       0.1013426 0.020148344 0.0036591485 0.038876
000010 92 e2 e3 3a 82 52 cf bd 72 44 ea bb d4 d2 e9 3d
       0.0017386249 -0.10123159 -0.0071492726 0.114171654
000020 95 bc 91 bc 72 bb ab 3b 18 c5 64 38 0e b7 83 3d
       -0.017790118 0.005240851 5.4542994e-05 0.06431399
000030 44 3d 38 bd dc b0 5e bd 65 6f 74 be 8c 2c 1d be
       -0.044980302 -0.054367885 -0.23870619 -0.15349025
000040 c4 ee 48 3d 32 1e 1a 3d f0 56 6d be 52 22 18 be
       0.04905583 0.037626453 -0.23177695 -0.14856842
000050 d8 77 04 3e 5c b8 dc 39 51 52 4f 3d 20 4c ad 3d
       0.12936342 0.00042099028 0.050615612 0.08461785
000060 f2 60 9d bd 42 ab 9f 3d 5b 3b 0e bc 41 d2 9a 3d
       -0.076845065 0.07796337 -0.008681144 0.07559634
000070 e0 10 4e bd 8f 56 cb 3d 14 f7 ce 3d 81 ec a2 bd
       -0.050309062 0.09928619 0.1010572 -0.07955266
000080 42 a9 89 bb c1 d7 b5 3d 27 c0 e2 3d 64 cf 16 bd
       -0.0042010853 0.088790424 0.110718064 -0.036818877
000090 f8 44 9c 3d c7 f6 8a bd 3c 41 38 bc 27 32 16 3e
       0.07630342 -0.0678535 -0.011246022 0.14667569
0000a0 83 33 df 3d 6f da cd bd 07 1f 84 39 02 15 ee 3d
       0.10898497 -0.100514285 0.0002520012 0.11625101
0000b0 fe 38 4d bd 15 dc 94 bc 92 e2 77 bd 17 80 92 3d
       -0.05010318 -0.01817135 -0.06051881 0.071533374
0000c0 19 c4 87 bd a2 21 b9 bd 14 00 b2 3d c5 83 aa 3d
       -0.066291995 -0.09039618 0.08691421 0.08325914
0000d0 e9 2b a9 bb 5e cc 18 bd 95 3f a2 bd ea 55 05 bd
       -0.005162705 -0.037304275 -0.079222836 -0.032552637
0000e0 97 82 09 3e 73 56 a3 bd ea b7 8b 3d 1f 4c 37 bd
       0.13428722 -0.07975473 0.06822188 -0.04475033
0000f0 e2 aa 52 be d8 a5 2f 3d 49 5d 46 bc c6 37 c8 3d
       -0.20572999 0.04288277 -0.012107202 0.09776263
000100 9d 0c 10 bd 96 e2 f8 bc 5d d6 3c 3e e1 54 6b bd
       -0.03516828 -0.030381482 0.18441148 -0.057453994
000110 c3 bb a2 bd a4 63 90 bd 4f 6a 7e bd aa 78 25 3d
       -0.07945969 -0.07050255 -0.062113103 0.040398277
000120 17 87 49 bb 6e 38 c6 3d 8e 67 de 3c e7 99 18 3e
       -0.0030750686 0.09678732 0.027148988 0.14902459
000130 56 c0 ee bd 73 90 a1 3d 11 7f e6 3c 75 25 86 bd
       -0.11657779 0.078888796 0.028136762 -0.06550113
000140 90 a6 7a 3d 28 0f d2 bc c6 e3 a8 3c 72 9a 20 be
       0.061194003 -0.025641993 0.020616423 -0.15683916
000150 a3 b5 e9 bc 94 9b de bd c1 1e 0b 3c fd 01 64 3d
       -0.028528994 -0.10869518 0.008491219 0.05566596
000160 11 1c 87 3d ba 0e ec 3c 49 e1 31 3c b5 2d 7a 3d
       0.0659715 0.028815616 0.010856935 0.061078746
000170 96 c9 3f be 9b f2 01 3e fc f6 95 bd e9 e0 d4 bc
       -0.18729243 0.12690203 -0.07322499 -0.025986152
000180 b7 22 35 bd dc cc f9 3c c2 32 59 be 50 99 0d 3b
       -0.04422256 0.030493192 -0.21210769 0.0021606274
000190 87 f9 07 3e 2b 97 71 3d 18 30 c8 b9 c3 13 a9 bd
       0.13278781 0.058982056 -0.00038182805 -0.082557224
0001a0 d5 ac 31 3d 15 d3 a3 bc ef be 14 3d a6 ec a3 3d
       0.043377716 -0.019998113 0.0363149 0.080041215
0001b0 00 0f 11 bd 3d a2 7d bd 1e 06 45 bd dc 2a 7b 3d
       -0.035414696 -0.0619223 -0.048101537 0.06132017
0001c0 e2 68 ec 3c 8a da 87 3d e5 d7 3c be 43 d5 3b 3d
       0.028858606 0.0663348 -0.18441732 0.04585768
0001d0 a1 e4 f0 ba 34 5f 45 3c 27 35 97 ba 67 b6 62 3e
       -0.0018378684 0.012046624 -0.0011536226 0.22139893
0001e0 21 e2 4b be 3d 4b 80 3d 1b 75 8e bd c5 e1 bc bd
       -0.1991048 0.062643506 -0.0695593 -0.092227496
0001f0 05 08 a6 3d de b7 96 bc 3b 84 23 3d f6 57 53 bd
       0.08106998 -0.018398222 0.039921027 -0.051597558
000200 9b 51 ab bd 26 3c a0 bd b1 ec 41 3e 07 c2 1c bd
       -0.083651744 -0.078239724 0.18937947 -0.038270976
000210 26 2a 1d 3e 14 64 19 3d 13 8e 88 38 5e 8e 77 bd
       0.1534811 0.037448958 6.511449e-05 -0.060438506
000220 3d 63 d3 3d 6f 04 3a be 4d 5b 40 bd 6c 25 d5 3c
       0.103216626 -0.18165754 -0.04696207 0.02601882
000230 c8 87 b1 3d 40 73 5e 3d 48 d3 de bc b0 34 9a bd
       0.08668476 0.05430913 -0.027200356 -0.075295806
000240 7a 91 7f 3d 7a 25 09 3d ab fe ee 3c 89 46 2b 3e
       0.062394597 0.033483006 0.02917417 0.16726126
000250 de 14 4f bc a0 0a a2 3d 6a 73 be 3d 42 24 21 bd
       -0.0126392525 0.07912183 0.09299357 -0.03934122
000260 25 fc 4e bd ee 4b 3b 3c 68 d1 39 bb 46 fd 95 3d
       -0.050533433 0.011431677 -0.0028353576 0.07323699
000270 2c 2e 5f 3d af 14 73 bd c2 35 64 3c ed 62 9c 3b
       0.054487392 -0.059345897 0.0139288325 0.004772535
000280 55 60 bc 3d 28 a4 6a 3e 90 ba c3 3c 5a c8 4f 3b
       0.091980614 0.22914183 0.02389267 0.0031705112
000290 e5 56 99 bd 02 0a 95 bc 9a 2b c3 3d 2a 18 91 bd
       -0.07487277 -0.018193249 0.09529801 -0.07084687
0002a0 1f 6b 9b 3d 56 8a 4b 3d 8d 5e 53 ba 8f aa ab bd
       0.07588791 0.049692474 -0.00080631004 -0.08382141
0002b0 79 61 08 be 3e 04 16 3d e1 67 da bd d4 b6 e5 bb
       -0.13318433 0.03662514 -0.106643446 -0.00701032
0002c0 30 a4 f9 3a 0b 2c 1a be 12 d1 14 3e 5e 63 9b 3d
       0.0019046124 -0.15055864 0.14532879 0.07587312
0002d0 69 a4 9c 3d f0 bc 88 bd 87 3c 63 bd 01 24 53 3d
       0.07648546 -0.06676662 -0.055477645 0.051548008
0002e0 a1 3b c6 bd 1d 5f a2 3d 4c 9c 12 3e 1b ce 00 bd
       -0.09679342 0.07928298 0.14317435 -0.031446557
0002f0 05 06 b7 bc 1b 53 7e bd 2f f8 3c bd 96 ab c9 3c
       -0.022341738 -0.062090974 -0.046135124 0.024617951
000300 c0 16 11 3e 39 57 59 bd 37 a4 8a bd 70 ac d4 bc
       0.14168835 -0.053061698 -0.06769603 -0.02596113
000310 fa 5b 06 3e 12 7c 12 bd d4 ac 23 3e 0d a2 5c 3d
       0.13121024 -0.035762854 0.15983897 0.05386548
000320 95 31 2e 3d d2 55 a0 3d e2 b9 29 3d 1f ef 7b bd
       0.042527754 0.07828869 0.041437037 -0.06150734
000330 96 1a b6 3c 42 14 b0 3d f1 13 2a 3d 7c e2 97 3b
       0.022229474 0.08597614 0.041522924 0.0046351533
000340 92 33 95 bd 16 38 79 bb d6 40 3c 3e ed f8 c4 bd
       -0.07285227 -0.0038027815 0.18384108 -0.09617791
000350 86 1c eb 3d 76 a5 41 3c e4 6b c3 3c 99 4e 98 3c
       0.1148005 0.011819234 0.023855157 0.018592166
000360 40 bb 60 3d ac a9 e9 3d f4 e4 e1 bc 9e 90 ab 3c
       0.054866076 0.114093155 -0.027574994 0.020942982
000370 3f a8 a8 3d 12 22 d3 3c a3 17 88 bd 8a 90 07 bd
       0.082352154 0.025773082 -0.06645133 -0.033096828
000380 91 24 bd bc 11 b3 a0 3d 22 bb 5b 3d 79 11 24 3b
       -0.023088725 0.07846654 0.05364526 0.0025034829
000390 c2 30 0e bc fa 29 39 bd 6a f3 09 be d5 ac 93 3c
       -0.008678617 -0.045206048 -0.13471761 0.018026749
0003a0 ec 32 2a bc ec 66 cc bd ec c8 27 3e 85 ab a0 bd
       -0.010388117 -0.09980568 0.1638524 -0.07845215
0003b0 23 45 25 3e e6 00 8a 3d 7d 1e 97 3d 8e e5 07 be
       0.16139655 0.067384526 0.07378862 -0.13271162
0003c0 3a 70 95 3c a4 a9 f6 3b 6a 9a ec bd a8 f5 af 3b
       0.01824199 0.007527547 -0.1155289 0.0053698607
0003d0 e3 2b fb bd 00 3d 9e bc da 79 8f 3c e7 33 20 3d
       -0.1226423 -0.019316196 0.017514158 0.039111998
0003e0 ce 26 c9 3d ea 36 b2 bb 33 a4 8c 3d 02 c9 d0 3d
       0.098218545 -0.005438675 0.06867256 0.10194589
0003f0 d6 46 64 3d 05 c2 0a 3e 5a 18 63 3d 94 1d c4 bc
       0.055731617 0.13550575 0.055443145 -0.023939885

network_body._body_endoder.seq_layers.2.bias f4 [128]
000000 ab 87 84 3b 59 43 a8 38 dc 08 dd ba 1f 59 7a 3a
       0.004044493 8.023409e-05 -0.0016863602 0.0009550023
000010 79 fc 3c 3b f3 e5 e8 3a db 31 a0 3b 03 6a f4 3b
       0.002883701 0.0017768726 0.0048887557 0.0074589266
000020 ed ac 14 3a c6 71 13 bb 1e 1d 98 ba 6e 06 0e 3b
       0.000567152 -0.0022498234 -0.0011605357 0.0021671313
000030 c1 3c 62 3a 0a 54 5e bb b0 50 a0 3a 42 2c e3 ba
       0.0008630269 -0.0033924603 0.0012231078 -0.0017331915
000040 72 7f 9e 3a ef 86 f6 ba 5a 39 30 bb 2c da 00 bb
       0.0012092425 -0.0018808524 -0.0026889653 -0.001966129
000050 c4 2f e5 bb 30 dc bb ba 24 8c e9 ba 19 25 58 ba
       -0.0069942195 -0.0014332589 -0.0017818254 -0.0008245274
000060 c7 fd 97 3b fd 8d 21 bb f0 97 a9 ba fe 1c 9d b9
       0.004638407 -0.0024651282 -0.0012938958 -0.00029966974
000070 4a 77 05 3c 8c 99 96 3a 5d ed 67 ba ac 8d b2 3a
       0.0081461165 0.0011489852 -0.00088473206 0.0013622544
000080 e1 08 80 3b d2 4b 5b bb cf eb f7 bb 60 bd aa 3b
       0.0039073084 -0.003346194 -0.0075659524 0.0052105635
000090 ac 35 19 bc ab 3b 00 3b a5 2a 0d 3b 82 6b b2 ba
       -0.009351175 0.0019566815 0.002154031 -0.0013612362
0000a0 02 38 6a 3b 71 0c c2 ba 9b c8 05 3b 70 cd 32 bb
       0.003573895 -0.0014804733 0.002041376 -0.0027283095
0000b0 66 e1 51 bb 8a d8 8a ba 91 97 66 3b 73 4e 0b 3b
       -0.0032025217 -0.0010593098 0.0035185555 0.0021256476
0000c0 a0 19 a7 bb 7c 2e 11 bb 55 78 5e ba 3a 2a ca b9
       -0.0050994903 -0.002215295 -0.0008486559 -0.00038559904
0000d0 39 56 04 bb a7 c4 5e bb 27 29 48 b9 3f 0f 37 3a
       -0.0020192994 -0.0033991726 -0.00019088817 0.0006983168
0000e0 0e a9 ca 3b 7c d6 8b 38 47 2a 11 bc 3d 80 65 bb
       0.0061847037 6.667987e-05 -0.008860177 -0.0035019063
0000f0 21 5c 61 3b 09 98 39 39 8b 50 60 bb e6 70 b6 ba
       0.0034387188 0.00017699612 -0.0034227695 -0.0013919144
000100 07 75 52 bb ab 0e 00 3b 73 12 89 bb 6a 62 68 bb
       -0.003211321 0.0019539993 -0.0041831075 -0.003545905
000110 2c ce 2c 3b ac f9 42 bb f3 59 15 b7 25 62 6d bb
       0.0026368005 -0.0029750867 -8.902035e-06 -0.0036221829
000120 cd 7d 6b ba 93 0b 0f 39 2a 18 e4 ba c1 5d df 3b
       -0.00089832844 0.00013641854 -0.0017402221 0.0068165963
000130 f2 c0 aa bb 96 1d bb ba ac e2 e3 bb 79 c1 5d 3b
       -0.005210989 -0.0014275785 -0.0069545116 0.0033837243
000140 eb de f5 ba 09 85 6d ba 00 ee f2 b9 fe 4f 6e bb
       -0.0018758451 -0.00090606563 -0.0004633516 -0.0036363597
000150 df 48 16 39 e7 1e 70 b9 1d 8e 2f bb 6a 3d 3b 3a
       0.00014332261 -0.00022899696 -0.0026787587 0.00071426353
000160 4c c8 48 3b 88 44 00 3a c5 60 29 bb 0c c7 f7 ba
       0.0030636964 0.00048930245 -0.0025845033 -0.0018903925
000170 27 85 fd 3a 71 6f 78 ba b0 7c 00 bc 82 fc 3d b9
       0.0019342051 -0.0009477055 -0.007842228 -0.00018118511
000180 fb 33 50 bb c2 4b ee b8 e5 e3 17 3b 30 4d ba bb
       -0.0031769264 -0.00011362835 0.0023176607 -0.005685471
000190 db 2f 8b 3b 48 b7 83 bb 48 7b 5f bb f5 2b af 3a
       0.004247648 -0.0040196516 -0.003410058 0.0013364541
0001a0 50 70 7e b9 04 f3 1a 3c 34 b3 ee ba 1d fa 07 bb
       -0.00024265167 0.0094573535 -0.0018211366 -0.0020748444
0001b0 1d d5 00 bb d2 5e 53 bb a2 b6 36 3b 05 41 2e bb
       -0.0019658275 -0.0032252562 0.0027879854 -0.0026589048
0001c0 ae 52 02 38 da db c9 ba 0d 85 68 3b 27 46 6a bb
       3.1071417e-05 -0.0015400604 0.0035479695 -0.003574738
0001d0 ed 2f 92 ba 72 33 fa 39 b1 2d b8 bb bb 58 06 3b
       -0.0011153199 0.00047722046 -0.005620681 0.0020499665
0001e0 2f e0 40 3a 5a 93 68 ba 8e fe 9c 3b 35 e5 08 bb
       0.00073576247 -0.0008872055 0.0047910875 -0.002088857
0001f0 10 b4 39 3a 8a db e6 ba 4c 2a a8 3b 9c c8 bd 3a
       0.00070840213 -0.0017613035 0.0051319953 0.0014479342

action_model._continuous_distribution.log_sigma f4 [1, 2]
000000 0e a2 64 bb 7c e7 9d b9
       -0.0034886631 -0.00030117843

action_model._continuous_distribution.mu.weight f4 [2, 128]
000000 a3 c2 47 3d 63 8f 3c 3b 6f 52 14 bc ec f4 2c 3d
       0.048769604 0.0028771989 -0.009052857 0.042225763
000010 2b 78 4f 3c 52 00 37 3c f8 e8 d4 3c 92 20 02 3b
       0.012662928 0.01116951 0.025989994 0.001985584
000020 94 a1 8c bc 55 a6 a4 bc eb 78 75 bc 6d c1 dd bb
       -0.01716689 -0.020098845 -0.014982442 -0.006767443
000030 a6 39 f7 3c c8 8a 1d bd e4 82 c6 39 cf d1 54 bc
       0.030178856 -0.03846243 0.00037863024 -0.012989475
000040 84 a9 a8 3c 0d d3 f6 3a 2e a3 ce bc f0 e4 58 bb
       0.020588644 0.0018831209 -0.025224295 -0.0033095442
000050 0d ac 12 bd a5 3f b3 3b b9 2e 0b bd 08 e7 0d 3c
       -0.03580861 0.0054702335 -0.033980105 0.008661039
000060 10 54 99 3c e1 5c cf bb 3d 44 95 3b 87 9d 1f bd
       0.018716842 -0.0063282107 0.004555254 -0.03896859
000070 ea a7 8c 3b d3 47 f1 bc 0d 68 97 3b b2 02 1f 3c
       0.004292478 -0.029453194 0.004620558 0.009705232
000080 22 19 dd 3c fa 8f 37 bc 7b 3b cf bc 11 9b 9a 3c
       0.026989523 -0.01120376 -0.025296917 0.01887277
000090 68 42 d6 bb 0f 06 86 3c 16 84 83 bc fb 63 9b 3b
       -0.006538678 0.01636031 -0.016054194 0.004742143
0000a0 65 46 88 3c 9e ad 80 3c ec e0 8b 3c 57 2a d2 bc
       0.01663513 0.015707787 0.017075025 -0.025654955
0000b0 41 fd 62 bc ec d6 84 3c 5c f5 c3 3c 75 88 8c 3c
       -0.013854326 0.016215764 0.023920707 0.017154912
0000c0 57 a0 44 bc e9 1f 08 bd 9d a1 ee 3c 04 32 a0 ba
       -0.012001119 -0.033233557 0.029129798 -0.0012221937
0000d0 7f 93 71 bb 27 80 a0 3c 87 95 7b 3b 40 ad 18 3c
       -0.0036861596 0.019592358 0.0038388686 0.00931865
0000e0 aa 0a 14 3b b5 fe 31 3c d9 a5 00 bc 05 d5 4e bb
       0.0022589364 0.01086395 -0.007852041 -0.0031560075
0000f0 10 5c 35 bb 3b 76 00 3c f1 fd 00 bd 82 6f 71 bb
       -0.0027673282 0.007840688 -0.031492177 -0.0036840145
000100 26 3b 4e b8 8c a9 08 3d 77 24 68 bc 55 aa 0a bd
       -4.9169314e-05 0.033364818 -0.01416885 -0.033853848
000110 09 31 c2 bb 0b 45 0b 3c 69 ed 11 3c 5f 17 90 bc
       -0.0059262556 0.008500348 0.008906701 -0.01758927
000120 51 cf 86 bb a7 90 fc bb 8b 57 be bc 87 15 d3 3b
       -0.0041140695 -0.0077076736 -0.023235103 0.0064417752
000130 b8 c6 23 bc a8 56 0e bd 32 3c 14 bc e9 91 fd 3c
       -0.009996109 -0.03475061 -0.009047555 0.030953364
000140 df 98 1d bd 17 23 cd bc 5c 66 b0 3b 04 47 8e bb
       -0.038475867 -0.025041146 0.005383296 -0.004341962
000150 cb 38 06 3c ee bd 33 bc 60 1e 27 3b 6c ea c1 3c
       0.008192251 -0.010970576 0.0025500283 0.023671351
000160 43 0b 1f 3c e8 0e f4 3c 2d a4 03 bc 74 e4 a6 3c
       0.009707275 0.029792264 -0.008034748 0.020372607
000170 5c 3a db 39 5a 0f 3a 3b 1c 8f 40 bc 0f d4 d9 3a
       0.00041814416 0.0028390498 -0.01175287 0.0016618985
000180 a2 bd a8 bc 4f f3 2e bc 62 23 19 3c 97 7b 49 bc
       -0.020598236 -0.0106781265 0.009346815 -0.0122975325
000190 58 34 f4 3c 40 91 38 bd 44 ba 2b bc 2d 12 61 bc
       0.029810116 -0.045060396 -0.010481421 -0.013737244
0001a0 40 4c b1 3b 20 e2 5a ba cb 5b 03 3b e1 87 ce 3a
       0.005410701 -0.0008349735 0.0020043727 0.0015757048
0001b0 46 60 e6 3c 3a e3 22 bc f6 38 43 3b a0 da e7 3b
       0.028122079 -0.00994187 0.002978859 0.0070756227
0001c0 9f 21 a2 3c c8 07 cd 3b b2 6b 3f 3c dd c8 83 bc
       0.019791422 0.006257031 0.011683391 -0.01608699
0001d0 b1 55 13 bb ca 11 1d 3c 07 18 2a 3c 4f 5f 9f 3b
       -0.0022481496 0.009586761 0.010381705 0.0048636566
0001e0 a4 01 50 3c d9 36 4c 3c 20 be d7 bb a9 f9 87 3b
       0.012695704 0.012464249 -0.006583944 0.004149635
0001f0 a1 c8 67 3c 53 68 31 ba ea 4a 39 3c 91 da 28 3c
       0.014146955 -0.00067675597 0.011309365 0.010306017
000200 25 d0 a2 3c 59 33 94 3a 00 78 3c 3c 92 ae 95 3b
       0.019874642 0.0011306807 0.01150322 0.0045679295
000210 df 11 54 ba 61 fd 93 39 26 57 04 3c 5f 57 8f bc
       -0.0008089821 0.00028226807 0.008077418 -0.017497716
000220 c8 d4 e0 3b f4 6e 5a bc 4a 4c b4 bb c2 0b 28 bd
       0.006861303 -0.013332117 -0.0055022584 -0.041026838
000230 4f 32 7c 3a 6b ae 79 3c f1 47 14 bc c4 46 3e bc
       0.00096205337 0.015239338 -0.009050355 -0.0116135515
000240 a5 3b f9 3c 8b 6e 07 3c a7 b3 9a bb 31 53 07 3b
       0.030423949 0.008266102 -0.0047211233 0.0020648951
000250 7a 86 20 3c 0d e3 b4 bc 3e d0 50 3c 58 4b 06 3c
       0.009797687 -0.022080922 0.012744961 0.008196674
000260 0c cc eb bc d1 91 18 bc 20 ef 84 bc 6a 53 40 3a
       -0.02878382 -0.009312109 -0.016227305 0.00073366484
000270 69 14 f7 bc 65 2b ed 3b 67 92 50 3c 6b be a3 3a
       -0.0301611 0.007237839 0.012730218 0.0012492662
000280 fe 6e 32 bc 4a b1 78 bc 01 30 37 3c c7 c6 f9 3b
       -0.01089072 -0.015178988 0.011180879 0.007622573
000290 f2 87 1c 3c 77 4b 89 3c 9d fb 93 bc 13 99 b6 bc
       0.009553896 0.016759617 -0.018064314 -0.022289788
0002a0 fa 5a 95 bb bb 89 40 bd ca 44 b1 bc 0e 60 19 3d
       -0.0045579644 -0.04700635 -0.021639246 0.03744512
0002b0 8b cf 5e 3c e0 f5 09 3b 62 71 90 3c 7a 4a 42 bc
       0.013599287 0.0021051094 0.01763219 -0.011858577
0002c0 1a dc c9 3a 17 e0 78 bc f3 60 bf 3c 59 85 ea 3c
       0.0015400678 -0.015190146 0.023361659 0.028628038
0002d0 35 1f 0f bc df 01 05 3d bd 01 52 bc 69 c3 bc 3b
       -0.008735468 0.032472488 -0.012817797 0.0057605994
0002e0 19 6e 16 bd da 80 79 3c 14 10 4e 3a 5d bc c4 3b
       -0.03672609 0.0152284745 0.0007860672 0.0060039
0002f0 1b 50 e1 bc 55 93 c4 bb 42 4b ff 3c a9 ac 5a 3c
       -0.027504018 -0.0059990087 0.031163815 0.013346829
000300 a9 83 e8 ba 7b dc 18 bd 65 28 34 bc 9e 0a b9 3b
       -0.0017739433 -0.03731964 -0.010995959 0.0056470176
000310 8c 15 11 3c 82 a8 17 bc bc d8 fa 3b 69 8a 3f 3b
       0.008855235 -0.009256484 0.0076552313 0.0029226786
000320 2d d7 ad bc 55 34 ab bc 1e e2 32 bc 27 a7 0c ba
       -0.021220768 -0.020898977 -0.010918168 -0.0005365484
000330 e4 94 e1 bb 1b 29 38 3d 24 eb b8 3b b0 03 f7 bc
       -0.006884204 0.044961076 0.0056432653 -0.030153126
000340 fe 3f af 3c 2d 6c 51 3b 76 49 23 3b c2 cd 16 bb
       0.021392819 0.0031955347 0.0024915612 -0.0023010825
000350 af c2 08 3c a6 26 44 bc 50 dc 00 3b 7a 22 f7 3a
       0.008347197 -0.011972105 0.0019662566 0.0018854879
000360 1e e3 b3 3c ea fa d0 3b a8 7a d8 bc b6 eb 8d bc
       0.021958884 0.0063775675 -0.026425675 -0.01732431
000370 f4 20 8d 3b 03 37 f0 3b 45 ba e4 3b ea 02 eb bb
       0.004306907 0.0073307767 0.006980213 -0.0071719782
000380 37 b4 0a 3b e5 0c 26 bb 8b 60 2b bd 01 f2 1e bc
       0.0021164545 -0.0025337276 -0.041840117 -0.009701253
000390 56 d5 e2 bc 43 ac 40 3c 2f a4 31 bb 8f d6 be bc
       -0.027689617 0.01175982 -0.0027105918 -0.023295669
0003a0 40 6c d5 bc 34 80 c8 bc bc 44 89 bb 54 4a 03 3d
       -0.026052594 -0.024475195 -0.004189102 0.032053307
0003b0 be bb 4c 3d 37 55 a1 3b 47 56 0c bd 3d e4 dc bb
       0.049983732 0.0049234885 -0.034261968 -0.0067410753
0003c0 c4 a4 31 3c 09 2d b7 39 e6 ce 67 bc 21 8f e9 bc
       0.010842506 0.00034938034 -0.0141484495 -0.028510632
0003d0 66 0c 57 3c 34 d6 09 3c cb 52 05 3d b4 c1 af 3c
       0.013125515 0.008412886 0.03254966 0.02145467
0003e0 ba 39 48 3c b1 0c a3 bb c3 9b d4 bc 4b 36 8c 3c
       0.012220794 -0.004975878 -0.02595318 0.017115733
0003f0 55 f7 94 3b a1 49 5a bc 7e 47 a4 bc 7f 4d 69 bc
       0.004546086 -0.013323219 -0.020053621 -0.014239668

action_model._continuous_distribution.mu.bias f4 [2]
000000 96 b6 1e 3b 7d 37 c7 b9
       0.0024217716 -0.0003799758

exp_avg f4 [128, 8]
000000 59 d9 cb 36 1a d2 75 b4 23 43 7b 36 a4 f2 92 b7
       6.075174e-06 -2.2893838e-07 3.7440993e-06 -1.7517545e-05
000010 e9 90 92 39 48 33 06 38 f4 a7 1c 36 07 78 12 b6
       0.00027955257 3.199585e-05 2.3343573e-06 -2.182556e-06
000020 b4 cf 6d 38 cf 34 e2 37 91 41 07 b9 7b 7d 04 b9
       5.6698642e-05 2.696589e-05 -0.00012899029 -0.00012635246
000030 c4 d0 a3 3b a6 c4 85 b9 b2 72 f1 38 03 ee 27 b9
       0.004999252 -0.0002551425 0.00011513139 -0.00016015027
000040 59 d5 a8 37 69 28 5d 37 ed 19 36 b8 65 2c 62 39
       2.0126508e-05 1.3182035e-05 -4.3416327e-05 0.00021569578
000050 83 d2 04 ba a7 48 06 39 28 01 c3 38 4e 9a 6a 36
       -0.0005066769 0.00012806301 9.29854e-05 3.4958534e-06
000060 38 b1 7d 38 50 52 fe 37 de 9f b1 b8 d6 1f bf 39
       6.048495e-05 3.031749e-05 -8.469795e-05 0.00036454079
000070 08 55 10 ba 1d 02 8d 39 32 35 30 39 82 f1 f9 b7
       -0.00055058347 0.0002689519 0.00016804485 -2.9795574e-05
000080 2c 37 d1 b7 8a d6 36 b8 4e 4f 30 39 47 7b f0 38
       -2.4940433e-05 -4.3591986e-05 0.00016814211 0.00011467054
000090 30 0d f3 bb 01 ae aa 38 d7 69 29 b9 27 77 83 39
       -0.0074173436 8.1386424e-05 -0.00016156524 0.00025075043
0000a0 d0 b4 5d 38 3f af 44 37 57 14 01 b8 ff 52 fb 38
       5.28589e-05 1.1723313e-05 -3.077494e-05 0.00011984072
0000b0 9f 3e bd 3a 14 68 12 36 d4 75 80 38 31 79 0f b8
       0.0014438218 2.1816277e-06 6.125463e-05 -3.4206725e-05
0000c0 da db 5e b6 16 b2 78 b6 56 22 50 38 ce 19 89 38
       -3.3208548e-06 -3.705854e-06 4.9623042e-05 6.5374756e-05
0000d0 17 37 31 bb fc 0f 39 38 e1 6b ed b7 b8 fc 6f 38
       -0.0027040893 4.4122324e-05 -2.8302837e-05 5.7217403e-05
0000e0 b1 6d c5 b7 d5 2c 10 b7 64 b1 8e 37 4e f1 27 b9
       -2.3535309e-05 -8.593507e-06 1.7010323e-05 -0.00016016254
0000f0 e5 f0 14 b7 b9 78 1b b8 be 20 9c b8 81 93 da b6
       -8.877575e-06 -3.706731e-05 -7.4447584e-05 -6.514078e-06
000100 7b 17 b3 38 a6 0b 39 38 3d 05 b9 b8 d0 2f 2a 3a
       8.539759e-05 4.4118286e-05 -8.822463e-05 0.000649211
000110 e7 69 38 38 c0 86 72 39 6e f9 a0 39 4c a0 92 36
       4.3967648e-05 0.00023129117 0.00030703418 4.3698e-06
000120 6e ed 17 39 74 e0 99 38 c2 f5 19 b9 e2 42 73 3a
       0.00014488932 7.337416e-05 -0.00014682769 0.00092796807
000130 bf d5 99 38 66 93 d5 39 41 ba f0 39 c5 4c 63 b8
       7.335422e-05 0.00040736346 0.00045915137 -5.4192515e-05
000140 7f 2b 47 b7 00 e2 58 b7 f2 45 05 38 1a 59 ef 38
       -1.18714515e-05 -1.2927223e-05 3.1774813e-05 0.000114130045
000150 59 7b 03 bb 43 36 ea 38 b5 a1 7e b8 09 f8 bd 38
       -0.0020062535 0.000111680965 -6.070892e-05 9.0584224e-05
000160 b8 13 e0 b6 55 e7 ee b6 f8 e9 6e 37 17 bd 41 b8
       -6.678016e-06 -7.1198833e-06 1.4240381e-05 -4.619089e-05
000170 58 e9 ee b6 9f 1c 17 b8 e6 9f 8e b7 eb 9a 59 37
       -7.1201175e-06 -3.602786e-05 -1.7002178e-05 1.2970278e-05
000180 ee b2 b3 37 cf 75 fe b5 51 9e 8a 37 7f b1 cb b8
       2.1421783e-05 -1.8958762e-06 1.6524604e-05 -9.7128555e-05
000190 19 ee 64 3a 62 3f f0 b8 d6 97 f0 b7 81 74 ce b7
       0.0008732989 -0.00011455898 -2.8680934e-05 -2.4611365e-05
0001a0 e2 0b a7 b6 2a a2 93 b6 81 72 13 37 e9 68 1e b8
       -4.978371e-06 -4.3998198e-06 8.788543e-06 -3.776784e-05
0001b0 c4 94 a2 b6 d2 dd 08 b8 e0 d2 0f b8 dd 58 ac 35
       -4.845295e-06 -3.2631513e-05 -3.429025e-05 1.2840861e-06
0001c0 52 4b 09 38 54 db e3 36 f9 13 2c b7 a7 d5 12 b8
       3.2733493e-05 6.7906603e-06 -1.0256649e-05 -3.500809e-05
0001d0 c7 55 89 38 a0 f6 43 38 26 a6 45 37 25 d7 45 b8
       6.548646e-05 4.672131e-05 1.17807995e-05 -4.716883e-05
0001e0 ab 79 01 b9 0f d9 a7 b8 f7 60 40 39 96 75 3e ba
       -0.00012347724 -8.003611e-05 0.00018346669 -0.00072654465
0001f0 9d d0 dd b9 c1 51 c0 b9 ef cc f2 b9 ed 39 15 39
       -0.00042307834 -0.00036682005 -0.00046310524 0.00014231326
000200 29 18 01 38 db f2 7d 37 8e f5 fa b7 59 92 f5 38
       3.0778498e-05 1.5136519e-05 -2.9916668e-05 0.0001170977
000210 2d 27 7b 37 18 0a c5 38 36 ba aa 38 9e ae 05 b8
       1.4969887e-05 9.395572e-05 8.140916e-05 -3.1872296e-05
000220 41 48 04 38 4f 32 0b 38 19 46 43 b9 ba f5 e6 38
       3.1538544e-05 3.3187036e-05 -0.00018622763 0.00011013025
000230 99 66 93 3a 15 b3 40 38 88 b7 10 39 41 ee 03 b9
       0.0011245786 4.594315e-05 0.00013801281 -0.0001258189
000240 ba bc 08 39 10 00 77 38 59 3d 17 b8 63 a2 da 39
       0.00013040277 5.8889447e-05 -3.605834e-05 0.00041701188
000250 fd 33 67 3a 33 ce 19 39 3f 1f af 39 08 ee f4 b8
       0.00088196975 0.00014668032 0.0003340188 -0.000116791634
000260 d8 02 c3 37 fb a3 43 b6 1b 3b 69 b7 0f d5 ba b8
       2.3247136e-05 -2.9152714e-06 -1.3901644e-05 -8.9088564e-05
000270 0d c7 a6 3a 37 de 7a b8 d9 60 f5 b7 83 48 d9 b7
       0.0012724117 -5.98116e-05 -2.9251374e-05 -2.5902182e-05
000280 0e a4 54 39 96 c5 bb 38 81 84 2b b9 b5 a9 a5 3a
       0.0002027901 8.953658e-05 -0.00016357192 0.0012639078
000290 16 5e e9 ba 18 35 31 3a b5 36 19 3a 38 05 52 b8
       -0.0017804529 0.0006759926 0.0005844639 -5.0072762e-05
0002a0 cf 26 17 38 69 fd a3 37 b7 f7 23 b8 b9 55 f0 38
       3.603735e-05 1.9549117e-05 -3.909293e-05 0.00011460059
0002b0 f5 14 a4 37 3d 3d 07 39 06 9e a9 38 0c 7c 4f b8
       1.9560082e-05 0.00012897416 8.087982e-05 -4.9468174e-05
0002c0 f6 fa 4f b8 c6 a5 44 b7 8b ed af b8 fb a9 cb b9
       -4.958637e-05 -1.17211075e-05 -8.388896e-05 -0.00038845823
0002d0 5f 32 8b 3b 90 3f a5 b9 c0 7c de b8 e0 28 a7 b8
       0.004247948 -0.0003151861 -0.000106090214 -7.970794e-05
0002e0 21 7a 02 37 9e fe b5 36 03 6a 42 b8 0a 1a 94 39
       7.777039e-06 5.4238617e-06 -4.6351935e-05 0.0002824816
0002f0 3c 83 01 bb 87 ec 67 39 35 b0 69 38 3f 6f 30 38
       -0.001976206 0.0002211799 5.5715635e-05 4.2065276e-05
000300 63 bf ad b4 79 75 4d b5 7b d9 d0 35 4b 5c ef 35
       -3.2363013e-07 -7.6539396e-07 1.5560503e-06 1.7833748e-06
000310 d4 5e ba b5 49 d7 1a b7 58 52 3e b6 48 98 51 36
       -1.3885679e-06 -9.22924e-06 -2.8360137e-06 3.1232066e-06
000320 c6 dd f1 38 60 6c 9c 38 c6 8d 8b b9 3d f6 36 3a
       0.00011533084 7.458846e-05 -0.00026617775 0.00069794414
000330 01 93 1a 3b c0 4b a6 39 e9 8b da 39 c3 bc 22 b9
       0.0023586156 0.00031718425 0.0004168444 -0.00015519843
000340 27 ae ef b8 49 a6 6f b8 43 ad ef 38 19 ef 0e ba
       -0.000114288465 -5.7136906e-05 0.000114286806 -0.00054524984
000350 f3 57 70 b8 92 0e b4 b9 e0 b8 9c b9 bc 33 c2 38
       -5.7302368e-05 -0.0003434313 -0.0002989238 9.260277e-05
000360 6c d2 0b b7 1c 61 6d 36 b1 c6 9a b8 88 a6 f5 b7
       -8.334038e-06 3.5372277e-06 -7.3803014e-05 -2.9283823e-05
000370 e9 c1 ee 3a 95 6b d6 b8 14 c5 9c 37 9c 05 00 b8
       0.0018215749 -0.00010224354 1.868842e-05 -3.0522802e-05
000380 cb a2 05 38 ae 3f 89 36 78 ba 92 b8 05 4e 85 39
       3.1861284e-05 4.0903315e-06 -6.996555e-05 0.00025425866
000390 35 c3 da ba 60 db 33 39 4f 0d 08 38 5b 97 3d 38
       -0.0016690256 0.00017152494 3.243732e-05 4.5202072e-05
0003a0 6b db b5 b7 d7 dc 32 b7 ad 68 b2 37 a6 05 03 b9
       -2.1679056e-05 -1.0661045e-05 2.1267997e-05 -0.00012495238
0003b0 fd 96 28 b7 2d fb 79 b8 2d 8b 8b b8 55 09 37 37
       -1.0048735e-05 -5.9600152e-05 -6.65396e-05 1.0909823e-05
0003c0 50 01 ce b6 3e 8e 82 35 d0 4e 7f 36 19 e6 78 38
       -6.139431e-06 9.727153e-07 3.8043836e-06 5.9342103e-05
0003d0 d4 ac 9a b9 34 bb fc 37 69 af 48 37 36 4b 0e b6
       -0.00029501936 3.0127914e-05 1.196177e-05 -2.1203427e-06
0003e0 13 2c 16 b9 36 88 70 b8 e2 4c 58 39 1d a1 57 ba
       -0.00014321534 -5.7347315e-05 0.00020628006 -0.0008225607
0003f0 64 91 d0 3a a5 2d db b9 3e 51 9f b9 28 19 70 37
       0.001591247 -0.00041804943 -0.00030387373 1.4310972e-05

exp_avg_sq f4 [128, 8]
000000 04 e6 2d 36 91 b2 b4 32 b1 8a 95 35 00 bf e5 36
       2.5912896e-06 2.103596e-08 1.114173e-06 6.846967e-06
000010 be 98 54 3a ac ca e2 37 1e 3c 08 34 40 30 10 35
       0.00081099186 2.7035676e-05 1.2687858e-07 5.3714393e-07
000020 f8 3d 47 37 10 24 11 34 7e e6 ae 36 36 24 04 38
       1.18757525e-05 1.3517297e-07 5.212437e-06 3.1504977e-05
000030 2b 2e e9 3a 5d bf 4c 38 db 9a ac 35 f4 c7 f8 35
       0.0017790248 4.881561e-05 1.2860067e-06 1.8535634e-06
000040 66 f0 6d 36 01 80 f8 32 c0 a9 aa 34 30 81 47 36
       3.5455682e-06 2.892921e-08 3.1788477e-07 2.9728508e-06
000050 ef 3f 2d 38 23 84 a4 36 ea 57 ec 33 10 40 dd 34
       4.1305957e-05 4.9029636e-06 1.1005598e-07 4.121107e-07
000060 fd 18 2b 36 84 63 0a 33 09 a5 82 34 7f 86 39 36
       2.549553e-06 3.2221138e-08 2.4334466e-07 2.7645435e-06
000070 16 6b 1b 38 b0 df fb 35 b1 f6 02 34 4f 78 18 34
       3.705461e-05 1.8766059e-06 1.2196939e-07 1.4199871e-07
000080 a7 fd 6d 37 22 82 26 34 05 0a ef 36 52 77 48 38
       1.4185359e-05 1.5507297e-07 7.1239215e-06 4.779484e-05
000090 20 13 82 3b 8e 58 aa 38 6d d9 fc 35 43 1f 4e 36
       0.003969565 8.122726e-05 1.8838742e-06 3.0714589e-06
0000a0 22 5f 09 35 df e1 97 32 38 7c 5d 36 fb 38 cf 36
       5.1174914e-07 1.7681428e-08 3.300387e-06 6.175714e-06
0000b0 50 11 2e 3a d4 16 9f 37 1b 0a 2a 34 3d c6 40 35
       0.0006640153 1.8964907e-05 1.583616e-07 7.181405e-07
0000c0 69 e2 a8 35 6a bb 33 32 41 eb 5e 35 28 e7 61 36
       1.2582869e-06 1.0461784e-08 8.3043784e-07 3.3662163e-06
0000d0 dc c2 67 3a 70 ca 29 37 42 40 f7 33 93 f1 60 34
       0.0008840987 1.0120319e-05 1.1513522e-07 2.094951e-07
0000e0 63 c0 b7 36 a2 5a 87 33 56 dc 98 35 bf 44 29 36
       5.4762218e-06 6.3029134e-08 1.1389009e-06 2.5222978e-06
0000f0 10 b2 5e 36 84 08 fd 36 37 c2 2b 34 0f 67 1b 35
       3.3184224e-06 7.540979e-06 1.5996271e-07 5.789197e-07
000100 5b a6 af 36 56 af 95 33 e4 a5 d3 33 5c 0d 3f 36
       5.2347727e-06 6.9702466e-08 9.8556285e-08 2.8468994e-06
000110 69 18 c2 33 4f 8f 6f 35 a0 b5 69 34 c3 f6 b2 34
       9.038269e-08 8.924298e-07 2.1765891e-07 3.3334626e-07
000120 9c 01 d6 37 d6 38 98 34 96 f0 40 35 ab f0 06 37
       2.5511537e-05 2.835356e-07 7.187567e-07 8.043057e-06
000130 04 f7 07 35 4b 57 f4 36 8f d9 30 35 05 80 97 35
       5.0650874e-07 7.281929e-06 6.58817e-07 1.1287635e-06
000140 08 8b bb 36 da 43 80 33 14 a2 38 36 bb 5b 1f 37
       5.5892197e-06 5.9728066e-08 2.7512478e-06 9.498496e-06
000150 af 61 fc 39 5e a9 9f 37 05 b5 bf 34 70 36 15 35
       0.00048137965 1.9033145e-05 3.570823e-07 5.558604e-07
000160 48 18 96 34 75 97 9a 32 04 f3 98 33 d3 b5 ed 34
       2.7957344e-07 1.7996834e-08 7.122256e-08 4.4276985e-07
000170 83 98 9a 32 10 73 8d 35 12 8f 31 33 08 a2 08 33
       1.7997314e-08 1.0538806e-06 4.1341146e-08 3.1812334e-08
000180 1d 70 0a 36 05 52 d3 32 96 aa 53 36 b7 26 ac 36
       2.062886e-06 2.4600931e-08 3.1540744e-06 5.1305065e-06
000190 1c 22 69 39 e8 22 ab 37 28 8f f1 33 17 09 8d 35
       0.00022233318 2.0401043e-05 1.1248477e-07 1.0507964e-06
0001a0 d7 bd 7e 36 b9 47 53 33 88 a5 0a 34 48 61 f5 34
       3.795945e-06 4.9192497e-08 1.2912471e-07 4.5705588e-07
0001b0 54 2d 5f 33 be f7 4b 35 3d d9 b6 33 08 5b 95 33
       5.196246e-08 7.5983905e-07 8.514551e-08 6.954912e-08
0001c0 df b9 c5 36 9b 24 96 33 56 d6 12 36 70 8c 86 36
       5.8926958e-06 6.991578e-08 2.1880455e-06 4.0098603e-06
0001d0 10 27 4e 37 76 06 1f 37 ec de 80 34 e9 43 ed 34
       1.2287652e-05 9.478643e-06 2.4004055e-07 4.41941e-07
0001e0 f7 99 9d 37 d9 62 2d 34 45 2f 6a 36 cd 19 ea 37
       1.8787554e-05 1.6147841e-07 3.4896232e-06 2.7906988e-05
0001f0 e2 1f e7 39 07 ca 31 38 f5 d0 8d 35 b6 22 03 36
       0.00044083508 4.238824e-05 1.0566133e-06 1.9540726e-06
000200 86 75 c1 35 40 56 59 32 1a aa 1d 35 5c ee 03 36
       1.4413824e-06 1.2650673e-08 5.873459e-07 1.9659265e-06
000210 ed 80 bb 34 5e 4d 8c 36 b7 48 7f 33 ff 62 dd 34
       3.492527e-07 4.181332e-06 5.9437948e-08 4.1236487e-07
000220 b2 b9 dc 36 87 2a a8 33 a6 30 2c 37 ff 3e 28 38
       6.5781287e-06 7.830845e-08 1.0263326e-05 4.011299e-05
000230 4a 76 02 3b 0d 1f b8 38 4a 04 b6 35 dc dc 3c 36
       0.0019906932 8.7795874e-05 1.3561305e-06 2.814274e-06
000240 90 c6 9a 36 b9 b3 52 33 d5 f7 3d 36 73 81 17 38
       4.6126734e-06 4.9057892e-08 2.8307452e-06 3.6121764e-05
000250 b5 55 c1 3a 17 41 fd 37 68 f9 8b 35 51 f0 9f 35
       0.0014750274 3.019026e-05 1.0428894e-06 1.1916364e-06
000260 83 0a 18 36 28 0f 9a 32 59 61 1a 35 10 f3 a9 36
       2.2655884e-06 1.7934852e-08 5.751113e-07 5.0648887e-06
000270 8f ae 0f 3a f8 16 4b 37 d8 5b 0d 34 b8 bc 27 35
       0.00054810283 1.2105091e-05 1.3165061e-07 6.248697e-07
000280 b4 32 f3 36 d6 6f c8 33 55 6c 72 36 c6 6a f2 37
       7.247867e-06 9.3335686e-08 3.6123868e-06 2.8898368e-05
000290 b7 d4 a6 39 9e 21 e6 37 69 14 a7 35 78 3b 1c 36
       0.00031820472 2.743379e-05 1.244841e-06 2.3280427e-06
0002a0 9c e7 b0 34 c3 b5 dc 31 d7 3a db 32 da 46 ad 33
       3.2951073e-07 6.4235066e-09 2.5521713e-08 8.068828e-08
0002b0 fd 15 e0 31 65 aa 58 34 1f 94 86 32 0d e4 b5 32
       6.521758e-09 2.0178557e-07 1.566701e-08 2.1174879e-08
0002c0 94 67 d6 36 f6 76 3b 33 da a8 68 36 04 71 e5 37
       6.389755e-06 4.3647525e-08 3.4668979e-06 2.7351554e-05
0002d0 2f 19 20 3b 29 80 8e 38 9b 0f 8e 35 73 e0 1a 36
       0.0024429073 6.794959e-05 1.0584366e-06 2.3078435e-06
0002e0 5f 73 c1 35 10 c7 5f 32 bd 4d f6 34 ba ba 00 37
       1.4413198e-06 1.302557e-08 4.5877633e-07 7.67287e-06
0002f0 15 18 bc 39 21 24 90 36 94 b9 95 34 61 28 a1 34
       0.00035876097 4.2957404e-06 2.788844e-07 3.0017966e-07
000300 20 f0 3b 36 02 f9 dc 32 75 e4 1f 34 c4 0c 41 35
       2.8004943e-06 2.5724606e-08 1.4891141e-07 7.191668e-07
000310 d0 cf 31 36 0b 66 49 36 84 96 08 33 4c 36 68 34
       2.6496018e-06 3.001073e-06 3.180186e-08 2.1626437e-07
000320 eb 8d bb 37 08 b3 68 34 f9 0c 79 36 13 dd b3 37
       2.2358223e-05 2.1671815e-07 3.7111442e-06 2.1441409e-05
000330 6d 39 d1 3a c4 c5 14 38 8f 7d 8f 35 59 ed ab 35
       0.0015962549 3.5470133e-05 1.0690873e-06 1.280957e-06
000340 79 6e df 33 8f 0b 15 32 e3 06 31 33 e7 7d 20 35
       1.04043416e-07 8.67557e-09 4.1217287e-08 5.9787857e-07
000350 a3 26 c4 32 ba 70 07 35 e0 4c 70 33 36 22 8e 33
       2.2834973e-08 5.045546e-07 5.5949272e-08 6.618613e-08
000360 e0 30 ba 35 ea eb a1 32 2d fe 15 36 9c 63 67 37
       1.3872304e-06 1.8850148e-08 2.235068e-06 1.3791865e-05
000370 d3 28 72 3a 23 da aa 37 5d 08 12 35 67 cd 47 35
       0.00092376507 2.0367157e-05 5.440141e-07 7.4432177e-07
000380 5b 2d 2d 37 6f 37 9d 33 04 f9 74 36 02 c3 fc 37
       1.0322164e-05 7.3209655e-08 3.650378e-06 3.0131549e-05
000390 60 8f 26 3b 27 fd ad 38 b5 21 79 35 53 d9 da 35
       0.0025415048 8.296436e-05 9.280878e-07 1.6305515e-06
0003a0 16 1d 85 35 5f 89 95 32 25 de 05 35 79 1e e1 35
       9.917737e-07 1.7408352e-08 4.9869624e-07 1.6772675e-06
0003b0 2b 68 c7 36 df 4f c9 36 f5 f9 6d 33 3e a1 f6 34
       5.942789e-06 5.999565e-06 5.5408197e-08 4.593839e-07
0003c0 4f 80 a1 36 82 93 37 33 63 7f 98 35 c7 9f 06 37
       4.813111e-06 4.2742165e-08 1.1361957e-06 8.0242235e-06
0003d0 8e d3 27 38 a9 d1 97 36 ce 60 9f 34 5c 4e 95 34
       4.001293e-05 4.5245583e-06 2.9686493e-07 2.7810427e-07
0003e0 7d 3e 15 37 7d bc a7 33 77 e3 e1 36 38 5a 2a 38
       8.895641e-06 7.810829e-08 6.732003e-06 4.061518e-05
0003f0 41 43 82 3b 8a 99 ba 38 f6 00 a6 35 7a d6 0a 36
       0.0039753024 8.89777e-05 1.2368243e-06 2.0688444e-06

exp_avg f4 [128]
000000 1e d2 f5 b4 cf 34 62 38 6a 28 dd 37 50 52 7e 38
       -4.5787687e-07 5.393178e-05 2.6364072e-05 6.063498e-05
000010 8b d6 b6 b8 3f af c4 37 16 b2 f8 b6 d5 2c 90 b7
       -8.718398e-05 2.3446626e-05 -7.411708e-06 -1.7187014e-05
000020 a7 0b b9 38 74 e0 19 39 00 e2 d8 b7 55 e7 6e b7
       8.823658e-05 0.00014674832 -2.5854446e-05 -1.4239767e-05
000030 cc 75 7e b6 2b a2 13 b7 52 db 63 37 0f d9 27 b9
       -3.7917516e-06 -8.79964e-06 1.3581319e-05 -0.00016007222
000040 da f2 fd 37 4e 32 8b 38 10 00 f7 38 fb a3 c3 b6
       3.0273037e-05 6.6374065e-05 0.000117778894 -5.8305427e-06
000050 95 c5 3b 39 69 fd 23 38 c7 a5 c4 b7 9e fe 35 37
       0.00017907315 3.9098235e-05 -2.3442217e-05 1.0847723e-05
000060 79 75 cd b5 61 6c 1c 39 49 a6 ef b8 1e 61 ed 36
       -1.5307879e-06 0.00014917694 -0.00011427381 7.0744563e-06
000070 ae 3f 09 37 d7 dc b2 b7 34 8e 02 36 36 88 f0 b8
       8.180663e-06 -2.132209e-05 1.9454283e-06 -0.00011469463
000080 d5 36 27 b8 43 8b 31 b8 7e ae ee 37 b0 6a 9f 37
       -3.986697e-05 -4.2329786e-05 2.8453065e-05 1.9003957e-05
000090 f5 92 79 38 de bf 85 b7 d1 5d e8 36 9b fb 9c b6
       5.950309e-05 -1.594418e-05 6.9250605e-06 -4.678453e-06
0000a0 e2 96 6c b9 53 18 ff 38 2b 21 a9 b6 c2 42 d4 b8
       -0.00022562922 0.00012163878 -5.0404537e-06 -0.000101213824
0000b0 4b 3f 59 b8 34 b0 8c b8 49 95 85 b9 6e 60 f0 b7
       -5.1795778e-05 -6.7085406e-05 -0.00025478963 -2.8655133e-05
0000c0 fb c9 0d b7 3f 67 b2 b6 7a f5 30 37 3c 59 06 36
       -8.451282e-06 -5.316833e-06 1.0547572e-05 2.0019497e-06
0000d0 40 24 26 39 f1 45 61 b6 59 33 23 39 6f b9 2a 38
       0.00015844498 -3.3568324e-06 0.0001556402 4.0703857e-05
0000e0 cd 2d a3 37 c3 7b de b7 d8 3f cd b5 06 7d 04 38
       1.9452442e-05 -2.6522093e-05 -1.5292271e-06 3.158769e-05
0000f0 da 3c d5 36 8d 13 02 b7 c9 64 38 36 00 35 d8 37
       6.3549787e-06 -7.753156e-06 2.7476801e-06 2.5773887e-05
000100 28 f7 ff b8 43 2f 2b 39 c2 81 22 b5 0b 16 20 39
       -0.00012205384 0.00016325437 -6.0538525e-07 0.00015267
000110 da 8b 1d b9 cd 8d ea 37 12 16 39 38 98 3f 6d b8
       -0.00015024786 2.7961005e-05 4.412799e-05 -5.656443e-05
000120 c0 30 86 b7 bb 55 c0 b7 b2 10 17 36 6e 61 10 b9
       -1.5996746e-05 -2.2928105e-05 2.2510471e-06 -0.00013769206
000130 42 50 52 b8 a0 71 f9 b7 d4 ea ec b7 9a 5e c7 b7
       -5.0142648e-05 -2.9736024e-05 -2.8242743e-05 -2.37667e-05
000140 71 19 38 37 55 e6 d8 b6 ed 24 c1 37 5d 5f 21 38
       1.0973178e-05 -6.464116e-06 2.3024588e-05 3.8474205e-05
000150 4b 6f af b7 31 76 07 37 52 85 d6 b8 01 45 20 b6
       -2.091345e-05 8.074146e-06 -0.00010229148 -2.3882023e-06
000160 f3 30 e3 b6 57 41 aa b8 5e ac 73 38 05 15 d8 38
       -6.7708256e-06 -8.118402e-05 5.8096244e-05 0.00010303598
000170 40 47 4a b8 2d 43 b8 36 91 91 de b7 ce 4f cc 38
       -4.822691e-05 5.4914476e-06 -2.6532247e-05 9.742343e-05
000180 8e 5e bd b7 9e 45 8b b7 0b 5f 3f b7 e5 80 1f 38
       -2.2574586e-05 -1.660251e-05 -1.1406616e-05 3.8028596e-05
000190 95 db a0 38 7d c8 f7 35 e2 47 be b6 03 63 c7 b6
       7.670295e-05 1.8461284e-06 -5.6708095e-06 -5.9421886e-06
0001a0 2a 42 26 37 01 e5 30 b9 51 1e dc 38 df a7 f7 b6
       9.909776e-06 -0.00016869979 0.00010496064 -7.3807164e-06
0001b0 17 da 34 38 fa 53 1e 38 44 e3 e2 36 23 c2 54 b6
       4.3118456e-05 3.7748345e-05 6.761782e-06 -3.1703464e-06
0001c0 3b 9c 46 b8 d4 38 fc b6 d4 6e d7 b7 9d 09 35 38
       -4.735238e-05 -7.516801e-06 -2.5681606e-05 4.3162716e-05
0001d0 ef 27 01 b6 44 1e 8e b5 03 1d 4d 38 9c ae bd b7
       -1.9245742e-06 -1.0588633e-06 4.8902828e-05 -2.2611865e-05
0001e0 a9 a6 b9 35 b7 e4 0d 37 f7 de d9 b6 63 ec 5c b7
       1.3832079e-06 8.457507e-06 -6.4930605e-06 -1.316806e-05
0001f0 60 8b 57 37 44 46 0e b8 d8 b4 fc 35 0c e8 19 b7
       1.2847449e-05 -3.392088e-05 1.8828096e-06 -9.173538e-06
