Assets/results/RollerBall/RollerBall/RollerBall-2913.pt (torch, 448220 bytes, 36 tensors)

network_body._body_endoder.seq_layers.0.weight f4 [128, 8]
-0.26190078 -0.41290867 0.20996936 0.5153212 0.60279423 -0.2854453 0.7002723 0.5646847
-0.3759438 -0.07617483 0.48962137 0.14125262 -0.40116826 0.5850571 -0.23065232 0.31745246
-0.13119036 0.101108484 0.17927557 -0.46635023 -0.12743318 0.6308826 0.0672367 0.9488571
-0.012553895 -0.24842654 -0.7038918 0.004988445 -0.6184464 -0.16898198 0.54612553 0.5335193
0.3643694 -0.7252128 -0.13298379 0.016002541 -0.48596328 0.17765225 -0.2767159 0.36025718
-0.046679873 0.23599885 -0.42051828 -0.43177238 -0.1623875 0.24748398 -0.021439847 -0.08340984
-0.27610192 0.6205151 0.2811071 0.3459071 -0.39366806 0.27202594 0.011105676 -0.32424006
-0.21621332 0.17496054 -0.09734058 -0.5569044 0.7508022 0.4348784 0.51501065 0.24647255
-0.22798978 -0.18948287 -0.23075308 0.01589663 -0.10820827 -0.33428004 0.1192704 0.26988912
-0.42568755 0.014427592 0.29320973 0.053036015 0.33043763 -0.10355339 0.13837615 -0.010759414
0.08021943 0.23414733 0.01621367 -0.28811213 0.49689254 0.6224085 -0.31201348 -0.42867243
-0.17371677 0.46809945 -0.25358236 -0.34493142 -0.0052523017 0.2307803 0.030589655 0.5567564
0.50413275 0.23167966 0.05133916 -0.16910076 -0.043415923 -0.003419762 -0.8302059 0.37471315
0.14270552 0.13266204 0.20612633 -0.05795705 -0.001263256 -0.37245676 -0.71986604 -0.2136476
0.110741846 0.2560672 -0.34189102 0.46758145 -0.10560785 -0.52362835 -0.27041444 -0.21550508
-0.11688235 0.29713544 -0.4595409 0.19390382 0.051041223 0.014928604 -0.43817857 -0.5219008
-0.08244678 0.069943145 0.47884217 -0.12547949 -0.28770822 0.24981476 -0.69071686 0.016824337
0.18906365 0.036524083 -0.07714331 0.0072078137 -0.050632983 -0.06097805 -0.33089158 0.26294664
0.23095879 -0.04399487 -0.420478 -0.25530282 -0.005283809 0.1176288 0.036721755 0.32442108
0.033272926 0.643443 0.35760903 -1.3775767 -0.11707529 0.03989258 -0.88891494 -0.2125184
-0.40582073 0.4728906 -0.028594976 -0.09057911 0.2748955 -0.21217687 0.026873752 -0.022040661
0.7012242 -0.36789522 0.45869482 0.32526502 -0.5126926 0.3073718 -0.40052816 0.47208583
-0.24201523 0.4192925 -0.25432375 0.47586253 0.36915895 0.80710584 -0.04914911 0.9204229
-0.049697053 -0.6800375 -0.567473 0.21997185 0.068765976 0.17772824 0.42467442 0.47515646
0.12765831 0.1893269 0.6761627 0.3712044 0.0686762 0.014933918 0.3529526 -0.36494967
-0.27085587 0.1331014 -0.46551427 0.17808245 -0.3717612 0.60043275 0.30028525 -0.13757151
-0.04452685 0.22331269 0.21365097 0.113204844 0.2456401 0.8551191 0.2323192 0.047323167
0.15494096 -0.42136034 -0.5365119 0.46781358 0.0036442042 0.11135394 -0.34980053 -0.2872328
-0.04200922 -0.29678434 -1.0845463 -0.36236057 -0.5268906 -0.027856242 -0.12893714 -0.26556918
0.03522008 -0.45881414 -0.076065265 -0.037140775 -0.08386261 0.1529301 -0.50484425 0.11633402
-0.17453259 -0.049946576 0.10927707 -0.39435685 0.06827291 0.5006117 0.6012124 0.050987672
-0.26686317 -0.22870816 -0.3619777 0.39763123 -0.67165136 -0.2796208 -0.42228335 0.65901655
00000000: dc17 86be c468 d3be 3502 573e 17ec 033f
00000010: b950 1a3f e325 92be 0c45 333f 2d8f 103f
00000020: b57b c0be 8d01 9cbd a7af fa3e 87a4 103e
00000030: ed65 cdbe 4dc6 153f 1f30 6cbe 2189 a23e
00000040: c456 06be f711 cf3d 0494 373e 75c5 eebe
00000050: d87d 02be 8681 213f 65b3 893d 4de8 723f
00000060: daae 4dbc 8763 7ebe 4132 34bf 1c76 a33b
00000070: 8152 1ebf 9d09 2dbe e2ce 0b3f b994 083f
00000080: a08e ba3e 8ca7 39bf e72c 08be c317 833c
00000090: 2ed0 f8be 79ea 353e b5ad 8dbe a173 b83e
000000a0: 6533 3fbd afa9 713e 2c4e d7be 4511 ddbe
000000b0: e948 26be 716c 7d3e 9ea2 afbc c7d2 aabd
000000c0: 3b5d 8dbe 14da 1e3f 45ed 8f3e bc1a b13e
000000d0: dc8e c9be fc46 8b3e 95f4 353c cb02 a6be
000000e0: 0667 5dbe db28 333e 7f5a c7bd 4991 0ebf
000000f0: 9334 403f 62a8 de3e bdd7 033f 4d63 7c3e
00000100: 2776 69be cc07 42be 894a 6cbe a639 823c
00000110: 4c9c ddbd c126 abbe 0a44 f43d e82e 8a3e
00000120: b8f3 d9be b561 6c3c 961f 963e 4b3c 593d
00000130: 1f2f a93e cd13 d4bd 7ab2 0d3e 4148 30bc
00000140: 164a a43d 51c4 6f3e 88d2 843c 6f83 93be
00000150: b368 fe3e 2a56 1f3f 3bc0 9fbe f47a dbbe
00000160: cfe2 31be bbaa ef3e 8cd5 81be da9a b0be
00000170: 801b acbb ac51 6c3e 2897 fa3c 9687 0e3f
00000180: d80e 013f 6f3d 6d3e 0349 523d c028 2dbe
00000190: e5d4 31bd 161e 60bb 6088 54bf 67da bf3e
000001a0: 6521 123e 8fd8 073e c812 533e 5f64 6dbd
000001b0: d693 a5ba a7b2 bebe 2449 38bf 70c6 5abe
000001c0: 9fcc e23d 3d1b 833e 570c afbe d666 ef3e
000001d0: ee48 d8bd 820c 06bf c373 8abe 5dad 5cbe
000001e0: 0360 efbd 2322 983e f248 ebbe b98e 463e
000001f0: 9a10 513d 1a97 743c f158 e0be 4a9b 05bf
00000200: dbd9 a8bd 5a3e 8f3d cd2a f53e b27d 00be
00000210: 7e4e 93be 71cf 7f3e d2d2 30bf 31d3 893c
00000220: e799 413e 479a 153d 50fd 9dbd 862f ec3b
00000230: 8864 4fbd 1fc4 79bd 9f6a a9be f1a0 863e
00000240: 7680 6c3e f733 34bd e448 d7be 0db7 82be
00000250: cd23 adbb 5ee7 f03d 8d69 163d 851a a63e
00000260: 3149 083d aeb8 243f 8818 b73e 6f54 b0bf
00000270: 2bc5 efbd 6766 233d ee8f 63bf 6c9e 59be
00000280: bcc7 cfbe b71e f23e 0340 eabc 8a81 b9bd
00000290: 1abf 8c3e e544 59be 5826 dc3c 9e8e b4bc
000002a0: 6e83 333f c35c bcbe 0cda ea3e 2389 a63e
000002b0: d23f 03bf d65f 9d3e 0712 cdbe 3cb5 f13e
000002c0: d7d2 77be 82ad d63e b936 82be 41a4 f33e
000002d0: 6702 bd3e 7d9e 4e3f 9450 49bd d6a0 6b3f
000002e0: 238f 4bbd f016 2ebf e945 11bf 4d40 613e
000002f0: 2dd5 8c3d 64fe 353e ed6e d93e b547 f33e
00000300: dcb8 023e e9de 413e 0019 2d3f 810e be3e
00000310: 1ca6 8c3d 64ad 743c 34b6 b43e afda babe
00000320: 9fad 8abe bc4b 083e e357 eebe 3f5b 363e
00000330: 7c57 bebe f6b5 193f fdbe 993e 8cdf 0cbe
00000340: c961 36bd 15ac 643e 52c7 5a3e f1d7 e73d
00000350: 1489 7b3e 16e9 5a3f 16e5 6d3e f0d5 413d
00000360: d8a8 1e3e 8bbc d7be d858 09bf 4385 ef3e
00000370: 9ad3 6e3b 890d e43d 0e19 b3be 2d10 93be
00000380: dc11 2cbd 1ef4 97be 6ad2 8abf 5387 b9be
00000390: 4de2 06bf c632 e4bc 1908 04be aff8 87be
000003a0: ee42 103d b0e9 eabe 1bc8 9bbd ed20 18bd
000003b0: 29c0 abbd b599 1c3e 793d 01bf 8840 ee3d
000003c0: acb8 32be c894 4cbd a8cc df3d 24e9 c9be
000003d0: abd2 8b3d 1728 003f 0ee9 193f 73d8 503d
000003e0: 4aa2 88be 7932 6abe 2455 b9be 5296 cb3e
000003f0: 58f1 2bbf 752a 8fbe 8635 d8be 4fb5 283f

network_body._body_endoder.seq_layers.0.bias f4 [128]
0.005836396 -0.0088259615 -0.0026895937 -0.002747745 0.0037584298 -0.006073327 0.0010578024 0.0002677969
0.0115810195 -0.0009126177 0.00915424 -0.005630734 -0.0054169446 -0.007402038 0.00049771625 0.0031988334
0.0038661573 -0.0023538875 0.004547563 -0.0046340954 -0.011174009 -0.0056146057 0.0029902493 -0.0058150687
-0.009964267 -0.0045134593 0.0031194114 -0.0056326045 -0.004556983 0.007664627 0.0029433926 -0.006188455
-0.005314763 0.0003821889 0.00020251829 -0.0008318953 0.015033219 0.0005458056 0.0057197693 -0.002526387
-0.0003716877 0.0007110366 0.009962858 -0.008068599 -0.0001140457 -0.0029058587 -0.00019447006 -0.009050351
0.0006970863 0.0032798396 -0.001831962 -0.0010595039 -0.0069488203 -0.0070282053 0.005262201 0.0020743832
-0.0004990552 0.009488708 0.0044198018 -0.00028851556 -0.009243378 0.012966591 0.002674498 -0.0023699168
-7.099296e-05 -0.005186291 0.000112484646 -0.001521709 -0.00069053384 0.0038119687 0.00069705874 0.0038512454
-0.00089437724 -0.005022556 0.0109365815 0.01161002 -0.007092766 0.004144632 0.0104503995 -0.003937535
0.0036117018 0.016011434 0.0046883947 -0.005115372 0.0073069325 -0.015141778 0.0059854942 -0.0071659945
0.007096351 0.009174042 -0.0006181739 -0.0018761428 -0.0014047876 0.0019232098 -0.00438172 0.0176258
-0.003916385 -0.0027334003 -0.0067002694 -0.0105299605 -0.016091123 0.0101119345 -0.0052695335 0.0002256847
-0.0013887967 -0.011776127 -0.008952918 -0.0058907773 0.00048519796 -0.008136786 0.001408483 -0.0050333655
0.0014038094 0.0024036223 -0.00021218763 -0.001916718 -0.0048719333 -0.0007317261 0.005956103 0.0070918817
0.00040896502 -0.0064261886 -0.007205013 -0.0018787632 0.005604254 -0.006579756 -0.0006127295 0.0021983956
00000000: 3d3f bf3b c49a 10bc e543 30bb 8313 34bb
00000010: fd4f 763b c202 c7bb f5a5 8a3a 1767 8c39
00000020: 51be 3d3c bd3c 6fba aafb 153c 0582 b8bb
00000030: a080 b1bb cc8c f2bb 2c79 023a 85a3 513b
00000040: 5b5f 7d3b ae43 1abb b903 953b 9cd9 97bb
00000050: 3113 37bc bafa b7bb 0ff8 433b 558c bebb
00000060: 2a41 23bc a4e5 93bb 0a6f 4c3b b691 b8bb
00000070: be52 95bb 8d27 fb3b efe5 403b 86c8 cabb
00000080: 7727 aebb 8760 c839 175b 5439 8c13 5aba
00000090: e44d 763c 6514 0f3a e76c bb3b be91 25bb
000000a0: 14df c2b9 dc64 3a3a 413b 233c 2832 04bc
000000b0: d22b efb8 3870 3ebb a9ea 4bb9 ec47 14bc
000000c0: abbc 363a 94f2 563b 721e f0ba 0ddf 8aba
000000d0: eeb2 e3bb dc4c e6bb 8b6e ac3b 60f2 073b
000000e0: 07d3 02ba 8776 1b3c fcd3 903b e743 97b9
000000f0: 8a71 17bc d371 543c a146 2f3b 9b50 1bbb
00000100: 0ee2 94b8 c3f1 a9bb bce5 eb38 1574 c7ba
00000110: f104 35ba 39d2 793b d2ba 363a 2d65 7c3b
00000120: a474 6aba 4194 a4bb 592f 333c f437 3e3c
00000130: 6f6a e8bb b1cf 873b 2738 2b3c 7006 81bb
00000140: 4db2 6c3b 692a 833c 1ba1 993b da9e a7bb
00000150: fe6e ef3b 3815 78bc f721 c43b b8d0 eabb
00000160: 8288 e83b b94e 163c f30c 22ba e8e8 f5ba
00000170: da20 b8ba 3614 fc3a 8894 8fbb fb63 903c
00000180: 0555 80bb d922 33bb ef8d dbbb db85 2cbc
00000190: 88d1 83bc 87ac 253c 0dac acbb c6a5 6c39
000001a0: 4908 b6ba a8f0 40bc 43af 12bc 6c07 c1bb
000001b0: 2b62 fe39 2750 05bc d99c b83a eeee a4bb
000001c0: 0700 b83a 1786 1d3b af7e 5eb9 623a fbba
000001d0: bda4 9fbb 4fd1 3fba 6a2b c33b 0463 e83b
000001e0: 5b6a d639 c792 d2bb 0818 ecbb d540 f6ba
000001f0: e4a3 b73b fe9a d7bb 959f 20ba f512 103b

network_body._body_endoder.seq_layers.2.weight f4 [128, 128]
-0.022474648 -0.12852241 -0.047464672 0.16706054 -0.018695842 -0.10857563 -0.062230892 0.012687988
-0.029269697 0.12995103 0.15644303 -0.19069599 -0.05941822 0.035105474 -0.12198396 0.06280437
0.19888693 -0.12670852 0.011440808 -0.06852975 0.0032132207 0.18132256 0.13317198 0.004629688
0.0018623136 0.010588303 0.021850793 0.038992815 0.17627907 -0.05843313 0.03032005 -0.014212966
-0.071218245 -0.044431183 0.026078349 0.12095609 0.066163234 -0.10755193 0.05675696 0.04133289
0.014397688 -0.01731762 -0.0547355 -0.058463745 0.027549068 -0.062649086 0.099723406 -0.050413363
0.067633905 -0.03194964 -0.0456814 0.03403516 0.05259272 0.25252506 -0.03236139 0.023457417
-0.021216892 -0.032010127 -0.1105129 0.25924808 0.19320367 -0.051045626 0.1074729 0.030119278
0.11418441 -0.12275017 -0.14490922 -0.09517984 -0.07329087 0.12338649 -0.12871946 0.03181497
-0.072941 -0.12592064 -0.09849001 -0.21301717 -0.116746865 0.0015581613 -0.168192 -0.10718461
-0.091820054 0.10318561 0.019094285 -0.13198353 0.1279236 -0.06698264 0.044921834 -0.06170067
0.005881069 0.017945692 0.031544402 0.049680833 0.008885146 0.20413484 0.012430346 -0.08705758
0.021565743 -0.07859198 0.023173304 -0.045256983 0.030969266 -0.056336366 0.13160218 -0.009275227
-0.108011454 -0.011294133 -0.023041552 0.11297674 0.09366398 0.026304292 -0.15023252 0.014570372
0.025307577 0.010070195 0.0140037695 -0.025183205 -0.040217616 0.034841772 -0.07345558 0.16161568
0.08087292 -0.12377495 0.0006569793 -0.0058284826 -0.034270346 0.061965935 0.0823555 -0.24053666
0.03399741 -0.08800973 -0.0909703 -0.053638227 -0.12749791 -0.045975465 -0.040519115 0.10450816
0.0070865303 0.0022653937 0.17172562 -0.05788007 -0.03791985 -0.15004422 0.038719807 -0.11203778
0.04647864 0.017827785 0.047734164 0.025752628 -0.04871306 -0.045145065 -0.00030989136 0.11721482
-0.18101202 0.11861112 -0.0822649 -0.079849504 -0.0245977 -0.13021493 0.03173008 -0.09689902
-0.17609014 0.08143449 -0.0092756795 0.054308984 0.037528105 -0.16220626 -0.024543133 0.020455875
-0.12794481 0.015176128 0.013040085 -0.13560942 -0.007305705 -0.016433345 -0.24269715 -0.00081840385
0.019287368 0.0010255871 0.1471211 -0.024398103 0.03711444 0.10971428 -0.0462137 -0.010471791
0.048196197 -0.002157366 -0.029810598 0.14397791 0.073502965 0.0034716877 -0.040068746 0.19921777
-0.06903435 -0.0029196632 -0.030722218 -0.018613746 -0.06335528 0.052396886 0.071851835 -0.046549544
-0.058957804 -0.058615938 0.116769396 -0.08640114 -0.108469516 0.19750644 0.030262727 0.08561619
0.022545168 -0.07311709 -0.111699365 0.035876565 -0.050822027 -0.024663003 -0.04376917 -0.042876657
-0.123149134 0.0167496 0.0073695737 0.07463149 -0.12649068 -0.10199504 -0.17972073 -0.12807977
0.1798543 0.06313098 0.049184985 -0.08680577 -0.057111267 -0.00063730567 0.051711723 -0.005951641
-0.09755438 -0.07760032 -0.04777139 -0.12594956 0.10985126 0.04674206 -0.050692156 -0.17708962
-0.112214744 -0.016270801 0.011907781 0.026532773 -0.017031912 -0.08623285 0.05393423 0.07882012
0.020135732 0.02045406 -0.02061599 -0.08177404 0.015514181 0.10446801 -0.08313798 -0.078803636
00000000: c11c b8bc 619b 03be 516a 42bd eb11 2b3e
00000010: 0628 99bc e65c debd d2e5 7ebd 47e1 4f3c
00000020: 01c7 efbc e211 053e 9a32 203e cf45 43be
00000030: 8560 73bd c2ca 0f3d bad2 f9bd 949f 803d
00000040: 04a9 4b3e e1bf 01be 3a72 3b3c 5359 8cbd
00000050: e694 523b 9fac 393e 3c5e 083e a3b4 973b
00000060: e018 f43a 907a 2d3c 6f00 b33c eeb6 1f3d
00000070: 8082 343e 9457 6fbd c161 f83c 80dd 68bc
00000080: dfda 91bd 79fd 35bd 43a2 d53c d4b7 f73d
00000090: 9780 873d 3044 dcbd fc79 683d ad4c 293d
000000a0: 48e4 6b3c aedd 8dbc 5532 60bd ae77 6fbd
000000b0: 95ae e13c 2a4e 80bd c93b cc3d 3e7e 4ebd
000000c0: a583 8a3d a0dd 02bd 6b1c 3bbd 7468 0b3d
000000d0: 776b 573d f74a 813e 608d 04bd c529 c03c
000000e0: 0ccf adbc 0d1d 03bd 9654 e2bd 2abc 843e
000000f0: 2fd7 453e 3815 51bd c01a dc3d b4bc f63c
00000100: 84d9 e93d 7164 fbbd 1563 14be a6ed c2bd
00000110: 8619 96bd 0eb2 fc3d 09cf 03be 6a50 023d
00000120: 1762 95bd 57f1 00be 21b5 c9bd 2c21 5abe
00000130: fb18 efbd 383b cc3a 863a 2cbe 9b83 dbbd
00000140: 270c bcbd fa52 d33d 9e6b 9c3c b126 07be
00000150: 67fe 023e 322e 89bd f5ff 373d d7b9 7cbd
00000160: fcb5 c03b d802 933c b434 013d 217e 4b3d
00000170: 0193 113c b908 513e a6a8 4b3c 3f4b b2bd
00000180: a4aa b03c d5f4 a0bd f1d5 bd3c 635f 39bd
00000190: 42b3 fd3c f6c0 66bd b9c2 063e 1ff7 17bc
000001a0: 1c35 ddbd 070b 39bc a3c1 bcbc 5960 e73d
000001b0: e7d2 bf3d 197c d73c 8ed6 19be 92b8 6e3c
000001c0: d651 cf3c 76fd 243c 1170 653c 024d cebc
000001d0: 3abb 24bd 3fb6 0e3d e16f 96bd 957e 253e
000001e0: b4a0 a53d b97d fdbd 2239 2c3a dbfc bebb
000001f0: 105f 0cbd fecf 7d3d 00aa a83d 3e4f 76be
00000200: de40 0b3d 723e b4bd a34e babd c2b3 5bbd
00000210: d08e 02be c550 3cbd 5ff7 25bd 6008 d63d
00000220: 2036 e83b 0077 143b d7d8 2f3e a713 6dbd
00000230: d851 1bbd 31a5 19be a998 1e3d 1074 e5bd
00000240: 6360 3e3d 930b 923c e684 433d 2df7 d23c
00000250: 5887 47bd 08ea 38bd ea78 a2b9 530e f03d
00000260: 375b 39be 63ea f23d 807a a8bd 2388 a3bd
00000270: 1e81 c9bc 1057 05be 66f7 013d fe72 c6bd
00000280: f950 34be 20c7 a63d 05f9 17bc 1973 5e3d
00000290: 12b7 193d 6619 26be ae0e c9bc 1493 a73c
000002a0: f703 03be 4ba5 783c 15a6 553c 32dd 0abe
000002b0: b264 efbb 399f 86bc 9a85 78be 278a 56ba
000002c0: 8b00 9e3c fe6c 863a eaa6 163e 88de c7bc
000002d0: 5005 183d e1b1 e03d 944a 3dbd e091 2bbc
000002e0: 6069 453d 9862 0dbb 5b35 f4bc f26e 133e
000002f0: b988 963d 4185 633b 201f 24bd beff 4b3e
00000300: e261 8dbd d257 3fbb 29ad fbbc db7b 98bc
00000310: 6ac0 81bd 1e9e 563d 0e27 933d bcaa 3ebd
00000320: bd7d 71bd 4417 70bd cb24 ef3d 15f3 b0bd
00000330: 4425 debd 213f 4a3e 8ae9 f73c 8b57 af3d
00000340: a5b0 b83c 6abe 95bd a3c2 e4bd 4ef3 123d
00000350: c22a 50bd 110a cabc 4d47 33bd 6f9f 2fbd
00000360: 9d35 fcbd 7536 893c 777c f13b 65d8 983d
00000370: c686 01be c7e2 d0bd b608 38be 5827 03be
00000380: ba2b 383e d14a 813d 3276 493d 39c7 b1bd
00000390: 81ed 69bd dc10 27ba accf 533d fc05 c3bb
000003a0: 97ca c7bd ebec 9ebd efab 43bd ecf8 00be
000003b0: b3f9 e03d 9a74 3f3d 94a2 4fbd fb56 35be
000003c0: d8d0 e5bd 584a 85bc da18 433c 425b d93c
000003d0: 8286 8bbc d99a b0bd 24ea 5c3d 716c a13d
000003e0: b1f3 a43c 468f a73c dde2 a8bc 2679 a7bd
000003f0: 312f 7e3c 53f3 d53d 3f44 aabd cd63 a1bd

network_body._body_endoder.seq_layers.2.bias f4 [128]
-0.007331545 -0.007982009 0.0005499742 -0.0040253378 -0.01019849 -0.008976761 -0.0022562924 0.00042385363
-0.004348418 -0.005582439 0.006523219 0.004307377 -0.003403464 -0.0077738175 -0.011032628 -0.0035776328
-0.010198111 0.011051819 -0.01294037 0.0015259975 -0.0013682338 0.0015690622 0.0021414577 -0.0020298397
0.0015672524 0.007255675 0.010233206 -0.009812944 -0.0029785673 -0.0075694504 -0.0047506364 -0.0031080516
-0.009085034 -0.003064718 -0.00023815833 -9.173601e-05 0.003571342 -0.008384508 -0.008228354 0.008945075
-0.00218488 -0.0036333443 -0.009944851 -0.0010309045 -0.004807822 0.0051186495 0.001839089 -0.00919079
-0.0018962898 0.0045091026 -0.0012471261 0.0064550103 0.0036688712 -0.008098772 0.0015590236 0.004278699
0.0058359927 -0.008167315 0.007999715 0.018834056 -3.8042268e-05 0.0047138007 0.0035237598 -0.013726212
-0.00091658003 -0.007162774 0.0017260482 -0.012619903 0.006895979 0.00023497174 0.008628008 0.000821846
-0.0074618505 -0.0050809607 -0.0031881866 -0.004070362 -0.010023749 -0.0051372726 -0.0028923368 -0.0053090914
0.0013659748 0.0076687825 0.016763708 0.004539859 -0.0001255497 0.005084677 0.0021964079 -0.005161806
-0.006491486 -0.0072309277 0.002566846 0.0017514504 -0.0026104834 0.0033850768 0.010558121 -0.0033233545
0.0016118168 0.011719702 -0.0006297335 0.00013602921 -0.008243514 0.0014647132 0.0056634718 -0.00033990695
0.004230786 0.0065758876 -0.005216375 0.0057590185 0.008568469 0.005297834 -0.005818468 -0.0014469558
0.0037634005 -8.482544e-05 -0.012814575 -0.0009506301 -0.008779549 -0.008233476 -0.016037675 0.0077839
-0.003942188 0.010422223 0.006832339 -0.005953502 0.0036670824 -0.009302468 0.00056415185 0.005587857
00000000: 753d f0bb f9c6 02bc 252c 103a fbe6 83bb
00000010: 9117 27bc 4413 13bc 4ede 13bb ac38 de39
00000020: 2d7d 8ebb e4ec b6bb bac0 d53b e624 8d3b
00000030: a70c 5fbb 82bb febb 32c2 34bc b876 6abb
00000040: fa15 27bc b012 353c d803 54bc fb03 c83a
00000050: 4f56 b3ba fea8 cd3a b357 0c3b 0f07 05bb
00000060: 446c cd3a 03c1 ed3b 2da9 273c 78c6 20bc
00000070: 1134 43bb 2709 f8bb 3aab 9bbb 74b0 4bbb
00000080: 65d9 14bc 70d9 48bb 24ba 79b9 6562 c0b8
00000090: 2d0d 6a3b 2d5f 09bc 38d0 06bc 5d8e 123c
000000a0: 3430 0fbb 671d 6ebb baef 22bc 6a1f 87ba
000000b0: ef8a 9dbb 58ba a73b 960d f13a f894 16bc
000000c0: ed8c f8ba 18c1 933b 9c76 a3ba 8d84 d33b
000000d0: 7271 703b b6b0 04bc 2758 cc3a 5434 8c3b
000000e0: db3b bf3b 34d0 05bc 3d11 033c e149 9a3c
000000f0: 938f 1fb8 3a76 9a3b e1ee 663b e8e3 60bc
00000100: a546 70ba b4b5 eabb 913c e23a b6c3 4ebc
00000110: aaf7 e13b bf62 7639 7d5c 0d3c 2771 573a
00000120: 8a82 f4bb 307e a6bb e5f0 50bb ac60 85bb
00000130: a73a 24bc 9156 a8bb 5c8d 3dbb e3f7 adbb
00000140: 820a b33a 694a fb3b 0b54 893c 19c3 943b
00000150: fea5 03b9 5d9d a63b 9cf1 0f3b 5e24 a9bb
00000160: 88b6 d4bb 6bf1 ecbb 8838 283b ec90 e53a
00000170: a514 2bbb 2ad8 5d3b f8fb 2c3c a3cc 59bb
00000180: 9943 d33a fe03 403c b314 25ba 10a3 0e39
00000190: ce0f 07bc 9ffb bf3a a594 b93b 8a35 b2b9
000001a0: 68a2 8a3b 8b7a d73b 20ee aabb 26b6 bc3b
000001b0: c462 0c3c 7499 ad3b d9a8 bebb c8a7 bdba
000001c0: 62a3 763b 50e4 b1b8 39f4 51bc b533 79ba
000001d0: 19d8 0fbc b4e5 06bc 7161 83bc 1610 ff3b
000001e0: 782d 81bb f9c1 2a3c d0e1 df3b 9815 c3bb
000001f0: 6f53 703b 6169 18bc 97e3 133a 581a b73b

action_model._continuous_distribution.log_sigma f4 [1, 2]
0.001630365 0.011149143
00000000: f9b1 d53a e5aa 363c

action_model._continuous_distribution.mu.weight f4 [2, 128]
0.03163081 -0.014951732 -0.014158616 -0.024120444 0.0062618223 0.018701293 0.0035523663 -0.0019935705
0.02016794 0.0024426267 -0.008980583 -0.014454999 0.013326564 0.007459034 0.012075326 -0.003197531
0.0070961113 -0.01295095 0.008755411 -0.010182459 -0.011028176 -0.006309608 -0.003228282 0.0064994534
0.0257024 -0.017590247 0.003203326 0.016319448 0.0104561215 0.005430529 0.0045225658 0.0041068876
0.008372819 0.011113888 0.004415096 -0.012031513 -0.018242488 0.0020675221 0.010948385 -0.034745418
0.0010559497 0.018730175 -0.008558541 0.018935073 0.0042372625 0.0026498416 -0.005535719 -0.0036165696
-0.018715478 -0.0081769135 0.0037412765 -0.01746422 -0.0150920935 0.024621718 0.0076608006 -0.0075821057
-0.026945937 0.010425168 -0.052192274 -0.015755644 -0.009791769 -0.0023469315 -0.034432974 0.011221099
0.002008726 0.023282403 -0.006282064 0.0013615817 -0.01676548 0.018183092 0.011126729 -0.011057897
0.0025245328 0.022618169 0.026486827 0.011028117 0.002344814 0.00049933814 0.029624835 0.022890056
-0.024149854 -0.025675563 -0.025578348 -0.008996362 0.008479259 -0.0034991885 -0.00044647374 0.0034767804
0.04252477 0.007864273 -0.021409523 -0.0029022277 0.0013381148 -0.028780073 0.022014499 -0.014614595
-0.027209535 -0.022097869 -0.0034891898 -0.008623166 0.010368227 0.029132837 -0.01423081 -0.028126447
-0.010176466 -0.015641468 0.002051912 -0.012882508 -0.029080851 -0.008951837 0.0050939424 0.01891914
-0.012228718 -0.0038956685 0.0034494756 -0.0072971717 0.017587187 0.013153436 0.042629946 -0.032625366
0.012438427 0.01603198 -0.0075161317 0.0046504773 -0.04047644 0.030568054 -0.0033379213 -0.005513609
0.012917908 -0.006697014 0.020361686 0.0029288556 0.0033119824 0.020944284 0.0280206 0.0026078834
0.021535467 -0.002555565 0.028340379 0.0073556853 -0.0055725756 0.01775052 -0.030078607 -0.02486911
0.0036202571 0.042994317 -0.009643505 -0.0076535107 -0.014682867 0.016137652 0.024848698 0.009807925
-0.003753444 -0.0073095933 -0.03432145 0.006689463 0.030749934 -0.014202391 -0.0060454905 -0.030544594
-0.0032876935 -0.028379567 -0.011586789 -0.033716496 -0.0069734277 0.0022508171 -0.00079815666 0.0027644152
0.018135315 0.008510494 -0.026117573 0.014147762 0.017471088 0.018167404 0.006550232 -0.030516496
-0.005423945 0.011869345 -0.0106189335 -0.0013808906 0.0014414035 0.0183249 -0.016907252 0.023667911
0.0054491106 0.013454413 0.00049144204 0.03860211 -0.0006404679 0.002575084 0.016847352 -0.012894984
0.034225713 0.027688134 0.0004992794 0.0012851354 -0.012372408 0.0028890173 0.017472383 0.00050566386
0.013478709 0.032204397 -0.0076685916 0.004824652 0.010311689 -0.042436097 -0.02136205 -0.0034054026
0.02095709 0.014506031 0.030205324 0.009335392 0.045295913 0.042398233 0.008408471 -0.012108215
0.035713833 -0.009672634 -0.012685094 0.02689902 0.018805768 -0.0022776604 0.06622369 -0.0038967456
0.0033479268 -0.0043117316 0.036120567 -0.007132031 -0.015619539 0.020900983 0.009316316 -0.021454373
0.006128992 0.031867072 0.03195587 -0.007986088 0.033596415 0.022983633 0.0127573 0.0627547
0.0010103497 -0.0008235668 -0.01715597 -0.02544557 -0.009479873 -0.002608334 -0.0026490649 0.015344568
-0.003031794 0.0016991851 -0.02803934 -0.008970362 -0.01633655 -0.0036722128 0.017112162 0.02619657
00000000: 4f8f 013d 1cf8 74bc 8af9 67bc 3d98 c5bc
00000010: f92f cd3b 7433 993c d1ce 683b 90a6 02bb
00000020: 3c37 a53c 7a14 203b 4c23 13bc a9d4 6cbc
00000030: a957 5a3c ea6a f43b 97d7 453c ab8d 51bb
00000040: 7f86 e83b 3930 54bc db72 0f3c 54d4 26bc
00000050: 86af 34bc d4c0 cebb 9691 53bb 5ef9 d43b
00000060: d78d d23c 6c19 90bc e4ee 513b 5db0 853c
00000070: 2750 2b3c 94f2 b13b 0832 943b 1293 863b
00000080: 262e 093c 0617 363c 82ac 903b d31f 45bc
00000090: 4571 95bc 447f 073b db60 333c 3651 0ebd
000000a0: cb67 8a3a 0670 993c 1f39 0cbc ba1d 9b3c
000000b0: bcd8 8a3b f7a8 2d3b fa64 b5bb f803 6dbb
000000c0: 3451 99bc 76f8 05bc 3430 753b 2011 8fbc
000000d0: d444 77bc 7cb3 c93c 7407 fb3b 5073 f8bb
000000e0: babd dcbc 53ce 2a3c 91c7 55bd fb11 81bc
000000f0: a86d 20bc face 19bb 9709 0dbd b3d8 373c
00000100: d4a4 033b bdba be3c c6d9 cdbb 1a77 b23a
00000110: c357 89bc b5f4 943c e24c 363c 2e2c 35bc
00000120: a272 253b bd49 b93c e7fa d83c 46af 343c
00000130: 73ab 193b 04e6 023a c8af f23c ed83 bb3c
00000140: ead5 c5bc 8f55 d2bc af89 d1bc 7a65 13bc
00000150: 97ec 0a3c a452 65bb b114 eab9 b2da 633b
00000160: 742e 2e3d 27d9 003c 0663 afbc 4d33 3ebb
00000170: af63 af3a 30c4 ebbc c057 b43c 0e72 6fbc
00000180: 88e6 debc 9706 b5bc e4aa 64bb 2e48 0dbc
00000190: 7fdf 293c fda7 ee3c 5828 69bc 6f69 e6bc
000001a0: 31bb 26bc 8922 80bc 5f79 063b 2811 53bc
000001b0: f73a eebc baaa 12bc 16eb a63b 50fc 9a3c
000001c0: f65a 48bc 794e 7fbb 9910 623b 1d1d efbb
000001d0: 0113 903c 8281 573c bd9c 2e3d 2da2 05bd
000001e0: 8bca 4b3c 8055 833c e249 f6bb 0863 983b
000001f0: a0ca 25bd db69 fa3c 07c1 5abb 81ab b4bb
00000200: a2a5 533c a072 dbbb 8dcd a63c 0bf2 3f3b
00000210: d80d 593b 5993 ab3c 758b e53c 06e9 2a3b
00000220: 266b b03c 447b 27bb 152a e83c f607 f13b
00000230: 279a b6bb 8a69 913c 6967 f6bc 4eba cbbc
00000240: d641 6d3b cf1a 303d cbff 1dbc 4dca fabb
00000250: 6890 70bc 1c33 843c 7f8f cb3c 6bb1 203c
00000260: 57fc 75bb 5085 efbb a694 0cbd 4833 db3b
00000270: 49e7 fb3c 25b1 68bc 4019 c6bb a838 fabc
00000280: 5876 57bb 447c e8bc 84d6 3dbc 4f1a 0abd
00000290: 5a81 e4bb 7282 133b 633b 51ba 312b 353b
000002a0: 8390 943c 996f 0b3c 85f4 d5bc 04cc 673c
000002b0: 871f 8f3c cfd3 943c 54a3 d63b bbfd f9bc
000002c0: 59bb b1bb a477 423c 09fb 2dbc 00ff b4ba
000002d0: 7aed bc3a 1a1e 963c 1481 8abc 35e3 c13c
000002e0: 748e b23b e66f 5c3c 1ed4 003a 3f1d 1e3d
000002f0: 13e5 27ba bec2 283b 7503 8a3c 7c45 53bc
00000300: 4330 0c3d 3ad2 e23c 13e2 023a fd71 a83a
00000310: a4b5 4abc ab55 3d3b 3e22 8f3c 878e 043a
00000320: ced5 5c3c c2e8 033d cf48 fbbb 1d18 9e3b
00000330: 5cf2 283c 79d1 2dbd 77ff aebc 2d2d 5fbb
00000340: 34ae ab3c b4aa 6d3c 2871 f73c 79f3 183c
00000350: 3588 393d c5a9 2d3d afc3 093c 8961 46bc
00000360: ab48 123d f879 1ebc 24d5 4fbc 555b dc3c
00000370: 8e0e 9a3c cd44 15bb 49a0 873d 8b60 7fbb
00000380: e468 5b3b 6d49 8dbb 29f3 133d d0b3 e9bb
00000390: 18e9 7fbc 8a38 ab3c 76a3 183c 15c1 afbc
000003a0: b6d5 c83b 0c87 023d 29e4 023d 15d8 02bc
000003b0: 659c 093d 2c48 bc3c ff03 513c 8985 803d
000003c0: b66d 843a a2e4 57ba ad8a 8cbc 3a73 d0bc
000003d0: 7851 1bbc 95f0 2abb ef9b 2dbb c867 7b3c
000003e0: 10b1 46bb 31b7 de3a c2b2 e5bc 6df8 12bc
000003f0: 3ad4 85bc 82a9 70bb ce2e 8c3c 309a d63c

action_model._continuous_distribution.mu.bias f4 [2]
-0.009547536 0.004974929
00000000: 456d 1cbc bb04 a33b

exp_avg f4 [128, 8]
2.1498177e-11 -3.302623e-12 -9.572562e-12 4.6127745e-13 1.3113198e-11 -9.8605166e-11 -1.29351755e-11 -5.622872e-11
-5.6544875e-05 3.407483e-05 -9.829069e-05 -0.028208792 -0.4967596 0.10221757 0.00052614906 0.004892363
-3.4881363e-05 9.259093e-06 -3.4741308e-05 -0.00456875 -0.11015994 0.024471909 0.00018875247 0.0012546534
8.23796e-07 -6.8860486e-06 8.550493e-06 0.0009215103 0.06519477 -0.015241771 -0.00020708962 -0.00084278366
-6.2859115e-05 1.232812e-05 -5.3235413e-05 -0.014166291 -0.21029271 0.04482945 6.666355e-05 0.002000386
-4.083263e-05 2.443521e-05 -6.966868e-05 -0.018005094 -0.3397324 0.071214646 0.0004165288 0.0034605379
2.1039475e-06 -9.40704e-06 1.7529966e-05 0.004603971 0.112392254 -0.023288092 -0.0002238111 -0.0012115783
4.660756e-11 -8.6287195e-13 5.1797008e-11 -6.905199e-12 4.3002758e-11 -8.56838e-11 -1.028531e-11 -3.4163873e-11
-7.0461897e-07 -1.15831135e-05 2.8574825e-05 0.011659747 0.1870612 -0.037959676 -0.00014379043 -0.0017503435
-1.508139e-11 7.0932295e-13 7.648518e-12 6.859757e-13 -5.5503393e-12 2.7177566e-11 3.3280275e-12 1.3729291e-11
-1.4117112e-11 1.7264657e-11 1.2749196e-10 1.3113854e-10 -6.7447803e-10 1.0166666e-09 1.364209e-10 4.0461687e-10
-2.0574087e-05 3.2824319e-06 -1.9065707e-05 -0.0028192156 -0.048798725 0.010768432 3.420068e-05 0.00050490245
1.0344039e-06 2.068421e-06 -5.2984383e-06 0.0010488692 -0.008377728 0.0021839647 9.187257e-05 0.00019293274
5.0175803e-14 1.7696888e-14 -1.8066118e-13 1.3303201e-13 5.8869637e-15 -3.0115586e-13 4.8998372e-14 -4.3677918e-14
-2.9317984e-05 -6.9423945e-06 2.42851e-06 -0.0043856767 0.025346396 -0.0072776265 -0.0003400567 -0.000636287
-6.6555073e-12 2.1164019e-12 -3.106032e-11 1.3011769e-11 -7.047398e-11 8.428531e-11 9.38407e-12 3.3078165e-11
-1.9209923e-05 2.2795316e-06 -2.0811443e-05 -0.010047998 -0.096459106 0.018262614 -0.0001475933 0.00064008654
-5.564947e-06 3.2403004e-06 -9.763232e-06 -0.0053079287 -0.06593384 0.0124133155 -2.9254763e-06 0.00053727574
-3.9850224e-06 -5.6788813e-06 1.0990903e-05 0.005237973 0.086884856 -0.016441725 -9.582312e-05 -0.00078439154
1.6115628e-05 -3.4770385e-06 1.683081e-05 0.009832126 0.10385774 -0.019340608 9.341804e-05 -0.0007321806
1.4682114e-12 1.1906237e-13 -2.8893385e-12 -1.2048836e-13 1.0712036e-12 -1.940715e-12 -6.016816e-13 -7.998063e-13
-2.2461993e-05 1.647569e-05 -4.9352282e-05 -0.014666684 -0.24884114 0.051029358 0.00023264262 0.0024136803
-1.9233195e-07 -4.5192287e-08 6.581631e-08 -1.7948763e-05 9.075102e-05 -2.8883189e-05 -2.2827967e-06 -3.2305168e-06
4.6014287e-05 9.77144e-06 -2.3783632e-06 0.006201987 -0.03590556 0.010299348 0.0004811244 0.00089804444
1.1828241e-05 1.0412704e-06 9.839479e-07 0.0007085204 -0.004194588 0.0011874875 5.4751414e-05 9.9733974e-05
-5.2944157e-05 2.1439864e-05 -6.831332e-05 -0.021892214 -0.34424892 0.07103246 0.00022442844 0.0032691557
-3.3620414e-05 -2.8955906e-06 -4.108952e-06 -0.0019580817 0.011578056 -0.0032806715 -0.00015263411 -0.00027627836
2.435582e-05 2.1311969e-06 2.822939e-06 0.0014395511 -0.008508916 0.0024115301 0.00011219473 0.00020320862
-2.4882273e-05 2.5032337e-05 -6.646446e-05 -0.021716993 -0.37418652 0.076651245 0.00037332054 0.0036350172
-1.4956563e-05 -5.379682e-06 1.0685261e-06 0.005333084 0.085413 -0.015763089 -9.183535e-05 -0.0007401712
-1.7321716e-05 -9.207002e-07 -1.2979967e-05 -0.0034030825 -0.018838327 0.0034958213 -0.00011660562 4.601276e-05
-5.3417378e-05 2.9668869e-05 -8.773654e-05 -0.029255627 -0.46860284 0.09583164 0.0003498743 0.0044508697
00000000: 9719 bd2d c466 68ac fd66 28ad 8bd6 012b
00000010: 98b0 662d c6d5 d8ae da8e 63ad e94b 77ae
00000020: 992a 6db8 92eb 0e38 6a21 ceb8 2016 e7bc
00000030: 4657 febe 7257 d13d 44ed 093a 1e50 a03b
00000040: 944d 12b8 8057 1b37 32b7 11b8 74b5 95bb
00000050: 899b e1bd 5079 c83c dbeb 4539 2f73 a43a
00000060: d422 5d35 b50e e7b6 1674 0f37 8291 713a
00000070: d684 853d 9fb8 79bc 3226 59b9 41ee 5cba
00000080: 3bd3 83b8 dfd4 4e37 1749 5fb8 bb19 68bc
00000090: f956 57be 169f 373d b9cd 8b38 e818 033b
000000a0: b443 2bb8 37fa cc37 161b 92b8 6b7f 93bc
000000b0: 68f1 adbe fcd8 913d 8d61 da39 31ca 623b
000000c0: 8b31 0d36 eed2 1db7 510d 9337 e8dc 963b
000000d0: e92d e63d abc6 bebc d6ae 6ab9 d2cd 9eba
000000e0: 73fb 4c2e 7ae0 72ab 3fce 632e 81f4 f2ac
000000f0: cd20 3d2e b16b bcae ebf0 34ad 1a41 16ae
00000100: 0c25 3db5 1855 42b7 f8b3 ef37 8608 3f3c
00000110: f98c 3f3e 9b7b 1bbd 73c6 16b9 c86b e5ba
00000120: 45a8 84ad 1ba8 472b dd8d 062d c215 412b
00000130: 0349 c3ac 700e ef2d 6a30 6a2c 3b87 712d
00000140: d259 78ad 8ddc 972d cc2d 0c2f 3830 102f
00000150: 2c66 39b0 c7ba 8b30 12ff 152f c370 de2f
00000160: 8496 acb7 c047 5c36 4bef 9fb7 97c2 38bb
00000170: 2ce1 47bd 146e 303c b372 0f38 6e5b 043a
00000180: d9d5 8a35 34cf 0a36 3dc9 b1b6 367a 893a
00000190: bd42 09bc d920 0f3b b6ab c038 fd4d 4a39
000001a0: c3f8 6129 3f66 9f28 0a68 4baa dec7 152a
000001b0: a819 d427 2289 a9aa 47ab 5c29 36b5 44a9
000001c0: e4ef f5b7 b7f2 e8b6 7cf9 2236 b9b5 8fbb
000001d0: 3fa3 cf3c 2879 eebb a349 b2b9 7fcc 26ba
000001e0: 7b2b eaac b5ed 142c d09a 08ae cce7 642d
000001f0: 53f9 9aae 6958 b92e 1816 252d b47a 112e
00000200: ff24 a1b7 0efa 1836 3c94 aeb7 5ca0 24bc
00000210: 5a8c c5bd 7a9b 953c 46c3 1ab9 7bcb 273a
00000220: 88ba bab6 f073 5936 c3cc 23b7 22ee adbb
00000230: 5208 87bd 3861 4b3c 4d53 44b6 f7d7 0c3a
00000240: 15b7 85b6 388d beb6 9265 3837 4da3 ab3b
00000250: b0f0 b13d ccb0 86bc a5f4 c8b8 a09f 4dba
00000260: 0c30 8737 1157 69b6 e42f 8d37 ed16 213c
00000270: 5eb3 d43d 3270 9ebc 6ee9 c338 cfef 3fba
00000280: e4a1 ce2b 640d 062a b251 4bac 68a8 07aa
00000290: 2dc2 962b d090 08ac ba5b 29ab 1e20 61ab
000002a0: c36c bcb7 4635 8a37 9cff 4eb8 884c 70bc
000002b0: 36d0 7ebe 2904 513d 87f1 7339 d62e 1e3b
000002c0: ce83 4eb4 7219 42b3 e656 8d33 ad90 96b7
000002d0: 9551 be38 2d4a f2b7 2632 19b6 dbcb 58b6
000002e0: 77ff 4038 04f0 2337 f89b 1fb6 0a3a cb3b
000002f0: b511 13bd 99be 283c 6d3f fc39 be6a 6b3a
00000300: e971 4637 c7c1 8b35 3110 8435 00bc 393a
00000310: c172 89bb 78a5 9b3a e2a4 6538 4528 d138
00000320: 5b10 5eb8 c2d9 b337 6f43 8fb8 4d57 b3bc
00000330: 6541 b0be 7779 913d 8d54 6b39 553f 563b
00000340: a503 0db8 de51 42b6 a1df 89b6 2953 00bb
00000350: e3b1 3d3c 8900 57bb 680c 20b9 74d9 90b9
00000360: ba4f cc37 af05 0f36 b971 3d36 52af bc3a
00000370: fb68 0bbc c30a 1e3b 164a eb38 6614 5539
00000380: 46ba d0b7 89fc d137 d662 8bb8 d6e7 b1bc
00000390: 6095 bfbe 54fb 9c3d 3cba c339 7839 6e3b
000003a0: f3ed 7ab7 1e83 b4b6 476a 8f35 27c1 ae3b
000003b0: 03ed ae3d 9821 81bc ba97 c0b8 0c08 42ba
000003c0: 1a4e 91b7 0926 77b5 89c4 59b7 4006 5fbb
000003d0: d652 9abc 261a 653b 2a8a f4b8 d3fd 4038
000003e0: 790c 60b8 69e1 f837 32ff b7b8 7fa9 efbc
000003f0: b6ec efbe 6143 c43d 556f b739 9ad8 913b

exp_avg_sq f4 [128, 8]
1.7841833e-06 2.8749923e-08 2.8678608e-06 1.915169e-06 7.6598354e-08 4.4101907e-06 1.1372407e-07 8.3997224e-07
4.150704e-05 1.0821234e-06 5.0354738e-05 0.20557214 20.413668 0.67666405 0.00028178803 0.0018221849
7.911197e-06 1.06771e-07 6.2517615e-06 0.066197366 3.3599792 0.08342388 9.053645e-05 0.00025266563
2.0951647e-05 2.5960875e-07 2.653035e-05 0.03560736 1.5540681 0.033019457 0.00013930435 0.00015431628
4.9290014e-05 4.8050634e-07 4.5820136e-05 0.18605906 9.116033 0.2101562 0.00032587105 0.0007332942
1.4540112e-05 3.6879783e-07 1.36194085e-05 0.084439725 8.642061 0.2950111 7.080394e-05 0.0007666772
2.5213601e-05 3.5572154e-07 1.8017257e-05 0.01918895 1.3104882 0.038424738 9.177276e-05 0.00021551657
4.749056e-06 4.8424607e-08 5.295926e-06 7.714382e-06 1.006885e-05 2.9042865e-05 1.3209738e-06 3.3313597e-06
1.2062017e-05 1.9201407e-07 1.8728208e-05 0.086105146 5.150125 0.1311481 0.00019667602 0.0003954084
2.6734867e-06 2.2230957e-08 1.2335031e-06 1.0583405e-05 1.2565688e-06 7.4980867e-06 1.145612e-06 1.105514e-06
6.2451545e-06 8.335064e-08 7.213884e-06 1.8234361e-05 3.5674584e-05 6.6429486e-05 2.2687238e-06 9.408037e-06
2.7040714e-05 5.057273e-07 3.3553493e-05 0.043474477 1.8304765 0.04464904 0.00013226163 0.00028847318
7.1731806e-06 1.15239686e-07 6.903733e-06 0.009008673 0.43773672 0.009216249 2.2351627e-05 4.6493376e-05
3.885384e-06 7.4580655e-08 9.473363e-06 0.0033506495 0.06771694 0.00013156963 3.9367413e-05 8.88324e-06
3.6835488e-06 5.8557706e-08 9.70231e-06 0.002844878 0.07905391 0.002461164 2.4987548e-05 2.3504623e-05
2.9700504e-06 3.611221e-08 4.890517e-06 1.7046637e-05 3.573974e-05 2.7571956e-05 1.3817414e-06 2.7327917e-06
1.2197424e-05 1.2772891e-07 8.841535e-06 0.05460098 2.4310124 0.045529738 0.00015033972 0.00017936245
1.8697358e-05 2.4277028e-07 1.930953e-05 0.025833031 1.3201205 0.031010037 8.1923055e-05 0.00013231733
2.5022366e-05 5.0121514e-07 3.390784e-05 0.111011334 5.705252 0.1333894 0.00029907326 0.00047319592
3.0092411e-05 4.9733893e-07 4.916263e-05 0.072009705 3.4620178 0.07863127 0.0002819163 0.00034208997
2.7215349e-06 3.1153096e-08 2.596613e-06 1.082227e-05 4.569386e-06 8.375832e-06 9.269768e-07 9.41999e-07
1.4500663e-05 2.3727306e-07 1.2144343e-05 0.057830732 5.29443 0.16845562 7.778901e-05 0.00043606272
1.839523e-05 3.6464436e-07 1.3099852e-05 0.0001680319 0.0032384444 0.0009667827 7.6140445e-06 7.82649e-05
5.2567717e-05 3.8458646e-07 1.652322e-05 0.0018992416 0.07501033 0.00700045 1.9910007e-05 0.00016170714
3.9914676e-06 2.2595511e-08 3.4044962e-07 4.2673797e-05 0.0011510067 0.00013494802 4.672004e-07 4.992226e-06
5.3723288e-05 5.0360444e-07 2.6639778e-05 0.08065691 7.729556 0.26201895 7.666243e-05 0.00067520305
7.924801e-06 7.054244e-08 4.408074e-06 0.00020586158 0.008289992 0.00080622255 4.0319997e-06 2.220065e-05
7.150289e-06 1.0845141e-07 1.0164327e-05 0.00016698898 0.016965251 0.0013720017 2.9819805e-06 4.310712e-05
3.114908e-05 2.3910795e-07 1.6099133e-05 0.0869523 10.737382 0.38027704 5.823614e-05 0.0008931456
3.310535e-05 4.9043985e-07 3.3502638e-05 0.11386807 6.0314236 0.1501497 0.00022517766 0.0005054933
5.91731e-05 3.8349916e-07 1.9510857e-05 0.035500318 1.4371158 0.025536204 5.891656e-05 0.0001825638
2.9540244e-05 2.9897708e-07 2.1784363e-05 0.08987769 12.232329 0.45318428 8.603602e-05 0.001038773
00000000: 1278 ef35 c0f5 f632 7975 4036 5a86 0036
00000010: 647e a433 40fb 9336 7838 f433 747a 6135
00000020: d817 2e38 7a3d 9135 fd33 5338 8181 523e
00000030: 314f a341 db39 2d3f f3bc 9339 61d6 ee3a
00000040: 55ba 0437 fa49 e533 39c6 d136 7c92 873d
00000050: e609 5740 24da aa3d 63de bd38 3578 8439
00000060: 52c1 af37 5b60 8b34 7e8d de37 06d9 113d
00000070: b4eb c63f 693f 073d 3a12 1239 f6cf 2139
00000080: c0bc 4e38 25fc 0035 ff2e 4038 4486 3e3e
00000090: 45db 1141 3033 573e acd9 aa39 8a3a 403a
000000a0: 4ef1 7337 30ff c534 ea7e 6437 bcee ac3d
000000b0: e245 0a41 b20b 973e 937c 9438 d6fa 483a
000000c0: cc81 d337 fff9 be34 c423 9737 2532 9d3c
000000d0: 14be a73f 4263 1d3d 2076 c038 4afc 6139
000000e0: 155a 9f36 6bfb 4f33 a8b3 b136 056d 0137
000000f0: 62ed 2837 14a1 f337 504c b135 5390 5f36
00000100: f85d 4a37 6d2c 4e34 851a 9d37 e557 b03d
00000110: d3cd a440 b04b 063e d13a 4e39 d14e cf39
00000120: 276a 3336 64f6 be32 d88e a535 618f 3137
00000130: 60a7 a835 1398 fb36 eec2 9935 2c61 9435
00000140: 788d d136 80fe b233 cb0e f236 fef5 9837
00000150: 4ba1 1538 0f50 8b38 6140 1836 36d7 1d37
00000160: 7ed5 e237 51c1 0735 cabb 0c38 4b12 323d
00000170: 0e4d ea3f e9e1 363d b6af 0a39 373e 9739
00000180: 27b1 f036 b079 f733 9da6 e736 1d99 133c
00000190: 071f e03e c0ff 163c c17f bb37 e201 4338
000001a0: 325f 8236 2629 a033 c9ef 1e37 9296 5b3b
000001b0: 2eaf 8a3d f4f5 0939 701e 2538 3a09 1537
000001c0: e332 7736 e180 7b33 1bc7 2237 2271 3a3b
000001d0: 04e7 a13d 7b4b 213b 5a9c d137 cb2b c537
000001e0: 1451 4736 cb19 1b33 3919 a436 60ff 8e37
000001f0: 41e7 1538 534a e737 4674 b935 0165 3736
00000200: 8aa3 4c37 db25 0934 1b56 1437 47a5 5f3d
00000210: b595 1b40 647d 3a3d 83a4 1d39 3e13 3c39
00000220: 45d8 9c37 1856 8234 e6fa a137 cb9f d33c
00000230: b5f9 a83f c308 fe3c 1bce ab38 aabe 0a39
00000240: 1fe7 d137 3e8b 0635 4438 0e38 e959 e33d
00000250: 6d91 b640 3b97 083e efcc 9c39 4817 f839
00000260: f66e fc37 df80 0535 f933 4e38 d379 933d
00000270: b391 5d40 6e09 a13d 2ace 9339 8a5a b339
00000280: 9da3 3636 31cd 0533 7941 2e36 4c91 3537
00000290: ba52 9936 ed85 0c37 5cd5 7835 aedd 7c35
000002a0: e047 7337 1fc5 7e34 8ebf 4b37 ebdf 6c3d
000002b0: f86b a940 a17f 2c3e a822 a338 599f e439
000002c0: 754f 9a37 57c4 c334 70c7 5b37 b831 3039
000002d0: 153c 543b b06f 7d3a 257c ff36 2622 a438
000002e0: 287c 5c38 2979 ce34 589b 8a37 f9ef f83a
000002f0: 049f 993d 0864 e53b 6a04 a737 ee8f 2939
00000300: 72ee 8536 0e18 c232 0ac7 b634 a4fc 3238
00000310: 60dd 963a d580 0d39 89d3 fa34 e582 a736
00000320: f154 6138 6f2f 0735 7d78 df37 732f a53d
00000330: 8658 f740 5927 863e d4c5 a038 1c00 313a
00000340: c3f4 0437 1e7d 9733 11e9 9336 8cdc 5739
00000350: bfd2 073c ae58 533a 9d4a 8736 883b ba37
00000360: 84ec ef36 cbe5 e833 7487 2a37 c319 2f39
00000370: b6fa 8a3c bdd4 b33a 091e 4836 ebcd 3438
00000380: 12a6 0238 bf5e 8034 a00c 8737 0c14 b23d
00000390: 51cc 2b41 acb3 c23e 9442 7438 fd21 6a3a
000003a0: 99da 0a38 c5a6 0335 2f85 0c38 aa33 e93d
000003b0: 6c01 c140 d8c0 193e ab1d 6c39 1583 043a
000003c0: a230 7838 b9e3 cd34 3fab a337 c868 113d
000003d0: 69f3 b73f 4d31 d13c 2d1d 7738 996e 3f39
000003e0: 31cd f737 1983 a034 90bd b637 cb11 b83d
000003f0: 9fb7 4341 c507 e83e 3d6e b438 7027 883a

exp_avg f4 [128]
-6.605246e-12 6.814966e-05 1.8518185e-05 -1.3772097e-05 2.465624e-05 4.887042e-05 -1.8814073e-05 -1.7257439e-12
-2.3166227e-05 1.4186459e-12 3.4529313e-11 6.5648646e-06 4.136841e-06 3.5393756e-14 -1.3884789e-05 4.2328038e-12
4.559063e-06 6.480601e-06 -1.1357763e-05 -6.954077e-06 2.3812473e-13 3.295138e-05 -9.0384574e-08 1.954288e-05
2.0825407e-06 4.287973e-05 -5.791181e-06 4.2623938e-06 5.0064675e-05 -1.0759361e-05 -1.8414004e-06 5.9337737e-05
6.7860994e-05 -8.602613e-14 -1.5797487e-12 3.4526212e-05 7.832618e-13 9.395503e-06 -2.798724e-05 7.2683724e-05
1.683313e-13 1.5349558e-07 3.0217737e-07 1.6032976e-05 -1.5855531e-13 -1.9123322e-08 9.766148e-06 3.8549057e-05
-8.5234936e-10 6.139746e-14 -4.325949e-06 -4.200429e-13 5.4704862e-05 1.2157784e-05 3.4676745e-05 -6.992681e-12
1.4855088e-06 -7.1900945e-06 -1.4153242e-12 -3.8778432e-14 3.6918937e-05 -4.0012907e-05 -9.384439e-06 -4.336444e-14
4.1251304e-05 3.3693985e-05 9.112846e-13 1.0468168e-07 3.5886827e-05 2.1840627e-13 6.662666e-14 -1.1480601e-05
7.096949e-10 1.6138418e-05 7.382206e-06 -2.4167656e-12 1.3335131e-05 -1.3093583e-12 3.4165924e-11 3.680078e-05
1.6218524e-05 1.8282577e-05 1.2566547e-05 2.8932534e-13 -4.4137784e-13 5.3299867e-05 -1.0057963e-05 3.4191362e-05
5.0449155e-05 -2.9864808e-05 8.380972e-06 5.3415417e-05 -5.1070576e-10 4.150296e-05 1.1745449e-12 -3.8957557e-12
2.9861845e-05 3.9465792e-10 3.3783806e-05 4.5195826e-05 2.4395025e-05 -1.461369e-12 4.1811818e-05 1.7314046e-12
-6.7543783e-07 -1.0815376e-12 1.5461094e-12 5.1642022e-05 4.8179794e-05 4.919324e-05 -3.8439358e-13 9.115794e-12
2.8748627e-05 8.742414e-07 -6.4352806e-10 7.8706697e-10 2.0310552e-12 -2.915537e-11 2.5056686e-12 4.479682e-06
-2.915411e-06 6.0862243e-05 -2.5623747e-13 1.4349819e-05 -1.0134203e-05 7.8472964e-05 -4.4496714e-14 -6.736922e-13
00000000: c466 e8ac 92eb 8e38 8057 9b37 b50e 67b7
00000010: dfd4 ce37 37fa 4c38 ead2 9db7 7ae0 f2ab
00000020: 1855 c2b7 1ba8 c72b 8ddc 172e c247 dc36
00000030: 32cf 8a36 3966 1f29 b7f2 68b7 b5ed 942c
00000040: 0efa 9836 f073 d936 388d 3eb7 1157 e9b6
00000050: 640d 862a 4635 0a38 7219 c2b3 04f0 a337
00000060: c7c1 0b36 c2d9 3338 de51 c2b6 af05 8f36
00000070: 89fc 5138 1b83 34b7 0926 f7b5 69e1 7838
00000080: 9850 8e38 b0b6 c1a9 7254 deab 3dd0 1038
00000090: f677 5c2b 61a1 1d37 24c6 eab7 c76d 9838
000000a0: 3286 3d2a 8bd0 2434 f13a a234 8e7e 8637
000000b0: 7584 32aa a144 a4b2 49d9 2337 bcaf 2138
000000c0: c14a 6ab0 3a41 8a29 9e27 91b6 9076 ecaa
000000d0: e672 6538 49f9 4b37 df71 1138 7908 f6ac
000000e0: b261 c735 7142 f1b6 6e30 c7ab 7da4 2ea9
000000f0: 68d9 1a38 88d3 27b8 dc71 1db7 cc4b 43a9
00000100: 4005 2d38 a452 0d38 7d40 802b 5dcd e033
00000110: 3085 1638 52e7 752a a807 9629 ce9c 40b7
00000120: 5714 4330 fd60 8737 abb4 f736 9410 2aac
00000130: f4b9 5f37 9b46 b8ab 6943 162e 895a 1a38
00000140: 040d 8837 895d 9937 e9d4 5237 2de0 a22a
00000150: 4079 f8aa 4c8e 5f38 9fbe 28b7 b268 0f38
00000160: 5e99 5338 3086 fab7 009c 0c37 5e0a 6038
00000170: b961 0cb0 7713 2e38 714d a52b d911 89ac
00000180: d37f fa37 2af7 d82f 16b3 0d38 a690 3d38
00000190: eba3 cc37 5eab cdab 195f 2f38 6dac f32b
000001a0: bc4f 35b5 8036 98ab 7698 d92b 339a 5838
000001b0: a914 4a38 d754 4e38 f464 d8aa e35d 202d
000001c0: 3529 f137 69ad 6a35 43e4 30b0 ea58 5830
000001d0: 3dec 0e2c 073a 00ae 1d52 302c 2d50 9636
000001e0: 61a6 43b6 5646 7f38 b63f 90aa 01c0 7037
000001f0: 1206 2ab7 da91 a438 3865 48a9 a4a0 3dab

exp_avg_sq f4 [128]
1.1499969e-07 4.328494e-06 4.27084e-07 1.038435e-06 1.9220251e-06 1.4751913e-06 1.4228862e-06 1.9369844e-07
7.680563e-07 8.892383e-08 3.3340257e-07 2.0229093e-06 4.609587e-07 2.9832262e-07 2.3423082e-07 1.4444883e-07
5.1091564e-07 9.710811e-07 2.0048606e-06 1.9893557e-06 1.2461238e-07 9.490921e-07 1.4585775e-06 1.5383458e-06
9.038206e-08 2.0144182e-06 2.8216976e-07 4.3380564e-07 9.564318e-07 1.9617596e-06 1.5339964e-06 1.1959083e-06
1.3360254e-06 6.377928e-08 5.0227495e-08 9.938725e-07 5.4054276e-08 1.9384083e-06 2.501092e-07 4.392292e-06
2.6239846e-07 6.1373373e-07 1.1734658e-06 6.3412375e-07 6.051731e-08 5.855343e-07 3.6665394e-06 1.2679621e-06
1.1968749e-06 3.0229092e-08 4.8674866e-07 2.3769147e-08 1.299205e-06 3.39728e-07 1.1470534e-06 4.1608098e-07
5.562835e-07 1.8335205e-06 1.5436291e-07 5.6757422e-08 7.7635286e-07 2.755771e-06 1.2830906e-06 1.09382825e-07
1.6047443e-06 2.9342254e-06 5.116515e-08 7.366618e-07 3.8325388e-07 3.5997687e-07 4.0858147e-08 6.5189545e-07
1.6356178e-06 7.857277e-07 5.9014724e-07 1.7528973e-07 8.388034e-07 2.5371847e-07 5.2492663e-07 1.4696831e-06
9.000175e-07 3.0124312e-07 2.3060818e-06 3.27987e-07 5.635426e-08 6.7726705e-07 8.7973046e-07 4.6409545e-07
2.9812186e-06 7.0599976e-06 1.0842477e-06 1.2283575e-06 4.920991e-07 1.2685138e-06 1.3206032e-07 1.8084876e-07
7.8524147e-07 3.0793499e-06 2.5515317e-07 2.5574693e-07 5.026878e-07 1.2213657e-07 8.8701506e-07 3.1007255e-07
3.286783e-07 3.141472e-08 1.06172756e-07 3.3208173e-06 3.6612535e-06 1.5885367e-06 2.825111e-07 9.690026e-08
7.69967e-07 1.6489374e-06 9.58823e-07 1.0826336e-06 1.6263733e-08 1.1744711e-06 1.8257305e-07 4.6699824e-07
1.163542e-06 2.9673163e-06 2.7059005e-07 4.001294e-07 3.473194e-07 4.666258e-06 4.3238792e-08 5.55855e-08
00000000: c0f5 f633 7b3d 9136 fa49 e534 5b60 8b35
00000010: 24fc 0036 30ff c535 fff9 be35 6cfb 4f34
00000020: 6d2c 4e35 64f6 be33 80fe b234 51c1 0736
00000030: ae79 f734 2629 a034 e180 7b34 cb19 1b34
00000040: db25 0935 1856 8235 3e8b 0636 df80 0536
00000050: 31cd 0534 1dc5 7e35 57c4 c335 2979 ce35
00000060: 1018 c233 712f 0736 1e7d 9734 cbe5 e834
00000070: bf5e 8035 c6a6 0336 b7e3 cd35 1983 a035
00000080: 7c51 b335 08f7 8833 b7b9 5733 3365 8535
00000090: 4e29 6833 9a15 0236 bf46 8634 8061 9336
000000a0: c5df 8c34 76bf 2435 fa7f 9d35 a738 2a35
000000b0: bef5 8133 9c2d 1d35 ab0e 7636 d92e aa35
000000c0: 4fa4 a035 3dd5 0133 1da9 0235 e82c cc32
000000d0: 5860 ae35 dc63 b634 74f4 9935 bc61 df34
000000e0: 8353 1535 4917 f635 f4be 2534 72c5 7333
000000f0: 9066 5035 c9ef 3836 a836 ac35 d8e5 ea33
00000100: 9862 d735 9ce9 4436 adc0 5b33 03bf 4535
00000110: 03c2 cd34 d842 c134 027c 2f33 eafd 2e35
00000120: 6687 db35 ccea 5235 9c6a 1e35 4637 3c34
00000130: 212a 6135 cd36 8834 afe8 0c35 ed41 c535
00000140: bb98 7135 8aba a134 2fc2 1a36 3116 b034
00000150: 2a0a 7233 70cd 3535 9e26 6c35 cb28 f934
00000160: f210 4836 ebe4 ec36 7886 9135 0bde a435
00000170: cb18 0435 cd41 aa35 77cc 0d34 542f 4234
00000180: 62c9 5235 d4a6 4e36 fcfb 8834 974d 8934
00000190: 71f0 0635 a524 0334 361b 6e35 0c78 a634
000001a0: 3475 b034 daec 0633 1701 e433 35db 5e36
000001b0: dbb3 7536 b535 d535 08ac 9734 7b17 d033
000001c0: bbaf 4e35 0f51 dd35 e8b0 8035 024f 9135
000001d0: 54b4 8b32 85a2 9d35 4c09 4434 c0b7 fa34
000001e0: 002b 9c35 1b22 4736 9d45 9134 5ed1 d634
000001f0: 3777 ba34 da92 9c36 8eb5 3933 e7bc 6e33
