Assets/results/RollerBall/RollerBall/RollerBall-25800.pt (torch, 448281 bytes, 36 tensors)

network_body._body_endoder.seq_layers.0.weight f4 [128, 8]
00000000: 85ac cdbe 3925 9d3e cace 84be 21a1 983e
00000010: 0c7a 4f3e ef72 943d 208a 8c3e 08ac 2f3e
00000020: 2d11 1cbe bd55 58be 9cd3 ec3d d607 6ebc
00000030: 0973 07bf 40af 01bf e6d1 cf3e d54a b5bd
00000040: abee f73c 679e b7be 82c3 01be 3076 ecbe
00000050: e2fa 643f 829b 433c d597 8d3e 68b8 d73d
00000060: 8b60 673f 74b5 81be 79a1 36bf 3549 a63b
00000070: 768b d0be c924 bc3d 6d45 3c3c 20c7 ffbe
00000080: 7dde df3e 8359 c1bd a72a 9b3d 53c5 2cbf
00000090: 4828 bebd 2051 18bf b643 703c c170 fe3d
000000a0: 6c6f b73e 3fcb eabd a032 cbbd fa43 88be
000000b0: e2cd eabe 58db c0be af7d 853f 98c4 a0be
000000c0: 2c8d 343d 7384 833e 7fc3 463f 4cb7 87be
000000d0: 2b9e 43bd 870f 8fbd 58fb 2ebd 2c0c 44be
000000e0: 52cb db3e 7af6 c13e e4de 13bd 68e7 c5be
000000f0: b3b9 47bf 7a25 0cbd 3a82 0b3e f814 e63d
00000100: 1c49 c73e 2992 5a3f a770 b43d c1b5 58be
00000110: 439d 3cbe fb3b 0b3f 9ab4 ee3e 1273 a3be
00000120: 9ad0 ddbe b946 aa3e b3f1 15be 261b 293e
00000130: 5dbe 593f 4f4d 423e 3857 cfbe 02c4 73be
00000140: 6cae fa3d 5b53 ed3d 9e02 443f bca8 9f3e
00000150: f805 b33e 2c69 883e 9191 8e3e 043a c73e
00000160: ec16 69be baa5 ca3d 961e f4be d4b1 15be
00000170: 0ed4 4dbf 15f8 9f3e 8a82 483e d29a 4ebe
00000180: af65 0f3d 3e05 bebd 2638 173e ab14 b8be
00000190: 420f 1b3d e81a 913e 700e 8b3d 0448 2abe
000001a0: 006f 97be ff6f 1b3c 4df3 153e 5c42 50be
000001b0: bfde 01bf 5ac2 623e b0bf a73e 0ec3 a4be
000001c0: be7c 383e ddbc e5be 3bd3 b3be 9d60 973e
000001d0: 58f9 803e 7085 f83d 12a5 dcbe 12e6 a8be
000001e0: d55d 98be 3b1c 033d 4408 3a3f 7231 43be
000001f0: 1581 8d3f 0f13 d13e 4086 043e 7d40 ec3d
00000200: 63bb b8bd 8e6c 313e bfa6 0bbd 6d83 503e
00000210: 0a51 2cbf f255 df3c e550 f6bb 7f8f a43d
00000220: 0de1 02bf a759 4fbe 5a50 b6bd a3ed d13e
00000230: 9fbd 0cbe c5fb 57be 4577 9a3e eebb 9bbe
00000240: 059b fabe d92d b9be b219 19be 4de4 9abc
00000250: 4b94 62bf 1be5 613d 6d71 b0bd 471f 163f
00000260: 6402 bd3d 0d95 7c3e 7e16 273f 633c 8bbe
00000270: 6d8a 3b3e ba5a 86be 1f86 3b3e cfd7 3dbe
00000280: ffdf 223e 8070 10bf 3a5c 98be 8755 1cbe
00000290: d650 0dbf b370 06be ef21 bc3e 3b56 b1be
000002a0: 99b2 803c 453d cb3e ae22 823e 9dfd b13e
000002b0: 1e80 8b3e 1139 20bf 83b2 d7bb 373b cabd
000002c0: 1948 cc3e a03f 26bd 4bb0 a6be 7f3f 8c3e
000002d0: 3847 863e 426c 1e3e 4b51 073f 557e a43e
000002e0: 30ad ecbe 4e37 27bf 78dc 653e 0c3b a63e
000002f0: 17d7 0ebf c079 903d e175 d43b 8a07 efbe
00000300: 5771 c83e 9b59 613e 9365 81bd dc03 46be
00000310: 00f7 49bf 4a25 08be b6bb 7b3e 49eb 93be
00000320: ee0d 2b3d 3753 5a3c 4b5a 7d3f 4603 943e
00000330: 6e2b a73e f8f6 26be dc20 a9be f210 033f
00000340: ecc9 cb3e c19e 393e b5df 263f 6b32 f0be
00000350: d558 05bf d1a0 03bf e204 85be 7147 bdbe
00000360: 32ad ff3e 65d2 a5be 3815 a33e 9d59 60bd
00000370: 99df ddbe a41f 2bbe 5339 dd3e fc22 a43e
00000380: 0d10 dc3c 1bac 043d d343 d53e e5fe 573e
00000390: 499a e6be b863 34bf d6fa 82be e27c 1dbf
000003a0: 4fba d53d 968e 72be 57c3 223f 82e2 d8be
000003b0: b8ca ba3e 753b 22be b1aa b2be e027 c93e
000003c0: 0a8e 4abf e5af c6be 055e cd3e 580d 2fbe
000003d0: 1efb acbe 6cf0 69be a150 8bbc 4426 453e
000003e0: 39d1 f0be 92d9 7ebe 8dfd b2bd 9b80 d5be
000003f0: e798 91be 29f2 b1be 01ea 473e 95ba 563e
-0.40170684 0.3069246 -0.25939018 0.29810432 0.20261401 0.07248484 0.2744913 0.17155468
-0.15240927 -0.21126457 0.11563799 -0.014528235 -0.52909905 -0.50658035 0.40589827 -0.08852164
0.030265173 -0.3586304 -0.12672237 -0.4618392 0.89445317 0.011938931 0.276549 0.105332196
0.9038169 -0.2533375 -0.7134014 0.005074645 -0.407314 0.09186704 0.011491162 -0.49956608
0.43724433 -0.09440901 0.07576495 -0.6748859 -0.09285027 -0.59498787 0.014664581 0.1242385
0.35827196 -0.11464547 -0.09921765 -0.26614362 -0.458602 -0.37667346 1.042898 -0.3139999
0.044079944 0.25686988 0.77642053 -0.26507032 -0.047758263 -0.069853835 -0.04272017 -0.19145268
0.4292856 0.3788336 -0.036101237 -0.3865311 -0.7801773 -0.034215428 0.13623896 0.11234468
0.38922966 0.8537927 0.08810549 -0.21163084 -0.18419366 0.543884 0.46622163 -0.3192373
-0.43323213 0.33257082 -0.14642982 0.16514263 0.85056096 0.18974803 -0.4049623 -0.2380524
0.122402996 0.115881644 0.76566494 0.31183422 0.3496549 0.2664274 0.27845433 0.3891145
-0.2276265 0.09894891 -0.47679585 -0.14618617 -0.80401695 0.3124396 0.19581047 -0.20176247
0.035009082 -0.092783436 0.14767513 -0.35953268 0.037856348 0.2834084 0.06789863 -0.16629034
-0.29576874 0.009487151 0.14643593 -0.20337814 -0.5073051 0.22144452 0.32763433 -0.32180065
0.18016335 -0.44870654 -0.35122094 0.29565898 0.25190234 0.12134826 -0.4309469 -0.3298803
-0.29759088 0.032009345 0.7266886 -0.1906183 1.1055018 0.40834853 0.12941837 0.11535738
-0.09020116 0.17326567 -0.03409457 0.20362635 -0.67311156 0.027262662 -0.0075169676 0.08035182
-0.5112465 -0.20249043 -0.089020446 0.41001615 -0.1374421 -0.21092136 0.3016912 -0.30416816
-0.48946396 -0.3616779 -0.14951208 -0.01890769 -0.8850753 0.055150133 -0.08615384 0.58641475
0.092289716 0.24666233 0.65268695 -0.2719451 0.18314524 -0.26241094 0.18312882 -0.18539356
0.1590576 -0.5642166 -0.29757863 -0.15267001 -0.5520147 -0.13128929 0.3674464 -0.346361
0.015710162 0.39695182 0.25417084 0.34763804 0.27246183 -0.62587076 -0.0065825596 -0.098745756
0.39898756 -0.04058802 -0.32556376 0.27392194 0.2622621 0.15470985 0.5285842 0.32127634
-0.46225882 -0.65318763 0.22447383 0.32466924 -0.5579695 0.07054472 0.006483779 -0.4668544
0.3914897 0.22006838 -0.06318202 -0.1933741 -0.7889252 -0.13295475 0.24583325 -0.28890446
0.04176133 0.013325504 0.989659 0.28908747 0.32650322 -0.16305149 -0.33032882 0.5119773
0.39802492 0.18126966 0.651851 -0.46913466 -0.5208867 -0.5141726 -0.25980288 -0.36968568
0.49936825 -0.3238708 0.31852126 -0.054772962 -0.43334654 -0.16711289 0.43207797 0.3205794
0.026863122 0.032390695 0.41653308 0.21093328 -0.45039585 -0.7046466 -0.25581998 -0.6151868
0.10435926 -0.23687205 0.63579315 -0.42360312 0.36482787 -0.15842994 -0.34895852 0.39288235
-0.79122984 -0.38806072 0.40110794 -0.17094934 -0.33785337 -0.2284562 -0.01700622 0.19252878
-0.47034624 -0.24887684 -0.08739767 -0.4169968 -0.28436968 -0.34755066 0.19522859 0.20969613

network_body._body_endoder.seq_layers.0.bias f4 [128]
00000000: 6e6a ce3c d007 323d acde 273b 65de 9d3c
00000010: b792 183b 0864 e63b 5289 cd3b ca12 1d3d
00000020: 7a86 ce3c 03f7 e3bc e942 273c 08fe 9a3c
00000030: 2fb2 f0bc aa43 833c d50f 303c 9faa ac3b
00000040: a816 9f3c 9023 4a3c 6632 803c 8d39 aaba
00000050: cd79 4b3d 52ff 43bc 4a58 963c ed85 d13c
00000060: ca83 0b3d e93f e93b 9b10 243d 3007 843c
00000070: d58e a93c 35dd a8bb 1440 833b 66e1 2e3d
00000080: b4ee f8bb 519c 2d3c 56db c33c 9fad 0b3b
00000090: 4984 15bc 1c40 be3c fd71 073c 1e52 e93b
000000a0: 711b 49bc f869 293d 4e4c 273c 0a04 fbbb
000000b0: c263 873c 875b 8dbc 7dfb a03c 96ae 82bc
000000c0: fb06 533d 4848 11bd 230a 1f3c 710f 65bb
000000d0: 3703 10bd 6f7a d83c b320 15bc 1e6e 103d
000000e0: c727 b93c fdbe 193d 6eb3 803c a411 07bc
000000f0: 505f 2d3d d772 84bc 40be 62bc d37d 303d
00000100: 1031 783a 102b 2c3d cf8d ea3c 2205 0abc
00000110: a09a 47bb 05f0 1c3d 00cc df3c 09d6 b7bc
00000120: d0c7 07ba 2ce3 e73c f760 ed3c d52f abb9
00000130: c08b ec3c e339 2abc ef2f 803d eb7e 603d
00000140: 41d1 b63c be25 603d 6262 e13b cac7 0cbc
00000150: 52bf 9e3c d611 233d 98f4 1c3d c97a 6d3d
00000160: 315c 823c 7412 043d a378 493d 6c1a 3bbc
00000170: 6554 ea3c d093 003d 6c2e a63c 7a16 363d
00000180: bf87 bf3c 751c 1f3a ae1e 0c3d 388d dcba
00000190: d465 783c a328 de3b f684 ca3c e9c3 da3c
000001a0: 19ee 043d d8c6 903c 0b7d 30bc e3b0 933c
000001b0: 1a7e 4fbc 24c0 3cbc e25e 34bb e5ac cd3c
000001c0: e356 17bc 31bc 983c 9aa6 3fbc 6de3 163b
000001d0: 0ae7 c2bb 7bb0 2d3d 4baa 323c 5a87 143d
000001e0: 6629 f0bc 198f 9a3c 7061 da3a 608b 653b
000001f0: 5b34 a93c 713b 0ebd 58d8 e9bc 14a9 e2bc
0.025197234 0.04346448 0.00256149 0.019271085 0.0023280808 0.0070309676 0.0062724734 0.038347997
0.025210608 -0.027827745 0.010208824 0.01891996 -0.02938184 0.016023476 0.010745962 0.005269363
0.019419983 0.01233758 0.015649032 -0.0012987122 0.049676705 -0.011962729 0.018352646 0.025576556
0.03406123 0.0071182144 0.0400549 0.016116709 0.02069799 -0.005153323 0.0040054414 0.042695425
-0.007596815 0.010596351 0.023908298 0.0021313203 -0.0091257775 0.02322393 0.008266923 0.007120385
-0.012274609 0.041360825 0.010211064 -0.0076603936 0.01652706 -0.017255558 0.019651169 -0.01595239
0.05152033 -0.035469323 0.009707007 -0.003495183 -0.035159316 0.026425568 -0.009102034 0.035261266
0.022601975 0.037535656 0.015710559 -0.008243952 0.042327225 -0.016168041 -0.013839304 0.043088745
0.000946776 0.042033255 0.028632073 -0.008424075 -0.0030457154 0.038314838 0.027318954 -0.022440927
-0.00051796157 0.028306566 0.0289769 -0.000326513 0.028875232 -0.010389778 0.062591426 0.05480854
0.022316577 0.054723494 0.006878183 -0.008592555 0.019378338 0.03981193 0.0383192 0.057978425
0.0159131 0.03224416 0.049187314 -0.011419874 0.028604696 0.031390965 0.020285808 0.04445503
0.023380158 0.0006069609 0.034208946 -0.0016826754 0.0151609965 0.0067797466 0.024721604 0.026704745
0.03245363 0.017672941 -0.010772 0.018028682 -0.012664342 -0.011520419 -0.0027522375 0.025106857
-0.009237024 0.018644424 -0.011697436 0.002302374 -0.005947952 0.042404633 0.010904859 0.036261894
-0.029316615 0.018867062 0.0016661119 0.00350257 0.020654848 -0.034724656 -0.028545544 -0.027668513

network_body._body_endoder.seq_layers.2.weight f4 [128, 128]
00000000: 89a8 c5bd dadd c5bb 58e1 36be 4e8e 033e
00000010: cc6d 7f3d fe11 903d be88 a33d 751e 9bbd
00000020: d204 bc3a 246f c63c f9be cb3d 08e2 f7bd
00000030: 70ae f43c 50ff 39bd 8d3a 72bd a0d2 b7bd
00000040: d3ef 3fbd a6ec af3a 79e4 dcbd 22c0 62be
00000050: 2a84 57bd e3c6 9e3c aa4f 5dbe af98 2fbd
00000060: b4df 03be 6744 95bd c388 433d 2725 8fbc
00000070: 1666 753d 2cbb 18bc 0cf7 083e 8bda e53d
00000080: 2ef3 403e 2184 8cbd f67e 8fbd d626 8bbc
00000090: 9ff2 36bd f6f8 63bd 0e22 88b9 f9a4 133d
000000a0: 8059 2fbd 3bd3 8ebd 73b8 a53d 5dc9 a53d
000000b0: b99f da3c 3dc0 bdbc 57fd 36bd a521 81bd
000000c0: 5f58 97bc a634 bb3d e9d4 1fbe 1630 8a3d
000000d0: 2bd1 9d3d 8a30 9c3d f691 87bd 0b53 053c
000000e0: 906f acbc 3c7e 10be 4388 32bd f0e6 e9bd
000000f0: 09ef e8bd be13 6f3d 2c71 c13d fdca 19bc
00000100: 5152 47be 9850 d4bd a53d 9e3c 2911 b7bd
00000110: bc97 4cbc 9047 07be 20ca ac3c 508b fbbb
00000120: cb9e 99bd 8762 54be fb51 cb3d db71 07be
00000130: 0990 8d39 562e 2c3e 4685 d73d be6f 21bc
00000140: 8625 53bd 1c74 8a3c f3e9 1d3d 39a5 a0bd
00000150: 2816 233e c1df b0bd b1c8 6a3d 1089 a8bd
00000160: b8a9 0c3c 1df3 803b 5e1d 893d 8bb2 80bc
00000170: 3df9 153e a002 e1bd 8245 97bd ed19 593e
00000180: 15b1 bcbd 1053 95bd 1e21 41bc 46ac a23d
00000190: 5966 713c d28f 9cbd 2aaf 52bd a111 8dbd
000001a0: aada e8bd 309e 123e e151 273e b83a 5abd
000001b0: 7979 8b3d 2462 ed3d 6d42 04be 19e2 e2bc
000001c0: bf9d 423c 627c 4cbe 44fa a1bd 5600 4e3d
000001d0: 56f5 07be b7ff c13c 5341 48bd d6eb 08bc
000001e0: 0c3a 51bc 6360 b4bd 5439 7b3d f4d2 84bd
000001f0: 7026 073e 93af 2c3d 8003 b1bd 01e4 02bd
00000200: 86c2 e8bc ce98 33bd d32e 133d b389 ba3c
00000210: 2dc4 c73c 07fb cebd 809b 5a3a 4044 4a3e
00000220: f02a 5a3d a553 dcbd b864 2a3e 23a6 78bc
00000230: 92ae 05bd bc3e 103e fc7f 793c 6dff 74bc
00000240: abbc a63d 34cb 243e 63dd f13d a9f1 90bd
00000250: f25f b33d fb25 38bd 7dab 44be 77ae df3d
00000260: 408b 9e3d 9011 563d 55af 0cbc 7b3b 15bc
00000270: 3961 95bd fb65 1a3d a22e d43c d4ad cf3d
00000280: 93ae be3d f49c 643b 85d2 f9bd fc5c 40be
00000290: 9fcd 473c 7ef5 863d 707f db3d 24c1 3a3d
000002a0: 2e2f dbbc 9151 b83d a2b2 f03b b0f1 e2bc
000002b0: acaa 903d 0da0 88bd 891d 213e c4eb 9a3d
000002c0: 0765 453e 292c 54bd 7baf 26bd 1e00 143e
000002d0: c9dc 21bd e57d 3e3e 5824 edbd a53a 573e
000002e0: 040a 2abd fb78 c03d c646 f03d ca05 0bbd
000002f0: 38cc 8d3e 0c5b 383b 085c bc3d a973 2a3d
00000300: 001a 593d 1d47 cb3d e134 ed3c 1c33 143d
00000310: 73d8 df3d 6e64 273e 6a57 df3d 8574 59bd
00000320: 315f 2a3d 72b3 1d3e 97dd 1c3e 454d 8bbc
00000330: ecfe 973d dd07 bf3d 6db3 773d f705 74bc
00000340: 613f 053e e3bb 743e a356 1e3d 3f0c fc3d
00000350: ba47 083e 57ba 063e df22 e43d 01b6 133e
00000360: 4af2 7b3c 5b73 ab3d 016c 403d f232 533d
00000370: a07f 343b 4079 57bc ad75 c53d 6408 f83d
00000380: 0869 023e c029 b8bd 8d1b 743d 653c ed3c
00000390: 43c8 d93d b487 0fbd 1a70 223e ed2b 453e
000003a0: 86fa 073e 2709 0ebd f2a9 b13d 4d1b b13c
000003b0: 7b00 8e3c 7364 b0bd f684 dcbd 7053 c73d
000003c0: cc06 a3bd 0fae 7d3d 6d64 fd3d 1d6b b43d
000003d0: ec27 fd3c 1604 aebc 4989 2b3e 61f4 563e
000003e0: cc05 963d de14 c0bc 12f5 e33c 706b 0d3e
000003f0: 12cc 6b3d f2a2 c23c 258a e93d 079e 233d
-0.09651286 -0.0060384097 -0.178594 0.12847254 0.06236057 0.07034682 0.07985066 -0.075741686
0.0014344698 0.024222918 0.099485345 -0.12103659 0.029868335 -0.0454095 -0.05913787 -0.089757204
-0.046859574 0.0013421967 -0.10785765 -0.22143605 -0.052616276 0.019381946 -0.2161242 -0.04287022
-0.12878305 -0.07288437 0.047737848 -0.01747377 0.05991181 -0.009321969 0.13375491 0.112233244
0.18842766 -0.06861139 -0.07006638 -0.016986292 -0.044664975 -0.05565735 -0.00025965314 0.036046002
-0.042809963 -0.06973883 0.080918215 0.080950476 0.02668749 -0.023162955 -0.044675197 -0.06305245
-0.018474756 0.09140901 -0.15608563 0.06747453 0.07705911 0.076264456 -0.06619637 0.008137475
-0.02104929 -0.14110655 -0.04358698 -0.11421001 -0.11373717 0.058368437 0.09445414 -0.009386775
-0.19464995 -0.103669345 0.019316504 -0.0893882 -0.012487348 -0.13210893 0.021092474 -0.0076765195
-0.075009905 -0.2074071 0.09927746 -0.13227026 0.0002700093 0.16814551 0.10523467 -0.009853302
-0.051549457 0.016901068 0.03855319 -0.07844014 0.1592642 -0.08636428 0.0573203 -0.082292676
0.008585386 0.0039352314 0.066950545 -0.015710136 0.14645858 -0.10986829 -0.073863044 0.21201296
-0.09213463 -0.072912335 -0.011787681 0.07943015 0.014733874 -0.07644619 -0.05143658 -0.06888128
-0.11369832 0.14318156 0.16339828 -0.053278655 0.068102784 0.115909845 -0.12915964 -0.027695702
0.01187843 -0.19969323 -0.079090625 0.05029329 -0.13277182 0.023681505 -0.048890423 -0.008357009
-0.012770187 -0.08807447 0.06133397 -0.064855486 0.13198256 0.042159628 -0.08643246 -0.031955723
-0.028413069 -0.043846898 0.035933327 0.022770738 0.024385536 -0.101064734 0.00083392113 0.19752598
0.053263605 -0.107581414 0.16639984 -0.015176329 -0.032637186 0.14086431 0.015228268 -0.014953476
0.08141454 0.16093141 0.11809804 -0.07077343 0.087585345 -0.044958096 -0.19206043 0.109219484
0.077414036 0.052262843 -0.008586724 -0.0091084195 -0.072939344 0.037694912 0.025901143 0.10140577
0.09310641 0.003488359 -0.121983565 -0.1878547 0.01219502 0.06589793 0.10717666 0.04559435
-0.026755895 0.089999326 0.0073455134 -0.027703136 0.07063803 -0.06671152 0.15733923 0.075645
0.1927682 -0.051799927 -0.040694695 0.1445317 -0.039517198 0.18602712 -0.11579198 0.21018465
-0.041513458 0.09398075 0.11732249 -0.033941068 0.2769487 0.002813044 0.09197241 0.04161421
0.05300331 0.09925673 0.028955879 0.036181554 0.10929956 0.16346905 0.10905345 -0.053089637
0.041594688 0.15400484 0.15318905 -0.017004618 0.07421669 0.09327672 0.060473848 -0.014894
0.13012458 0.23899798 0.038656842 0.12307023 0.13308612 0.1315702 0.11139464 0.14424898
0.01537759 0.08371612 0.046978 0.051562257 0.002754189 -0.013151467 0.096415855 0.121109754
0.12735379 -0.08992338 0.059596587 0.028959462 0.106339 -0.035041526 0.15863076 0.19255038
0.13279161 -0.034676697 0.086749926 0.021619463 0.017334213 -0.08612909 -0.10767548 0.09732711
-0.07960281 0.061933573 0.1237267 0.08809493 0.030902825 -0.021242183 0.16751589 0.2099166
0.073253244 -0.02344745 0.02782682 0.13810515 0.057567663 0.023759339 0.11403302 0.03994563

network_body._body_endoder.seq_layers.2.bias f4 [128]
00000000: db4a 093a e5d3 023d 17a0 743d b717 f3bb
00000010: 05bc edbb 10d2 a8bc 48bc a33c 67bd 8dbc
00000020: a0b0 373d b8fa a93c 0098 a33b a342 15bc
00000030: a435 70bc 0a9c b039 c73b 133d 26b8 3cbc
00000040: 852b 83bc 44e0 7c3c 37d5 3abc 9e66 843b
00000050: 8bce 1fba 6088 b2ba cab9 a83c 88e0 853c
00000060: 7dcc a33b 8c05 c23c 6eba 97bb c5ff de3c
00000070: 2b96 8abc 5691 a3bb 1070 39bc 7c91 9c3a
00000080: a203 8dbb ab7e b4bb 23c5 013d da60 45bc
00000090: 0955 ffba 5e20 843b f9b3 853c 89ce 8fbb
000000a0: 9b92 36bb 4613 073d 68ff 393b a711 413d
000000b0: 8d75 053c 154f 3f3c d688 983c 948f 59bc
000000c0: abd3 f53c a392 373c e63b 173c e2a8 9cbb
000000d0: 6dca 973c 32a8 263b 6ea8 7c3c b780 33bc
000000e0: 7529 82bb 1c8a 643b d9a2 243c 59c7 bcbc
000000f0: b18c ec3b 3fca 033d 1c35 1bbc d06c 39bc
00000100: b9a1 ff39 78f1 97bc 9491 46bc b0f0 6cbc
00000110: 7bd1 5bbc 6766 acbb cf6f be3c b780 eeba
00000120: 90c0 393c 686a 1fbc 9fcf 013d bd0f 1f3b
00000130: 9878 87bc a295 0239 335f b0bc 0561 73bc
00000140: 93df be3c 6fd5 31bb e0a3 5ebc c07f 833c
00000150: d228 6bba 8ab6 a53c 8601 86bc 02b7 4f3d
00000160: adfe 5e3c 22d8 5ebc d356 31bc 6301 55bc
00000170: a0f0 0ebc 7cf0 4b3c 6100 c93c 16de e5ba
00000180: 6ebc 1b3a 67a8 6a3d 68c7 df3b 72bd 663c
00000190: 6bd9 e83a 07ce 0a3d 9e1c 39bc 3d4d 4c3d
000001a0: cb27 613b 6186 683c 0f55 823b 9d21 953a
000001b0: 8a24 283c 8a6c a6ba 68d4 3ebc a72d 193d
000001c0: 031b a73a ef73 acbc 71aa ed3c 6c38 cf3b
000001d0: 5395 a93b 6e14 08bc d170 863c d472 49bc
000001e0: 16ff a2ba 99b0 953b 0225 d03b 184e 273d
000001f0: 2301 a1bb 1f2e 013a c160 5c3c d911 7b3c
0.00052372896 0.03194036 0.059722986 -0.0074185985 -0.0072550797 -0.020607978 0.01998724 -0.017302228
0.044846177 0.020749435 0.004992485 -0.009110126 -0.014661226 0.00033685594 0.03594568 -0.011518514
-0.016011963 0.0154343285 -0.011403373 0.0040405532 -0.0006096146 -0.0013620965 0.020596404 0.016342416
0.004998742 0.023684286 -0.0046303784 0.02722157 -0.016917309 -0.0049916906 -0.011318222 0.0011945213
-0.0043034116 -0.005508264 0.031682145 -0.012047017 -0.0019480299 0.004032179 0.01632117 -0.0043886346
-0.002785838 0.032977365 0.0028380994 0.047135975 0.008145702 0.0116765695 0.018619936 -0.013278861
0.030008158 0.0112043945 0.0092305895 -0.0047808746 0.018529141 0.0025429842 0.015421016 -0.010955981
-0.003972227 0.0034872359 0.0100485915 -0.023044275 0.00721892 0.0321753 -0.0094731115 -0.011317447
0.00048757883 -0.018547758 -0.0121196695 -0.014461681 -0.013416643 -0.0052612307 0.023246674 -0.0018196319
0.011337414 -0.009729959 0.031692144 0.0024270855 -0.016536996 0.00012453509 -0.02152977 -0.014854674
0.023299968 -0.0027135273 -0.0135888755 0.016052127 -0.0008970621 0.020228643 -0.016358148 0.05071164
0.013610524 -0.013601335 -0.010823923 -0.013000819 -0.008724362 0.012447473 0.024536313 -0.00175375
0.0005940859 0.057289507 0.006829191 0.014083253 0.0017764991 0.03388789 -0.011298327 0.049878348
0.0034355994 0.014192195 0.003977425 0.0011377815 0.010262618 -0.0012697142 -0.011647321 0.037397053
0.0012749139 -0.021051375 0.029011937 0.0063238647 0.0051752715 -0.008305652 0.016411217 -0.012295444
-0.0012435641 0.004568171 0.006352068 0.04084596 -0.0049134656 0.0004927832 0.013450802 0.015324079

action_model._continuous_distribution.log_sigma f4 [1, 2]
00000000: a86c b7bb 9e6c c13d
-0.0055976696 0.09444545

action_model._continuous_distribution.mu.weight f4 [2, 128]
00000000: 7e50 003d c057 49bd 82ce 86bd 090d 083c
00000010: 65b8 833b 18cb 163c b2e7 7bbd 7764 af3c
00000020: c633 8cbd bbd0 2fbd 5227 073d c4fe 1f3a
00000030: 6b64 65bc 2bce 873c 6078 4ebd 70ce 043c
00000040: 0dfc b53a 7695 b7bc f06b e83b 7853 d0bc
00000050: 6f0a dc3b 0391 0f3d b867 1fbd d4a8 95bb
00000060: 395a 07bc cb91 38bc 53d9 bfbb 7e8c 27bd
00000070: 6d3c b73c 1509 fcba 6384 9d3b 052c 10bd
00000080: 9092 52b9 58b1 993b 93ba 8a3c a37d e73c
00000090: a91f 5bbc 8c7b 25ba 4cb0 86bc 86ad 90bc
000000a0: 2276 053d 1c64 19bd 8c98 c1bb 0ba4 89bd
000000b0: 8358 2cbb 675d 903c 8301 0bbd a0e5 4f3c
000000c0: aefb 1cbd eadd 53bc 04ee 42b9 8bb7 04bc
000000d0: 4fb5 5cbd 6c3f 493c 6efb 0fbb 28d3 823b
000000e0: 02c5 63bc ad9b 673c 2187 e0bc e239 633c
000000f0: ceef c0bb 4136 4cbd 9ef9 393c e744 f73b
00000100: 171a b1bc 5c31 64bb ade5 04bd ec20 073d
00000110: 5d2b 8d3c 75ae 613c 92ef a1bb 150d 153c
00000120: a2b1 05bc 236d 333c 4c82 33bd a7da c8bb
00000130: 1140 c43c 07f8 dcbc b688 ae3c 0986 d53a
00000140: b298 eebb 6c0c 873b 73bb 393c 0421 48bc
00000150: f176 b13b a9d1 27bd be4a 0c3d e81e 80bd
00000160: a70a d7bc 1249 6f3d df51 933c 602e 9cbc
00000170: 7b8d 9e38 3909 13bd cf6c 05bd 20bc acbb
00000180: 8b6f e1bc 8ec8 a8bd 10c8 7dbc 8fb3 00bd
00000190: c7fd 493c 3633 5cbd d4ff 50bd f246 83bd
000001a0: 4311 4a3c 42ce 56bb f1de 3e3d 2081 03bd
000001b0: 0d06 efbc 1b7a cb3c 9f41 043c f4b5 60bd
000001c0: 526d 24bb f783 ef3b e94e 01bc 1b0c a4bc
000001d0: 9795 00bd 3dc7 283b b718 2e3d 8a5e 90bb
000001e0: f0e2 803c aa7f a0bc 503d b7ba 4347 74bd
000001f0: 779f a6bc f00f bc3c 54ee 52bd 6d5e a5bc
00000200: ba09 05bc fa29 a1bd 98bc cbbd 7d59 ed3b
00000210: bd85 88bc e3cb a93b 62f7 33bd adae 543b
00000220: 990c afbd 5cd7 8fbd d0f7 6b3c c469 053c
00000230: 46d7 d4bc 4f47 e73c 5089 adbd 9069 313b
00000240: 3626 1b3c a4a0 cabd 330e 28bc 1371 5b3c
00000250: f716 293b 51b7 ccbc 5cd0 99bd 3878 553d
00000260: 425a ef3c b75b 3f3d 387c 42bb 0d1b aabd
00000270: 3872 43bd 55ff 9c3b da10 bd3c 9ad0 82bc
00000280: 70e0 1c3c 951e a13b 19e2 4e3d be2c f63a
00000290: f12c 713c 3cf8 313c 54d2 013d d08f 72bc
000002a0: a7fb 8a3c 1a4b b5bd 1298 6f3c 6aa6 f9bd
000002b0: 8d8e 0d3c e9e9 5abd 594e a5bd 3b1b b4bc
000002c0: 9e50 9ebd 7338 e23c a72a 303d d86d 413d
000002d0: 5be7 d93c 0ce0 92bc 20c8 9f3c bacc a4bc
000002e0: e96f 4c3c 1b21 ccbb c4e2 9abd 14d9 dcbc
000002f0: bc4a 813c 7cc9 adbd ea97 1b3d fa6c 143d
00000300: 16a0 28bc 90b3 91bc 717c ff3b 7cf1 f23b
00000310: d87d ee3b dbd6 73bc 698c 583c 3009 193b
00000320: 8c61 8e3c ec2d 08bb 1b2c bebd 959b 333c
00000330: d172 c6ba d7e7 20bc c0a1 71bc 9417 4d3b
00000340: 8460 243d 8f72 253b 5bfa 66bb 9a1f 783b
00000350: 8f6a a4ba 1042 92bd 7f59 a539 6941 f5bd
00000360: 59ba 67bc 3df4 e5bc 36f0 cdbb 853c 053b
00000370: 5f83 323c 8323 8bbd 0294 c1bd 166b f0ba
00000380: 7cdb bfbb f17f debd f30e 1b3d 5b5c 96bd
00000390: 71fc 243c 9e29 a7bd 5562 403c 1210 abbd
000003a0: 63ea a73c 3e03 d53c 914d 82bc be22 76bc
000003b0: 39cb be3b 1860 483d b5d1 393a 7403 adbd
000003c0: 5f68 903c 386a 73bb bcda 2d3d 834d 9ebd
000003d0: c760 4abc 0565 b73b e1ea 99bd 9e77 a0bc
000003e0: c956 b93c 3a63 99bd c260 aa3b 85fd 9fbd
000003f0: 7a70 c83b 8d99 203d eb3e 1dbd 76bf 053b
0.031326763 -0.04915595 -0.06582357 0.008303889 0.0040197843 0.009203695 -0.06150026 0.02141021
-0.068458125 -0.04292367 0.032996483 0.00061033317 -0.014000992 0.0165778 -0.050407767 0.008105859
0.0013884321 -0.022410136 0.0070929453 -0.025430426 0.006715111 0.035050403 -0.038917273 -0.004567245
-0.008261257 -0.0112652285 -0.0058547645 -0.04090547 0.02236768 -0.0019228781 0.0048070415 -0.03519823
-0.0002008176 0.0046903305 0.016934669 0.02825815 -0.013374248 -0.00063126604 -0.016441487 -0.017660867
0.032583363 -0.037448987 -0.0059080776 -0.06720742 -0.0026297874 0.017622663 -0.03393699 0.012689024
-0.038325958 -0.012931326 -0.0001858995 -0.008100401 -0.053883847 0.012283187 -0.0021969932 0.003992457
-0.013901951 0.014136237 -0.027408184 0.013868781 -0.005887962 -0.049856428 0.011351017 0.0075460556
-0.021618886 -0.003481946 -0.0324456 0.03299038 0.017232591 0.013774504 -0.004941889 0.009097357
-0.008160027 0.010951313 -0.043825433 -0.006129581 0.02395633 -0.026973737 0.021305423 0.0016290556
-0.0072813863 0.004121354 0.011336195 -0.012214903 0.0054157902 -0.040971432 0.034250967 -0.06255895
-0.026250197 0.058419295 0.017983375 -0.019065082 7.56038e-05 -0.035897467 -0.03257447 -0.0052714497
-0.027519008 -0.08241378 -0.015489593 -0.03142124 0.012328572 -0.053759776 -0.051025227 -0.06410016
0.012333217 -0.0032776748 0.046599332 -0.032105565 -0.02917769 0.024838498 0.008072286 -0.054861024
-0.0025089574 0.0073094326 -0.007892349 -0.020025304 -0.03139266 0.002575352 0.04250404 -0.004405801
0.015733212 -0.019592125 -0.0013980065 -0.059638273 -0.02033971 0.022956818 -0.05149682 -0.020186627
-0.008119995 -0.078693345 -0.09948081 0.007243334 -0.016665334 0.005181776 -0.043937095 0.0032452748
-0.08547325 -0.070234984 0.014402345 0.008142892 -0.025981557 0.028232245 -0.08473456 0.0027070977
0.009469559 -0.09893921 -0.010257292 0.013393658 0.0025801042 -0.024989756 -0.075104445 0.052116603
0.029217843 0.046718325 -0.002967609 -0.08305941 -0.04771635 0.00479118 0.023079325 -0.01596861
0.009574994 0.0049169757 0.050508592 0.0018781645 0.0147201875 0.010862406 0.031694725 -0.014804795
0.0169657 -0.08852215 0.014623659 -0.12189944 0.008639944 -0.05344573 -0.08071584 -0.02198564
-0.0773022 0.027614808 0.043009426 0.047223896 0.026599577 -0.0179291 0.019504607 -0.020117152
0.012477853 -0.0062295324 -0.07562783 -0.02695898 0.015782706 -0.08485696 0.037986673 0.03623674
-0.010292074 -0.017785817 0.007796817 0.007414041 0.0072781853 -0.0148827685 0.01321707 0.0023351423
0.017380498 -0.0020779325 -0.09285756 0.010962387 -0.0015140419 -0.0098209 -0.014748037 0.0031294571
0.040131107 0.0025245284 -0.0035244438 0.0037860633 -0.0012543964 -0.07141507 0.00031537932 -0.119753666
-0.01414355 -0.028070563 -0.006284739 0.0020330262 0.010895579 -0.06793883 -0.094520584 -0.0018342461
-0.005855022 -0.10864247 0.037856054 -0.07341834 0.010069952 -0.08162235 0.011742194 -0.083526745
0.020497506 0.026002523 -0.015906127 -0.015022932 0.005822566 0.048919767 0.0007088439 -0.08447924
0.017627893 -0.0037142169 0.04244493 -0.07729628 -0.012352175 0.0055967593 -0.07515503 -0.019588288
0.02262439 -0.07489629 0.0051995227 -0.07812027 0.006116924 0.039208937 -0.03839008 0.002040831

action_model._continuous_distribution.mu.bias f4 [2]
00000000: ca56 d1bc 9932 babc
-0.02555408 -0.022729205

exp_avg f4 [128, 8]
00000000: 44fb c62e 5cd7 feac 49d0 96ae c464 3aad
00000010: 69ca feac 6ea5 6bad 052e 042d 4359 ba2c
00000020: ecc3 1bbb bcf8 7238 b852 663b 7f4d 08be
00000030: 280b b2be cac1 0bbe c476 91bc cf09 93bc
00000040: 37d8 e62e 656f 582d 4e2c 44ad 1729 f5af
00000050: 6ea2 2daf 593c f3af 8804 85af 4dc4 84af
00000060: 4059 42bb b1fc 9938 f105 953b 20a0 2cbe
00000070: 2dde e1be da25 31be fc9b b7bc 87ac b9bc
00000080: 5985 6bba 7c63 bd37 6ac1 a03a e05e 4abd
00000090: 7b71 03be 1516 4fbd 9efe d7bb fb22 dabb
000000a0: 9725 99ba 5add f437 946d c83a 83d8 81bd
000000b0: 714a 28be 15be 84bd 75f1 0abc 8941 0cbc
000000c0: d28d 53ba 208b ac37 3050 923a 51cf 36bd
000000d0: 7c80 edbd 8020 3bbd 16c7 c2bb 8dbd c4bb
000000e0: 0818 59bb 31f8 ad38 209b a53b 53ec 40be
000000f0: 683e fcbe c4f1 45be 730a cdbc 3955 cfbc
00000100: e36b eaba ac96 2638 fcde 303b 1b55 cebd
00000110: 3978 87be 28a7 d3bd c235 5dbc 88a0 5fbc
00000120: 42c1 c9ae 6c09 c32d 89fd b12e 17a8 75af
00000130: 4051 ba2d 7aba 8caf a109 b3af bd35 c2af
00000140: 7480 d9ae 876f db2d 5401 e42e 77ba 4e2e
00000150: 876f db2d cad3 742e 92b6 f1ad a6ca f5ad
00000160: 61f5 2abb 1436 8738 0a90 843b 2657 18be
00000170: bd79 c7be f45f 1cbe 88fb a1bc 3ed3 a3bc
00000180: 336b 19b7 0ff2 a536 6cd8 bc37 6faf 26bb
00000190: d9d4 bdbb 0696 27bb 84aa 4eb9 9886 4fb9
000001a0: 4f99 12bb 0119 6e38 3edd 633b 8445 03be
000001b0: f4c0 abbe febf 06be 232f 8bbc 03c6 8cbc
000001c0: 2826 a730 e250 3cae eed9 8fb0 ba7c 872e
000001d0: 743f a5af 4b2b b22f 8744 7630 3ef3 9630
000001e0: 4624 edae 87f0 0c2e 719b 162f 1f9c 48af
000001f0: 708d 0b2e c254 8baf 23b9 f1af dccf 13b0
00000200: efa7 fbba 5b1c 4838 88f2 3b3b e2a9 ddbd
00000210: a8c5 90be 5f54 e3bd 05f3 6bbc 9588 6ebc
00000220: 6f89 adba 46b0 0a38 aeef f13a ac46 96bd
00000230: ea6d 43be 01d5 99bd 9c64 20bc f301 22bc
00000240: fe4e 1bbb 74c7 7238 d3f8 663b 4f3b 08be
00000250: 0401 b2be 68b3 0bbe e04f 91bc c9e4 92bc
00000260: 9ed6 703a e62d b0b7 cd2c a9ba 97ee 4d3d
00000270: e567 063e f4df 523d c2bd dd3b 64fc df3b
00000280: 87ac 38bb 9e76 9238 39ba 8a3b 55e6 22be
00000290: dadf d4be 2916 27be dd67 adbc d050 afbc
000002a0: 0079 20b4 44a8 9e32 654f c133 980a 71b6
000002b0: 8286 8eb6 e2f4 7ab6 2c0b 65b5 8a69 6ab5
000002c0: 99b7 e22d 6ecd b22c a643 0aad c6e1 06ae
000002d0: 65d6 b22c dce0 01ae 73d5 3fae 045b 09ae
000002e0: 80c1 2cbb 0d61 8838 f17c 853b 7f97 19be
000002f0: 0714 c9be d1a6 1dbe 2f5a a3bc df34 a5bc
00000300: e511 3cbb 3df1 9538 8ee8 8e3b c0ae 26be
00000310: 55ec d9be 0703 2bbe 4841 b1bc 183b b3bc
00000320: 3bde d22d 2392 e4ac dc91 a6ad 9ead 182f
00000330: 654c 49ad c13c 4a2f 8971 8f2f 7248 a52f
00000340: 98e3 ecba 3cab 3838 effd 343b 8ba2 d1bd
00000350: 0432 89be 901c d7bd 1361 5fbc ebe0 61bc
00000360: d3e3 04bb 9dfb 5238 f85d 4e3b bbe7 ecbd
00000370: 3015 9bbe 9031 f3bd 7ecd 7bbc ddac 7ebc
00000380: fcce f1ba dd11 4138 00b2 2e3b dbc7 d2bd
00000390: cc5c 89be c6fe d7bd f4a8 60bc 0909 63bc
000003a0: 5bcc fcb4 a210 1834 fa08 7ab5 0c70 20b8
000003b0: 0159 68b8 9604 21b8 07b7 f8b5 b4de fab5
000003c0: 954e d8ba 0785 2f38 0cff 253b 81d0 c0bd
000003d0: c416 7cbe 11de c5bd 848f 4cbc 47de 4ebc
000003e0: 4c49 03bb 1ac5 5338 2e59 3c3b 9804 e5bd
000003f0: 6826 95be 76a2 eabd 67df 73bc 136e 76bc
9.048631e-11 -7.243024e-12 -6.858209e-11 -1.059525e-11 -7.2415862e-12 -1.3394936e-11 7.51355e-12 5.296348e-12
-0.0023767902 5.7928948e-05 0.003514452 -0.13310812 -0.34774137 -0.13648143 -0.017756827 -0.017949013
1.04975965e-10 1.2302913e-11 -1.1151148e-11 -4.4594436e-10 -1.5791965e-10 -4.4244322e-10 -2.419578e-10 -2.415014e-10
-0.0029655248 7.342676e-05 0.0045478274 -0.16857958 -0.4411482 -0.17299595 -0.022413246 -0.022665275
-0.0008984409 2.2576882e-05 0.0012264673 -0.049406886 -0.12836258 -0.05055817 -0.006591632 -0.006657002
-0.0011684176 2.9190142e-05 0.0015291446 -0.063401245 -0.16434647 -0.06481568 -0.008480419 -0.008560547
-0.0008070144 2.0568783e-05 0.0011162814 -0.044631306 -0.11596772 -0.04568529 -0.005944143 -0.0060040415
-0.0033125896 8.295512e-05 0.0050538927 -0.1884015 -0.49266362 -0.19330508 -0.025029397 -0.025309192
-0.0017884936 3.971781e-05 0.0026988378 -0.10074826 -0.2645891 -0.10334617 -0.013501586 -0.0136491135
-9.174751e-11 2.2173118e-11 8.094065e-11 -2.2342338e-10 2.1181834e-11 -2.559835e-10 -3.2566752e-10 -3.5326578e-10
-9.8908354e-11 2.4946946e-11 1.03684755e-10 4.700459e-11 2.4946946e-11 5.5667283e-11 -2.7479605e-11 -2.794327e-11
-0.0026086199 6.4473745e-05 0.004045491 -0.14876994 -0.38960066 -0.15270978 -0.01977326 -0.019998189
-9.14447e-06 4.9455625e-06 2.2512126e-05 -0.0025434156 -0.0057931957 -0.0025571599 -0.00019709213 -0.00019791198
-0.002236921 5.676691e-05 0.0034769322 -0.12819487 -0.3354565 -0.13159177 -0.01699025 -0.017184263
1.2161694e-09 -4.281809e-11 -1.0466559e-09 6.161245e-11 -3.005841e-10 3.2408773e-10 8.959166e-10 1.098307e-09
-1.0783956e-10 3.2045946e-11 1.3697644e-10 -1.824536e-10 3.1730563e-11 -2.5344177e-10 -4.3969192e-10 -5.3773674e-10
-0.0019199828 4.7710124e-05 0.0028678495 -0.10823418 -0.282758 -0.11100077 -0.014401202 -0.014558931
-0.0013239811 3.306593e-05 0.0018458271 -0.07337698 -0.19084898 -0.075113304 -0.009789612 -0.00988816
-0.0023698206 5.788305e-05 0.0035243526 -0.13303874 -0.347664 -0.13642657 -0.017738283 -0.017931359
0.0009187254 -2.1002208e-05 -0.0012907028 0.050276365 0.1312557 0.05148311 0.0067670057 0.006835507
-0.0028179006 6.983917e-05 0.0042336253 -0.15908177 -0.41577035 -0.16317047 -0.02116769 -0.02140084
-1.4945181e-07 1.847014e-08 9.0017046e-08 -3.5917965e-06 -4.2475885e-06 -3.7395444e-06 -8.5325405e-07 -8.732537e-07
2.5774759e-11 5.0818716e-12 -7.859413e-12 -3.06686e-11 5.082867e-12 -2.953092e-11 -4.3617953e-11 -3.123103e-11
-0.0026360452 6.5030625e-05 0.004073732 -0.14999197 -0.39273092 -0.15395667 -0.019940464 -0.020166812
-0.002869719 7.149808e-05 0.004361219 -0.162776 -0.4256312 -0.16700374 -0.021637574 -0.021878764
2.3972926e-11 -6.496374e-12 -1.893679e-11 1.3886e-10 -1.144249e-11 1.8393377e-10 2.609222e-10 3.00648e-10
-0.0018073199 4.4028493e-05 0.0027617177 -0.10236081 -0.2679597 -0.10503495 -0.013633984 -0.013786535
-0.0020277395 5.0302235e-05 0.0031489115 -0.115676366 -0.30289602 -0.11874688 -0.015368817 -0.0155441435
-0.0018448527 4.6031422e-05 0.002665639 -0.10292026 -0.2682861 -0.10546641 -0.013712157 -0.013857135
-4.7087346e-07 1.4162154e-07 -9.314532e-07 -3.8251324e-05 -5.5396e-05 -3.8389662e-05 -1.8530708e-06 -1.8691267e-06
-0.0016502911 4.1847143e-05 0.0025329022 -0.09414769 -0.2461806 -0.096614964 -0.012485389 -0.012626237
-0.0020032702 5.0489885e-05 0.0028739679 -0.11182517 -0.29130864 -0.11456768 -0.014884806 -0.015040892

exp_avg_sq f4 [128, 8]
00000000: b884 9c36 041c 9a33 971a 6a35 6aa3 9534
00000010: 7457 0f34 0ed8 7b34 f8a0 6a35 8a53 9d35
00000020: d0d5 2d3b c1ad c637 3f2b 193b aa8e d648
00000030: 315c 8d4c 719c a449 eb7c 8141 c42e cc41
00000040: d623 1836 0f67 f032 0137 1c35 0448 1837
00000050: 61e3 2534 3848 1b37 8964 2037 172b 2437
00000060: f9ea 833b 3d1c 2238 0429 833b 5738 2549
00000070: 1fb6 d94c de88 fd49 fb8d c741 6372 1d42
00000080: 9040 df39 68b4 8436 572d c539 a867 be47
00000090: a2a3 794b 9da9 9148 4ad6 6340 d903 b340
000000a0: 6ef2 1e3a 69f7 b536 3b23 113a 12e8 f847
000000b0: a76f a34b 1992 be48 953c 9540 7b9c ea40
000000c0: 6829 af39 1191 5236 ce58 9639 9e1d 8247
000000d0: ca1d 2b4b 6377 4748 5e56 1c40 64c7 7540
000000e0: 4548 a83b 46cd 4538 00c2 a53b 68ce 4c49
000000f0: 1c01 074d 422f 1d4a 6997 f741 ab71 4342
00000100: 15cb 503a 71b4 f336 742a 373a af9c 8148
00000110: c08b 2a4c 79bf 4649 7904 1c41 ca1c 7641
00000120: a9ec ec35 a0af 2733 7f36 7035 c0b1 9e36
00000130: 8e01 9c33 6b38 ad36 81ce 0437 a855 0937
00000140: fb14 f135 2c8c eb33 c23e ec35 0bd6 be34
00000150: 1e49 0934 8b22 ab34 4a75 a934 a4ce 5a35
00000160: 6cbf 5d3b 968f 0638 c9ea 4b3b b2de 0b49
00000170: 2f2a b84c 808c d649 5ddc a841 633e 0542
00000180: a4f6 e536 9f3c 8733 efcf 8a36 e26f 253c
00000190: 04b3 3e3d 76cd 2c3c 3c69 3839 b85b 3d39
000001a0: 9723 333b 26d6 ce37 bd08 1c3b d577 da48
000001b0: f5b5 8f4c f77e a749 0acf 8341 2909 d041
000001c0: 582f 2d38 9d70 3b35 108d 6137 64ee 0d39
000001d0: f433 9636 ac8e 1239 81d6 1739 c4f7 2039
000001e0: 27ac bc37 e2bc 7434 3ab4 2236 a83d ac35
000001f0: 4201 7534 7f45 cd35 50fc 3137 1b18 5f37
00000200: 2f82 d23a 4128 7737 2e3e c93a b52b 8b48
00000210: ca36 374c 9076 5549 88eb 2741 396d 8441
00000220: f921 3a3a dea8 d036 79a7 103a bfba 1248
00000230: 4eb0 c04b e7b3 e048 f617 b040 4a87 0a41
00000240: cdad 223b dbc4 b837 cd7f 153b 88e2 e048
00000250: 770f 944c 5675 ac49 0390 8741 80b4 d541
00000260: 21fd 4139 3811 de35 b125 2439 6105 853e
00000270: 36b6 933f 94e2 893e 2a7e 943b 9704 983b
00000280: b1b6 753b 527d 1438 febe 693b f554 1e49
00000290: 4692 d04c 2beb f249 d225 bf41 82d5 1642
000002a0: a0b9 4337 3cbe 3534 42f9 f236 f7a5 033b
000002b0: fd08 193b 6ce5 083b 9acc 2039 f26d 2439
000002c0: d87b 9436 528c 1f34 e71f a936 6d91 f634
000002d0: 1ed3 4934 4101 f334 618f ed35 be67 0636
000002e0: 5c61 6b3b 57cf 0b38 31a8 453b f784 0a49
000002f0: cd77 b64c 9889 d449 2858 a741 ec15 0442
00000300: 6416 7b3b 9459 1838 429c 753b e181 1649
00000310: cf7f c64c e315 e749 820b b641 9eb6 0f42
00000320: 61ac a035 883c 9b33 d2ed 9a35 c926 9a34
00000330: b1f4 a033 115c b734 1e15 8f35 f45f ed35
00000340: 4a57 cd3a 741e 7e37 03d9 bb3a 98c5 8048
00000350: a581 294c eb77 4549 3d20 1b41 0463 7441
00000360: c086 f23a 475f 9137 8c44 fa3a 221f b148
00000370: 40dd 684c acb9 8749 4446 5541 321c a841
00000380: b0bf ed3a 58fc 9037 bab6 cc3a 9c20 a548
00000390: 5d25 594c 1818 7d49 3ecb 4641 d8b1 9c41
000003a0: ca4f 8137 37a2 4e34 da37 6837 ceef bc3b
000003b0: bb2f 2e3c a249 c43b 0d1c 9e39 bc33 a139
000003c0: 9b3d c43a 4767 6737 7383 ae3a 2495 8148
000003d0: 710e 2a4c 766b 4649 fcd3 1b41 a49f 7541
000003e0: 1f20 0b3b 8758 9e37 06f5 e93a 6af9 bb48
000003f0: 275f 774c bd1d 9049 668e 6241 cd9e b241
4.664613e-06 7.17628e-08 8.7210486e-07 2.7872312e-07 1.3349728e-07 2.3454797e-07 8.7406033e-07 1.1721725e-06
0.0026525147 2.368435e-05 0.0023371724 439413.3 7.4113416e+07 1.3484941e+06 16.185995 25.522835
2.2670624e-06 2.7986543e-08 5.819457e-07 9.076673e-06 1.5449542e-07 9.255535e-06 9.560151e-06 9.785194e-06
0.0040258137 3.865011e-05 0.004002692 676741.44 1.1414348e+08 2.0769558e+06 24.944326 39.361706
0.00042581977 3.9549086e-06 0.0003760855 97487.31 1.6360354e+07 298316.9 3.5599542 5.5942197
0.00060633465 5.4230227e-06 0.0005536561 127440.14 2.1421902e+07 390288.78 4.6636453 7.3316016
0.0003340945 3.1376878e-06 0.00028676394 66619.234 1.1214282e+07 204253.55 2.4427714 3.8402948
0.0051355683 4.7159636e-05 0.005058527 838886.5 1.415623e+08 2.5753125e+06 30.94893 48.861004
0.0007964832 7.2629705e-06 0.0006987222 265445.47 4.4707584e+07 814071.56 9.751092 15.382029
1.7652247e-06 3.9042447e-08 8.948627e-07 4.7294598e-06 7.264599e-08 5.1623697e-06 7.915894e-06 8.18578e-06
1.7962005e-06 1.09685374e-07 1.7601635e-06 3.5545995e-07 1.2785719e-07 3.1876365e-07 3.1564042e-07 8.151203e-07
0.003383602 3.2081814e-05 0.0031115285 572907.1 9.6555384e+07 1.757584e+06 21.1076 33.310925
6.8534446e-06 6.297454e-08 4.136927e-06 0.010097476 0.04655744 0.010547033 0.0001758681 0.00018058612
0.0027334446 2.4656834e-05 0.002380892 447422.66 7.534583e+07 1.3721269e+06 16.476093 26.004473
4.1290506e-05 6.98268e-07 1.3443889e-05 0.00013535615 4.4763965e-06 0.00013976794 0.00014480391 0.00015351089
2.2491511e-05 2.2792986e-07 2.4244787e-06 1.2832943e-06 2.281786e-07 1.5293916e-06 1.0608768e-05 1.3297448e-05
0.0016060526 1.473172e-05 0.0015353614 285021.66 4.8028456e+07 874345.0 10.495003 16.553331
0.0007100399 6.218542e-06 0.00055181194 150250.98 2.5256092e+07 460191.22 5.502925 8.65803
0.0024822832 2.2026177e-05 0.002281177 460564.25 7.7626296e+07 1.4127788e+06 16.945318 26.713135
0.00018500212 1.65453e-06 0.000156543 0.25980666 1.1539981 0.26930678 0.0045316415 0.004639219
0.0037492926 3.5402663e-05 0.0035666819 648527.3 1.0935147e+08 1.9899894e+06 23.893467 37.708504
1.1666125e-05 1.6926145e-07 7.2411794e-06 0.0020087936 0.0023351305 0.00208887 0.00015335009 0.00015681217
4.425161e-06 1.4859077e-07 5.0403064e-06 4.5926882e-07 1.8796388e-07 4.526319e-07 1.7699605e-06 2.0027942e-06
0.0035916185 3.3333283e-05 0.0030160064 567375.44 9.566577e+07 1.741107e+06 20.918045 33.021408
0.0038312906 3.632305e-05 0.003747717 616478.06 1.04070776e+08 1.8930524e+06 22.75562 35.928337
1.1971098e-06 7.2287605e-08 1.1543109e-06 2.8712955e-07 7.49509e-08 3.4153393e-07 1.0660476e-06 1.7685802e-06
0.0015666273 1.514667e-05 0.0014331642 263724.75 4.4435092e+07 808830.7 9.695371 15.274174
0.0018503293 1.7329714e-05 0.0019093915 362745.06 6.104397e+07 1.1118615e+06 13.329655 21.013767
0.0018138792 1.7283644e-05 0.0015618422 338180.88 5.6923508e+07 1.0366735e+06 12.42462 19.586838
1.5415153e-05 1.9244258e-07 1.38412815e-05 0.0057658916 0.010631497 0.005990223 0.00030157008 0.00030746858
0.0014971973 1.3792719e-05 0.0013314321 265385.12 4.4579268e+07 812727.4 9.739254 15.351475
0.0021228862 1.8876292e-05 0.0017849512 384971.3 6.4847004e+07 1.1805996e+06 14.159765 22.32754

exp_avg f4 [128]
00000000: 5cd7 7ead c5f8 f238 656f d82d a8fc 1939
00000010: 7f63 3d38 5fdd 7438 208b 2c38 30f8 2d39
00000020: ac96 a638 6c09 432e 876f 5b2e 1736 0739
00000030: 0ff2 2537 0319 ee38 e250 bcae 8df0 8c2e
00000040: 621c c838 46b0 8a38 79c7 f238 dd2d 30b8
00000050: 9b76 1239 44a8 1e33 7acd 322d 0d61 0839
00000060: 3df1 1539 3592 64ad 41ab b838 9dfb d238
00000070: db11 c138 a210 9834 0785 af38 1ac5 d338
00000080: 3b8b 422e 719c 37af fbf3 ef38 2231 e836
00000090: 248e 9a2f 9ff0 df38 fc52 be38 7417 25ac
000000a0: 9dd7 21ab 2d8a eb38 2619 59ad 125d 8cae
000000b0: 3825 4d2f b49e e6ad b23d e938 0aec 0fb8
000000c0: 8377 c438 4080 df36 eb2f 01b8 c6a5 fd37
000000d0: 45d0 902d c6e4 fd38 bfda 4fb7 78e9 0b39
000000e0: 68f6 d72b 2459 1739 c946 9238 0bdf 5537
000000f0: 013d 2039 0ea5 b42c 8825 1338 1667 1339
00000100: 2dce 96b5 a28b cc38 77b9 d538 5f48 06ae
00000110: 0d67 952e ef0b 2a39 2d14 d738 a945 1633
00000120: da6f 0bb8 1c86 0039 1d74 bf2e 4ea9 76ae
00000130: 803d d538 ef78 8f38 bee9 ff38 c38b b938
00000140: d15c d138 cb0a 1439 92b6 9538 1281 722b
00000150: d1e3 9038 a70c 37af 4d65 2639 348b 1439
00000160: f492 64af 38d7 182e 95bd f538 5164 102f
00000170: 0e6b 142e 4d69 cd38 425a ea38 08d6 0e39
00000180: cdeb f638 003d 8138 52c3 cc38 bc5e 3138
00000190: 6f0d 2c32 3266 9038 3661 54b8 1095 d138
000001a0: 1ed3 c938 fba9 9c38 8077 9f35 73a0 d2ad
000001b0: 2539 1b2e e64f 5031 e2f6 9f36 fd25 1839
000001c0: 1b06 1cb0 ef5a d038 b576 6838 2e88 9038
000001d0: 9bed 112d a32e bb38 9298 0139 be0b 56af
000001e0: 8349 36ae aacf bb38 e706 3338 9402 bb2f
000001f0: 0a83 1f39 89df 95b7 1e36 6a30 629c 8d30
-1.4486048e-11 0.00011585796 2.4605826e-11 0.00014685339 4.5153774e-05 5.83803e-05 4.1137566e-05 0.00016591023
7.943562e-05 4.4346235e-11 4.989389e-11 0.00012894753 9.891125e-06 0.00011353383 -8.563618e-11 6.409193e-11
9.54203e-05 6.613186e-05 0.00011576614 -4.2004383e-05 0.00013967829 3.694028e-08 1.01637535e-11 0.00013006125
0.00014299616 -1.2992764e-11 8.805702e-05 0.00010060447 9.206283e-05 2.8324308e-07 8.3694285e-05 0.00010097977
4.4234155e-11 -1.6699332e-10 0.00011441853 6.9198586e-06 2.8113434e-10 0.00010678288 9.075363e-05 -2.346093e-12
-5.7497914e-13 0.000112314105 -1.2340606e-11 -6.3829955e-11 1.8657864e-10 -2.6218451e-11 0.000111217974 -3.4313685e-05
9.368269e-05 6.660848e-06 -3.0800624e-05 3.0237145e-05 1.6463395e-11 0.000121065925 -1.2389092e-05 0.00013343047
1.534506e-12 0.0001443369 6.975007e-05 1.2747721e-05 0.00015281515 5.1342324e-12 3.5082485e-05 0.00014057415
-1.1235876e-06 9.753487e-05 0.00010191177 -3.053235e-11 6.794041e-11 0.00016216909 0.00010255757 3.4987952e-08
-3.3244352e-05 0.00012256991 8.7063e-11 -5.6084297e-11 0.00010168087 6.841297e-05 0.000122028854 8.84752e-05
9.983185e-05 0.000141184 7.13888e-05 8.615479e-13 6.908889e-05 -1.6648248e-10 0.00015868731 0.00014166237
-2.0788687e-10 3.475195e-11 0.00011717823 1.3132363e-10 3.3746388e-11 9.7947755e-05 0.00011174801 0.00013621908
0.000117741154 6.1625615e-05 9.763859e-05 4.2288317e-05 1.0014772e-08 6.8854904e-05 -5.0635274e-05 9.993662e-05
9.6237505e-05 7.470321e-05 1.1881202e-06 -2.394549e-11 3.5293674e-11 3.03134e-09 4.76731e-06 0.00014510001
-5.6761146e-10 9.9351506e-05 5.5423665e-05 6.8918205e-05 8.295055e-12 8.9255416e-05 0.00012359236 -1.9467358e-10
-4.14473e-11 8.955535e-05 4.2683354e-05 3.4016934e-10 0.00015212237 -1.7866276e-05 8.520561e-10 1.0303547e-09

exp_avg_sq f4 [128]
00000000: 051c 9a34 c2ad c638 0f67 f033 3d1c 2239
00000010: 68b4 8437 69f7 b537 1491 5237 47cd 4539
00000020: 71b4 f337 a0af 2734 2c8c eb34 968f 0639
00000030: 9f3c 8734 27d6 ce38 9f70 3b36 e2bc 7435
00000040: 4028 7738 dea8 d037 dcc4 b838 3711 de36
00000050: 537d 1439 3cbe 3535 538c 1f35 57cf 0b39
00000060: 9359 1839 883c 9b34 741e 7e38 475f 9138
00000070: 59fc 9038 38a2 4e35 4667 6738 8758 9e38
00000080: 7305 c134 2742 2b36 97c9 be38 1e03 ca35
00000090: 4313 a434 3f35 cb38 a909 8e38 78bc 4b33
000000a0: 7ef7 a232 ae5c c138 9817 4f33 f036 e634
000000b0: 2c96 8135 e606 8833 b7fa cd38 2fca c336
000000c0: d8ab 9538 a7d2 4c35 8377 bd36 dc5d f236
000000d0: 5072 2f33 5569 bf38 802a 6f35 f175 0b39
000000e0: 70d2 8331 02e9 2d39 8f83 2f38 2f26 4736
000000f0: c43e 3939 2bc5 1233 ccf8 2a34 4adc 2639
00000100: 4293 0b37 5f9d a838 95dd 9b38 98fb bc32
00000110: 1e6c 3334 238a 4139 808a bc38 8ef4 f534
00000120: 6073 ce36 41d2 f438 2efe af37 f52a 9c34
00000130: e2be 4c38 df23 f937 b846 e038 88f8 6e38
00000140: aa09 b138 5f68 1b39 aaad 3538 56e2 8334
00000150: 26c2 2f38 d412 1838 5505 4e39 831b 1c39
00000160: fa39 ee34 d2e5 2538 f423 7338 2d84 1334
00000170: 06b4 8a37 fa04 3438 c043 af38 0478 0e39
00000180: b2e9 bc38 0ff9 eb37 a04a 9538 cd94 5137
00000190: 570f 6034 ef97 1a38 28ff 0338 4b71 b938
000001a0: f9ef b038 fe26 2638 1176 2336 c261 5d34
000001b0: f399 b232 4ddc 3a36 1bfc 9335 44e9 0f39
000001c0: b8bc aa34 270c 8138 0d4f 8737 f52c 2238
000001d0: 2670 6e33 13e6 6638 ae38 0439 2cb3 9737
000001e0: 3408 c033 8e04 8f38 13ef 6c37 5139 4537
000001f0: 8926 2439 c6b2 0336 73ed fd33 7495 9333
2.8705122e-07 9.473741e-05 1.1194617e-07 0.00015460044 1.5819634e-05 2.169209e-05 1.2550754e-05 0.00018863856
2.9051882e-05 1.5616979e-07 4.387415e-07 0.00012832726 2.5189817e-07 9.8627344e-05 2.7930726e-06 9.1171944e-07
5.8926875e-05 2.4874167e-05 8.8104716e-05 6.6181196e-06 0.00014161067 6.770458e-07 5.9436314e-07 0.00013333313
0.00014529219 2.8915042e-07 6.058668e-05 6.9318856e-05 6.9134585e-05 7.697704e-07 5.5170873e-05 7.5505166e-05
3.5953016e-07 2.5519491e-06 9.097455e-05 1.505108e-06 3.0561395e-07 9.689712e-05 6.772887e-05 4.7436032e-08
1.8971829e-08 9.22022e-05 4.82174e-08 4.288081e-07 9.654955e-07 6.334248e-08 9.821861e-05 5.83499e-06
7.136882e-05 7.630246e-07 5.646552e-06 7.2230887e-06 4.084933e-08 9.127209e-05 8.9096284e-07 0.0001330001
3.8365258e-09 0.00016585368 4.1845775e-05 2.9675537e-06 0.00017666357 3.4172597e-08 1.5922996e-07 0.00015913058
8.319332e-06 8.040177e-05 7.432249e-05 2.2000492e-08 1.6710007e-07 0.00018457374 8.990336e-05 4.5812743e-07
6.15271e-06 0.000116739895 2.0979987e-05 2.908852e-07 4.8815164e-05 2.9699817e-05 0.00010694325 5.6975085e-05
8.441818e-05 0.00014820833 4.33155e-05 2.4565333e-07 4.1904066e-05 3.625716e-05 0.00019647677 0.00014887568
4.4373138e-07 3.9553102e-05 5.79692e-05 1.3738527e-07 1.6534712e-05 4.291998e-05 8.35727e-05 0.00013586885
9.008068e-05 2.813016e-05 7.118774e-05 1.2492016e-05 2.0867206e-07 3.685796e-05 3.1470467e-05 8.84259e-05
8.4370324e-05 3.96138e-05 2.4357616e-06 2.0617793e-07 2.0791935e-08 2.7844392e-06 1.1025726e-06 0.00013724441
3.1802278e-07 6.153463e-05 1.6130065e-05 3.866568e-05 5.551569e-08 5.5050547e-05 0.00012609616 1.8084036e-05
8.942189e-08 6.81962e-05 1.412236e-05 1.175546e-05 0.00015654614 1.962458e-06 1.1824422e-07 6.872406e-08
