Assets/results/RollerBall/RollerBall/RollerBall-2472.pt (torch, 448220 bytes, 36 tensors)

network_body._body_endoder.seq_layers.0.weight f4 [128, 8]
00000000: 20b4 60be 85e2 503e d0ca 14be 2baf 4f3e
00000010: a02f a93d d26c ec3e ff66 4dbf 83b0 a1be
00000020: bc75 a7bd 2072 38bf 402b 03bf 5993 8f3e
00000030: 33a3 4c3e 5ab1 95be 82b3 3ebf 2e16 d6be
00000040: 9a1b a6be 28e4 d3be fbb7 5fbf 0830 813f
00000050: a75a f43c 18be b7bd 01c4 283e 629e 93be
00000060: 7b3b af3e b3b6 80be 4ca7 753e fff4 cbbc
00000070: 55fb 8b3d ae5e 43be 75d7 2abf 7637 87be
00000080: c811 4dbf 365e 6dbd a94a c23e 1cad 843e
00000090: e77d be3d 2f82 933d b59e 88bf 5a7a 513e
000000a0: c0e6 6d3e 0316 923d f48c 9cbd 437d 4e3f
000000b0: 3021 873d aeb6 083d bc4c e2be c291 323d
000000c0: 8fe8 2dbe 400a 653e c7a2 8ebe 0a14 97be
000000d0: 83ad 43be 4b34 113f c44e e4be f041 e53c
000000e0: 6948 c5be 7787 0f3f f954 68be 614b ec3d
000000f0: 099b 023d 6678 363d 58a7 d4be 830e bbbe
00000100: a444 d6bd 2f4b e03e 95fa 85be d59d a23e
00000110: c95d 8c3e 41da 133e e916 e43e 2d15 b5bd
00000120: b04f d6be 441c 56be 4c5d 1f3e c7c3 bbbe
00000130: 2d00 4d3e 5727 c13c 7f15 0f3e 3c71 c93d
00000140: c210 b13e c1b6 08be 730d febd 2cb9 943d
00000150: f285 833e 06f5 bc3b d18c 4f3e cc18 95be
00000160: af20 e0be 5912 66bc fc38 6dbe 9ec2 ef3d
00000170: 1969 ef3e eb4b 663c f2b6 24be a5ec 19bf
00000180: 789f 23bd c99e 073e 349e cebc e27a 653e
00000190: 5b44 01ba 573c 12bb b698 92be 74fb d03e
000001a0: b183 223e 946a 2a3f a724 9abe 97f4 8bbd
000001b0: 44d0 923d 3e8b 8a3d 990c 5fbf 734a 303e
000001c0: 5e03 983e e65e 9abd 6d24 bdbd 5259 12be
000001d0: e6c2 1cbe 6133 0d3e f80d 603e 41fb 29bf
000001e0: 5979 92be b8a9 5a3f b257 cc3d fe90 103d
000001f0: 7a4f 0ebf c29e 18be 81fc b53d fa1c 34be
00000200: c8ab 503d 8f03 d0be 7c95 df3d e758 773e
00000210: 96f6 17bf f04c 513e 6dfc bfbe 76f9 4abd
00000220: 788c fd3e 5f30 06bf 4366 1dbe 0208 103d
00000230: 529f 813c a8a0 a43e 5fd3 e93e 3fc5 a4be
00000240: a1d5 b8bd 3b5b 41be dd23 053e afbd 3e3f
00000250: 5a3a b13e 72bd 9a3e 11be 403f 6f1f a0be
00000260: 1041 d0bd 1ff0 b1be 5d05 bbbd 1823 e53e
00000270: b941 36bc 02fb 95bd 7002 abbb 93dd f2bd
00000280: ed8f 48be e3bd e1bd 0266 623d e8c5 913e
00000290: cb79 c93e 61e7 d93c 07e1 4c3d 4b85 cc3e
000002a0: 9da8 10be cdf7 31bd 677b 833e 64f3 cabe
000002b0: 642f 5c3e 6701 85bd ff4a 08be 38bd 8f3d
000002c0: a5f8 d53e 6178 2c3f 39a7 12bf 4567 903e
000002d0: 2bc0 fd3e 380b 953e b4e3 64bf 4a75 093f
000002e0: c4d2 22be 43f6 72be 8dcf 523e 7c5e 003e
000002f0: 54a1 cd3d 5554 68be 206c 08bf c282 adbd
00000300: b003 123e c288 c0be a6d2 9cbe 9621 1d3f
00000310: 9901 87bc 927b debd cd6a 86be 43c7 4fbe
00000320: f2f2 873e 0e8e 56bc dec2 c6be db41 e1bd
00000330: 6cd3 953d 04db fabe be95 03be 60e3 523e
00000340: ec48 22be 6690 b6bd 07f9 50be b90d 2a3e
00000350: 9501 d1be 35cb 453f 56b4 1b3e a7ef b5be
00000360: be6e 1e3d c3a6 1abf 4b5c 213f c4d2 d4be
00000370: 6f37 973e 7ea8 a9be 8a07 243e 1e6f 3c3f
00000380: 04fc c3be 8134 73be 9a92 e23d 0144 87bd
00000390: 73e2 a3be bc32 373e 1e04 8f3d ba1a 8ebc
000003a0: a3c5 bc3d 3dd6 053f 9446 1bbf 24fd 8a3d
000003b0: 64fd 893d adc0 953e f672 423f a27b 05bf
000003c0: 0923 db3e c91c 97be fd5b f4be 71e8 b8be
000003d0: db1f 7cbe 6c89 90be 35b6 3f3d 4696 903e
000003e0: c543 023c f2ee 95bd b10b e4bd 4237 753d
000003f0: 1ad4 5b3f bb7b c83d 42f9 d1be 1ab5 473e
-0.21943712 0.2039891 -0.14530492 0.20281665 0.08261037 0.46176773 -0.80235285 -0.3157998
-0.08176753 -0.7204914 -0.5123787 0.28042105 0.1998413 -0.2923687 -0.7449266 -0.41813797
-0.32442933 -0.41385007 -0.87390107 1.0092783 0.029828383 -0.089718044 0.1648102 -0.28831774
0.34225067 -0.25139388 0.239896 -0.024897097 0.06835047 -0.19079086 -0.6673501 -0.264095
-0.8010526 -0.057951175 0.37947586 0.25913322 0.09301358 0.07202565 -1.0673434 0.2045683
0.23232555 0.07133105 -0.07644072 0.80659884 0.06598127 0.033377342 -0.4419917 0.043596037
-0.16983245 0.22367191 -0.27858564 -0.29507476 -0.19109158 0.5672042 -0.44591343 0.027985543
-0.38531807 0.5606608 -0.22688664 0.11537815 0.031886134 0.044548415 -0.41533923 -0.3653451
-0.10462311 0.4380736 -0.2616774 0.3176104 0.27415302 0.14438726 0.4454873 -0.088419296
-0.41857672 -0.2090922 0.15562934 -0.36672804 0.20019598 0.023578329 0.13973044 0.09836051
0.34583098 -0.13350965 -0.12404909 0.07261881 0.2568813 0.0057665138 0.20268561 -0.2912048
-0.43774936 -0.01404246 -0.23166269 0.11707042 0.4675987 0.014056186 -0.16085413 -0.60126716
-0.039947003 0.13244165 -0.025221922 0.22410157 -0.0004931145 -0.0022313797 -0.28632134 0.40816844
0.15870549 0.66568875 -0.3010609 -0.06833761 0.0716863 0.067648396 -0.871286 0.172159
0.2969007 -0.07537632 -0.09235463 -0.14291885 -0.15308723 0.13789131 0.21880329 -0.6639901
-0.28608206 0.8541522 0.09977664 0.035294525 -0.5559002 -0.14904311 0.08886052 -0.17589179
0.050945073 -0.40627715 0.10917184 0.24155007 -0.59360635 0.20439506 -0.37497273 -0.04955431
0.49521232 -0.5241756 -0.15371041 0.035163887 0.01582304 0.3215382 0.45669076 -0.32181737
-0.090251215 -0.18882458 0.13001962 0.74508184 0.3461483 0.3022266 0.7529002 -0.31273982
-0.1016866 -0.3475351 -0.09131882 0.44753337 -0.011124068 -0.073232666 -0.0052187964 -0.11858668
-0.19586153 -0.11022546 0.055273063 0.28471303 0.39350733 0.026599588 0.05001929 0.39945444
-0.14126821 -0.043449212 0.25680086 -0.39638817 0.21502453 -0.06494408 -0.13309859 0.070185125
0.41791263 0.67371184 -0.5728641 0.28203788 0.49560675 0.29110122 -0.8940995 0.53694594
-0.15900713 -0.23726754 0.20586987 0.12536043 0.100405365 -0.2268842 -0.53289986 -0.08472206
0.14259219 -0.37604338 -0.30629462 0.61379373 -0.016480254 -0.10863413 -0.26253358 -0.20290856
0.2655254 -0.013095392 -0.38820547 -0.10998889 0.07315716 -0.4899522 -0.12850091 0.20594549
-0.1584813 -0.089142606 -0.20407496 0.16606797 -0.4082152 0.77263194 0.15205511 -0.35534403
0.03867983 -0.6041071 0.6303145 -0.4156705 0.2953448 -0.33136362 0.16018501 0.7360705
-0.3827821 -0.23750497 0.11063118 -0.066047676 -0.32008705 0.17890447 0.06983207 -0.017346729
0.09217384 0.52280027 -0.6065457 0.06786564 0.067377836 0.29248562 0.75956666 -0.52141774
0.42800167 -0.2951415 -0.4772643 -0.3611484 -0.24621527 -0.28229845 0.046804626 0.2823965
0.007950728 -0.07320966 -0.111350425 0.05986715 0.85870516 0.09789225 -0.4101048 0.19502679

network_body._body_endoder.seq_layers.0.bias f4 [128]
00000000: cdad c73b 950c c5bb 4854 e9bb e725 9ebb
00000010: 53db b13b 659d 9cba 2063 2bbb d91b c53b
00000020: d52d c839 f441 293c e4de 23bc ebfc 59bb
00000030: 0894 ed3b 7d6b eebb 2bb6 41bc 9d57 f6bb
00000040: 15a5 a3b9 4237 c4bb 54c6 ffbb f609 9d3a
00000050: 531f 13bb 5e98 003b 4747 18bb aede 65bc
00000060: 5749 3dbc 035c 35bc 3c54 d3bb 5f3f 11bc
00000070: 01be 05bb 4249 59bc ca8a 16bc 80fa 6fbc
00000080: b6c9 173b 1f76 5dbb fa07 27bc 17d0 dcba
00000090: 22d8 023c 3f57 73bc cc4d 96ba e4cf 01bc
000000a0: 2b07 8dba ac7e b9bb d358 113b c93a a03b
000000b0: 9c40 6a3b d53e 69bb 15be 6e3a dcc1 fbb9
000000c0: bbda e7bb 99d0 033b b1ef 873a 9bcc 7bbb
000000d0: 7790 c53b 7374 c83a 8a0a 2cbb c4cf f53a
000000e0: 85f6 8bbb 7a0c b9ba debb 12bc ded6 f9bb
000000f0: 7463 873b f28c 17bb 7af8 e73a 67b6 19bc
00000100: 62f0 243a d634 393b d956 83bc 1227 02bc
00000110: 41ef 4cbc ca7f 8bbb c4ca 203c 3f58 043c
00000120: d33c 3b3a 436d c7b8 6cb7 72bb 7bb3 e8bb
00000130: 670b 4abb 8e9a 4fbb 272c 98ba 3ffd 29bb
00000140: 6f4d a3bb c6e0 903a bf79 fcba c659 5aba
00000150: 51c7 623a 08b7 9b3b 4c0b 27ba fbfc 6bbb
00000160: 8630 da3a 37d5 2bbc 2000 ed3a 13a7 0bbc
00000170: 66c5 d93b 8bff a0bb 0e8d 54b9 4ff9 d4bb
00000180: 6f2e 21bc d716 49ba 0d3b 5bba c64f 2abb
00000190: 6554 2ebc ad9e b73b 50c9 833b bb6b cbba
000001a0: 00c2 1abc b197 263b a071 34bc fa9d 39bb
000001b0: 37ec d4bb 4760 f03b 17cd aeba b0d7 d2ba
000001c0: b470 db3a 8b7d 243b 5c9e 3ebc f875 c0b9
000001d0: c8d8 03bc ef3a f8bb fac0 5eba 58d1 7dba
000001e0: 3ee2 a63a 0faa 023c 23ea 19bc be5b 5abc
000001f0: 532e c4bb e40f 4fbb e066 eabb e45d d8bb
0.0060937167 -0.006013463 -0.007120643 -0.0048262957 0.005427757 -0.0011948763 -0.0026151612 0.0060152826
0.0003818112 0.010330666 -0.010001872 -0.0033262323 0.0072503127 -0.007275997 -0.011823217 -0.0075177685
-0.00031212778 -0.0059880326 -0.007805625 0.0011981118 -0.002244909 0.0019622068 -0.0023235844 -0.014030142
-0.01155313 -0.011069301 -0.0064492505 -0.0088652065 -0.002040744 -0.013262095 -0.009188363 -0.014647126
0.0023161 -0.003379233 -0.010194773 -0.0016846684 0.0079861 -0.014852344 -0.0011467277 -0.0079231
-0.0010759583 -0.0056608524 0.0022178188 0.0048898202 0.0035744077 -0.003559043 0.0009107304 -0.00048018887
-0.0070756353 0.0020113348 0.0010371116 -0.0038421515 0.0060291844 0.0015293494 -0.00262514 0.0018753936
-0.004271331 -0.0014118098 -0.008955924 -0.007624491 0.004131729 -0.0023124781 0.0017697953 -0.009381867
0.00062919233 0.0028260252 -0.016032623 -0.007943885 -0.012508214 -0.004257177 0.009813968 0.00807768
0.00071425474 -9.509411e-05 -0.0037035597 -0.007101474 -0.003082955 -0.0031677815 -0.0011609838 -0.00259383
-0.004983596 0.0011053316 -0.0019262357 -0.00083294173 0.0008650916 0.0047520436 -0.0006372228 -0.0036008942
0.0016646541 -0.010487846 0.0018081702 -0.00852372 0.006645846 -0.0049132756 -0.00020270442 -0.0064994465
-0.009837731 -0.0007670945 -0.0008362986 -0.002598749 -0.010640238 0.0056036324 0.004021801 -0.0015519777
-0.009445667 0.0025420005 -0.011013418 -0.002832292 -0.0064978856 0.007335696 -0.0013336268 -0.0016086008
0.0016741962 0.0025099244 -0.0116344355 -0.00036708987 -0.00804729 -0.007575385 -0.00084973837 -0.0009682379
0.001273222 0.007975115 -0.009394201 -0.013327537 -0.0059869676 -0.0031595165 -0.007153377 -0.0066029895

network_body._body_endoder.seq_layers.2.weight f4 [128, 128]
00000000: c0ac d93c aa82 0e3e d1e6 533b 9785 d23d
00000010: ce62 933d 7009 81bd 2604 a9bc b0c8 813d
00000020: f1bf 02ba 61f7 7cbd 0b01 133b 7d69 103e
00000030: 2765 153e a282 d13d 9191 50bd 8ee1 0cbd
00000040: 013c 9bbd 87dc 033e f000 cdbd 63de 983d
00000050: 9544 083d 111e 523d 6219 eebd 7c16 52bc
00000060: bf34 f93d 32b3 fdbc 9ddd b4bc 7fe2 de3d
00000070: f779 c3ba f3bb ee3d 47f0 53bc e3d1 b8bd
00000080: 2234 58bd 39bf d2bd 729e 8abd d65c 5d3d
00000090: 6d3e 15be 21cc bc3c bd5c da3d 61f9 b9bc
000000a0: 02a2 6ebc c365 7cbd 00d6 d73d 5833 c3bc
000000b0: 4f27 983c 0b1a 253d 343f 103e 809b 723d
000000c0: 6a71 513d 64dc 0e3e 8e38 b1bd 9d39 123d
000000d0: 9f76 683d 0026 a2bd 218b 873c 436b a03d
000000e0: 37f4 8ebc 37f6 413e 6884 f9bd f9d1 673d
000000f0: 2c2a 073d 1295 963d 3ca9 93be 594a 563d
00000100: 106c ed3d 34c3 fc3c 6912 abbc 7f3a b93d
00000110: 5ce1 b2bd 5e95 0bbe 9356 413d d00e 85bd
00000120: 87b4 9bbc 70df 913b 6c07 b43d eb6d 44bc
00000130: c7f0 04bd b145 7c3b f6fc 2bbd 2258 a23c
00000140: 609f e93d fe49 803d fe95 45be 2aa2 9f3d
00000150: bcf1 9e3d 54e4 c8bc 71aa 1fbd 6a91 14bd
00000160: 6542 e0bc 0f0d 43bd 2699 31be 06ef f53c
00000170: 1657 02be bab9 babd df41 17be 36ef 0c3d
00000180: 8afe 31bd a5dd 703c 22d1 88bd 7de7 98bb
00000190: adc2 27be 8eac 94bd ee32 3a3d 6e4b f03d
000001a0: 3ab9 253e 575a 9bbd cedd 67bc 8b47 5f3d
000001b0: 2052 31be 9644 96bb 7cd7 173e d3f2 3fbd
000001c0: b06c 45bd 2003 423d da17 edbc 0727 5e3e
000001d0: e28a 1cbe 698e 623e dd7a 283c 42fd bebc
000001e0: 6c28 83bd 62ae 63bd b803 85bd 8481 4c3e
000001f0: 6751 c1bd 2ec3 27bc e869 313d 9006 45bd
00000200: 8973 b0bd 2dbc 7e3d 484a 863d 8764 083d
00000210: ea5b 2ebc 24a0 453c 09e7 ec3d 772e ddbd
00000220: 47b2 a8bd 459c f5bd b1ab a23d d402 2abe
00000230: 5460 043d ae9d c6bd f6df 3fbe abf3 98bd
00000240: e9ed 0fbd 5d3b 453e 7721 fb3a a78d 083e
00000250: e52a 883d 1e04 f4bd b7cb a13d 3203 87bc
00000260: 1bc1 f9bc 2c7a 5ebd aaef 2cbe 8f03 8fbd
00000270: 8315 efbd 522f 4abd afc2 2e3d 2b4f 04bd
00000280: 68c3 aebd 3139 18be 1072 973d 0cd3 2b3d
00000290: 6e11 0cbd 54f3 94bd 2d8a ccbd 622b 96be
000002a0: 48c3 43be 9a66 7ebc 6194 813d 8e63 7cbc
000002b0: 134a dfbc 2848 e9bd 9879 2c3d 9473 1e3d
000002c0: 4dc3 e53c 3bdf 18be ec09 21be cedf 97bb
000002d0: 22c8 22bc 32b9 49bd efc2 33bc 9327 e3bd
000002e0: 10d3 2d3d 3ce2 333c 0fdf 08be 11a4 3d3d
000002f0: c75b 62be 5457 b5bd 40d7 13be 599f 7dbe
00000300: a679 b4bd e813 433d b8a2 f13a 2f84 4c3d
00000310: 388a 733d 232a f5bb 92b8 38be d5bb 3dbe
00000320: 545a 213d 1234 043e fb56 a1bd 2dd9 8739
00000330: c4eb 053e 978c a53d adec fbbd f0c2 dfbc
00000340: 7663 523d a980 7c3d 4ff6 c5bc 9c3d 13be
00000350: 3ca5 843d 9fc8 83bd 8510 e23c a118 49be
00000360: ceb4 663d 7bd9 733e e496 813d 6f4a 623e
00000370: 18a5 14bd b5ce d5bd a93c 34bd 3634 d5bd
00000380: b949 323d dc72 42bc 64ff 343d 4e8f 91bc
00000390: 84fd dbbd 4213 7c3d 3afc eabd c0fb 843d
000003a0: ccbf 42be 6e46 9e3d 1b09 27bd 835f 1abd
000003b0: d1ab c53c ebce 5c3d 650d 0cbd 5dad b43d
000003c0: 0b31 0c3d 1c85 59bd 1d32 b03c b5a3 d3bd
000003d0: 9b03 9c3d 6a49 713e b1d5 b2bd a44b 173e
000003e0: 0e8b 0c3c 52bc 20bd 1f0c a63d 545f 14be
000003f0: ea79 0d3c e8ab 16bd be0b 2f3d 40b7 f2bd
0.026571631 0.13917032 0.0032333622 0.102793865 0.0719658 -0.06300628 -0.020631861 0.06337106
-0.0004987708 -0.061759356 0.0022431042 0.1410274 0.14589368 0.10229994 -0.050920073 -0.034394793
-0.07579804 0.12877093 -0.100099444 0.07464292 0.03326853 0.051298205 -0.11625935 -0.0128227435
0.12168264 -0.030969236 -0.02207833 0.108830445 -0.0014913668 0.11656942 -0.012935705 -0.09024408
-0.052784093 -0.10290379 -0.06768502 0.054043613 -0.14574595 0.023046555 0.1066222 -0.022701921
-0.014564993 -0.061620485 0.10538864 -0.023828194 0.018573431 0.04030804 0.1408661 0.059230328
0.05113355 0.1395126 -0.08653365 0.035699476 0.05675375 -0.07917404 0.016545834 0.078329585
-0.017450435 0.1894158 -0.121834576 0.05659673 0.032999203 0.07352652 -0.28840053 0.052316997
0.11592877 0.030854799 -0.020882802 0.0904436 -0.0873439 -0.13631198 0.047201704 -0.06496966
-0.01900698 0.0044516847 0.08790478 -0.011989097 -0.032456186 0.0038493688 -0.04198929 0.019817416
0.114073515 0.06264113 -0.19295499 0.07794602 0.07760951 -0.024522938 -0.038980905 -0.03627149
-0.02737541 -0.047619876 -0.17343578 0.030021202 -0.12728533 -0.09117456 -0.14771222 0.034407817
-0.043455638 0.014701282 -0.06680514 -0.0046662674 -0.16382857 -0.07259475 0.045458727 0.11733137
0.1618394 -0.0758559 -0.014152003 0.054511588 -0.17316484 -0.004585813 0.14828295 -0.046862435
-0.048199356 0.04736626 -0.028942037 0.21694575 -0.15287355 0.22124638 0.010283199 -0.023314122
-0.06404194 -0.055586226 -0.0649485 0.19971281 -0.094393544 -0.010239406 0.04331389 -0.04810196
-0.086157866 0.062191177 0.06557137 0.033298995 -0.010642031 0.012062106 0.11567504 -0.10799878
-0.08237129 -0.11992697 0.07942904 -0.16602641 0.03231843 -0.09698044 -0.18737778 -0.07468351
-0.035139 0.19260927 0.0019159754 0.13335286 0.066488065 -0.11914848 0.07900184 -0.016481016
-0.030487588 -0.05431573 -0.168883 -0.069831006 -0.11674025 -0.049361534 0.042666133 -0.032302063
-0.085333645 -0.14865567 0.073948026 0.041949317 -0.03419631 -0.07272974 -0.099872924 -0.29329973
-0.19117463 -0.015527392 0.06327129 -0.015404595 -0.027257001 -0.11390716 0.04210815 0.038684443
0.028047228 -0.14928906 -0.15726441 -0.004634834 -0.009935411 -0.04924888 -0.010971769 -0.110915326
0.042437613 0.010979231 -0.1336634 0.046299044 -0.22105323 -0.08854547 -0.1443758 -0.24767818
-0.08812265 0.047626406 0.0018435335 0.049930748 0.059457988 -0.0074818297 -0.18039158 -0.18528683
0.039392784 0.12910488 -0.07877918 0.00025911015 0.13078219 0.08083456 -0.12301002 -0.027314633
0.051364385 0.061646137 -0.0241653 -0.14378971 0.064768285 -0.0643475 0.027595768 -0.19638301
0.056324773 0.23813431 0.06327608 0.22098707 -0.03629026 -0.10439817 -0.044003163 -0.10410349
0.04352734 -0.011868205 0.044188872 -0.017768528 -0.10741714 0.061541803 -0.1147389 0.0649333
-0.19018477 0.07728277 -0.040780168 -0.037688743 0.02412978 0.05390827 -0.03419246 0.08822129
0.03422646 -0.05310546 0.02150827 -0.10333959 0.07617875 0.23563161 -0.08732165 0.14774948
0.008578075 -0.039242096 0.08107781 -0.1448949 0.008635024 -0.036785036 0.042735808 -0.118513584

network_body._body_endoder.seq_layers.2.bias f4 [128]
00000000: c364 70ba f2f4 0dbc 7f72 edb8 ce78 aebb
00000010: 400b 26bb 0d2e 9aba a0e8 403b 93fa 093b
00000020: 1b3d 03bb 7189 4abb 7d23 0bbb 558d 38bb
00000030: 72fd 59bb dc32 6b3a 5bbe 2ebb 773f 673b
00000040: a7e9 faba 3b9a 5fbb 5037 b7ba 1b09 2a3b
00000050: 6bdc 1539 39a5 adbb cc47 a13b 3a13 86bb
00000060: 0241 77b9 5627 cdbb 95ee 94ba 4ddb 843a
00000070: ce06 b8ba ecbd 99bb 6b46 3fbc 472a 51bb
00000080: ff69 e73b 9283 97bb 9c2a 2fbc c966 2eba
00000090: 3955 38bb c92b b2bb 7d4c aebb ed38 d03a
000000a0: b9c7 c439 a5c1 e53b 4be6 503a e34b 1dbc
000000b0: 1f1c d3bb da75 b5ba 0956 b83a 1b4d d839
000000c0: 32b1 e6b9 c4ae b0bb 0b9b f73b b919 a2bb
000000d0: 7701 c6bb 4335 58bb d647 b1bb eec4 c1ba
000000e0: b779 8fbb d597 66ba 30e8 d0ba 3228 be3b
000000f0: eeb5 9cba 6e16 063b b684 d73a ce88 83bb
00000100: d841 32ba 4daa bbbb 4f69 6ab9 440e cbba
00000110: 42ad 05bc 505d 7abb 857a 96bb 7bf8 29bb
00000120: 3ef4 6dbb 4f35 19bb f7a0 dfb9 369a 143c
00000130: 3540 06bc 1f37 94bb 4bdb 463a 02f9 6abb
00000140: 6a33 d7ba 2c79 dbbb 2b6c afbb e7a5 86ba
00000150: 30cb 9dbb 9207 d7ba b68c 80bb 8583 94ba
00000160: cd10 df3a 6eb6 9bba 3e5e 24bb 1ee5 63b9
00000170: 1a47 0d39 5344 8fb9 deae 1fbb 6063 00b9
00000180: 7a19 76bb a130 92ba 4720 f9bb 43db 75bb
00000190: d505 72bb cdaa 193b 67a9 5d3c 527e 58ba
000001a0: 2a1d 003b c53f f5ba 707e 2c3b c8e2 08bc
000001b0: f452 e2ba 1a12 3abb d488 10bc 0ad2 a13b
000001c0: d5e3 a8bb f9f0 523b eaf7 123a 9e21 12bb
000001d0: 0055 21ba 84a2 bcbb 45ca 523b 6c37 373c
000001e0: 446b cfba b0f1 77ba cf82 10bc c63c 80bb
000001f0: 3622 71bb e554 053c bf66 54bb 81b5 10bc
-0.0009170288 -0.008664357 -0.00011322367 -0.0053244596 -0.0025336295 -0.0011762992 0.002943553 0.0021053895
-0.0020025435 -0.0030904675 -0.002123087 -0.0028160412 -0.0033262637 0.0008972117 -0.0026663754 0.003528563
-0.001914312 -0.0034119028 -0.0013978276 0.0025945369 0.0001429186 -0.005299237 0.004921889 -0.0040916475
-0.00023579973 -0.0062607927 -0.0011362607 0.0010136158 -0.0014040114 -0.00469183 -0.011674504 -0.0031916068
0.0070621963 -0.0046238387 -0.010691311 -0.00066528894 -0.0028126969 -0.0054373485 -0.0053191767 0.0015886106
0.00037532838 0.0070116096 0.00079688866 -0.009600612 -0.0064425613 -0.0013844327 0.0014063726 0.00041256179
-0.0004400104 -0.0053919274 0.0075563244 -0.004946914 -0.006042655 -0.003299073 -0.005410175 -0.0014783421
-0.004378523 -0.00087964284 -0.0015938338 0.0058031315 -0.0011956075 0.0020460146 0.0016442749 -0.004014111
-0.00067999726 -0.0057270885 -0.0002235521 -0.0015491922 -0.008158984 -0.0038202591 -0.004592242 -0.002593546
-0.003630891 -0.0023377722 -0.00042653803 0.00906997 -0.008194019 -0.0045231725 0.0007585778 -0.0035853987
-0.0016418521 -0.0066977944 -0.005353471 -0.0010272831 -0.0048154816 -0.0016405454 -0.003923024 -0.00113307
0.0017018557 -0.001187993 -0.0025080587 -0.0002173376 0.00013473295 -0.0002732599 -0.0024365704 -0.00012244051
-0.0037551806 -0.0011153409 -0.0076027247 -0.0037514723 -0.0036929746 0.0023447752 0.013529158 -0.0008258569
0.0019548633 -0.0018711021 0.002632048 -0.00835485 -0.0017267154 -0.0028392137 -0.008821685 0.0049383687
-0.005154113 0.0032187088 0.00056064 -0.002229787 -0.00061543286 -0.005756678 0.003216402 0.011182647
-0.0015824814 -0.00094583165 -0.00882025 -0.0039134948 -0.0036794073 0.008137916 -0.0032409874 -0.008832336

action_model._continuous_distribution.log_sigma f4 [1, 2]
00000000: e4dd cd3c d9c1 9e38
0.02513022 7.570134e-05

action_model._continuous_distribution.mu.weight f4 [2, 128]
00000000: 5be8 11bd cae6 06bc 96c7 dc3c 3ac7 50ba
00000010: 6784 573b 139f 22bc c6c3 db3c 4220 533c
00000020: 9598 3e3b ea97 a9bc d7ae ce3b c9b6 9fbb
00000030: bbe1 1b3c db05 e1bb 031b cd3b de72 2fbc
00000040: b1d5 b83c c3c9 f4ba 3f6b 80bc 9811 ca3c
00000050: 81b0 cdbc 3174 8e3c e872 9c3a 3039 ce3b
00000060: 1201 25bc 35dd 173c e0b3 8bbc 9040 63bb
00000070: 25f4 5bbb 6dae a43c f026 c5ba bb5b 643c
00000080: c75e 333d 4134 653c e68b 28bc 9725 7bbc
00000090: d8d7 4ebb dcba 44bc 1512 983b 7c4c 073c
000000a0: 61a6 cd3c 3756 2bbc bbcd f73c bda0 9c3a
000000b0: 3fd9 0ebc e505 8f3b da29 f43c 05a5 85bb
000000c0: f7f8 c0bc 97a9 fd3c 7598 5fbd ab68 14bc
000000d0: 3965 713b 6742 413c b145 fabc 21a8 853c
000000e0: 7511 a5bb 2e91 b43c 2eac 0b39 b7f6 4cbc
000000f0: 03a6 9cbc d7b3 803b ab4f 183d ad70 fc3c
00000100: 38e6 a9bc 2d62 963b b95e 9d3b 366b bebb
00000110: b260 823c 5261 2bbd ad1e 68bc 08b5 02bc
00000120: fd7b 9dbc 3af7 56ba 782a 823c 6db7 40bc
00000130: 9b6d daba 0a42 c73c 2df2 f53c ef9b bdbb
00000140: 9b71 45bb 6cf4 81bc 6fc3 f53c 0c10 123c
00000150: a44a 3cbc dccf 8d3b a73c d23c eceb 173d
00000160: 81a4 8a3c 660b 45bc 09b7 a13c 3ae5 bfbc
00000170: 5d62 57bb d05f 3bbc e8a0 e13c b88d 0fbc
00000180: 7b42 8a3b e818 4dbc ee4f 0ebc ca80 863b
00000190: 1ee7 28bb d5a7 303d d9e7 b43b aabe e33c
000001a0: 5406 84bc 00cb bd3b ff8f 6f3c d73a 173c
000001b0: 13ec b23b bbbd 9a3c a1e5 c83b e8ef 1b3d
000001c0: cd87 89bb f88c 7cba de2f 983c ed6a a23c
000001d0: 9b50 a83b 41ac 37bc d81c b23b 1294 993c
000001e0: 0acd 5dbb 8515 0b3c 582c 373c 47bf fa3c
000001f0: 46e0 98bc 9652 f53c a111 a3ba 30fa fa3b
00000200: cc16 f0b9 fef6 143b 4f1b ea3c 1117 973c
00000210: cdb6 2dbc c155 63bb 315d c9bb 3af3 d1bc
00000220: dda9 80bc d9a5 033b 592b 1dbc 37d5 b1bb
00000230: 936f 83bb 3371 0eba 1d98 113a b1ec 08bd
00000240: 4dc0 b83b 6636 0fbc 2c1d 593c 6096 9cbb
00000250: d794 3f3b 47da c23b 02a7 683b da6c a3bb
00000260: 73e3 b4bb e175 493c a2e0 b7bb 4c34 abbc
00000270: fb66 6d3a df71 98b9 1668 183a 66a9 8f3c
00000280: 6897 4bbb a8a3 c23b 1e6c 363c 6b93 6abb
00000290: c2a8 ca3b 2d9e 2d3c d629 c93b a7bb 04bc
000002a0: d347 163d 874f 06bd 5912 f3bc 610f ec3c
000002b0: 8d90 243b 29f3 7a3c a62e 0cbc b50e cdbc
000002c0: d1e3 98bc e3f7 373c aeef 0a3b 0a08 d0bb
000002d0: a502 873c 24bf 8dbb a494 81bc c13e 2b3b
000002e0: ac15 113c 77b0 0abc 203d 0fbb ff57 96bc
000002f0: f9cb 173c 2c8a 2cbd f167 8e3c cb3d 853a
00000300: e3d5 6bbc d47e 083d e62b 803b df39 4fbc
00000310: f57e 673c 3671 f63c 7a27 b43a afe3 213c
00000320: 1b7b f0bb ed1b 903c 9b13 e1bc 123e adbc
00000330: ce53 883b 412a 773c 6023 4cbc 0bdb ae3c
00000340: 24e4 a13b 2f3e 363b 310d dc3b eed2 5bbc
00000350: bb14 da3c 2a90 fdbb 7a62 283c 2150 76bc
00000360: 45f2 72bc 12aa dab9 3a30 803c 14da 8db9
00000370: 3472 dcbb 0217 00bc 075f 043c f2d1 643c
00000380: 12c1 06bc 1629 32bc d78c 483c 4ec9 9ebc
00000390: 89dd a53b 0c26 4ebc c22d 273c 6477 9fbc
000003a0: ea2a 7dbc 499a 83b9 c570 76bc 2e66 813c
000003b0: a8bd 82ba 2002 2dbc f1c4 173c d3d1 dc3c
000003c0: f66a 313c 921a 4ebc c687 203b 8591 b2b9
000003d0: 5ced bdbc 98e7 bb3b 28a4 ba3b f1ba 4d3c
000003e0: e68d fbbb b6d4 13ba 2e8b 893c 1aee a53c
000003f0: ea5e b83c cf0b babc b0c1 7a3c ffb5 543c
-0.035621982 -0.008233735 0.026950639 -0.00079642574 0.0032885314 -0.009925622 0.02682675 0.012886109
0.0029082645 -0.020702321 0.0063074636 -0.0048740846 0.009514268 -0.006867153 0.0062593236 -0.010708539
0.022562834 -0.0018675852 -0.015676139 0.024666592 -0.025108578 0.017389389 0.00119361 0.0062934384
-0.010071056 0.009269048 -0.017053545 -0.0034675933 -0.003356227 0.020102704 -0.0015041512 0.013937886
0.04379156 0.013989509 -0.010287261 -0.015328786 -0.0031561758 -0.012007441 0.0046408274 0.008257981
0.02510375 -0.010457567 0.030249467 0.0011949759 -0.008718788 0.0043647164 0.029805113 -0.0040785098
-0.023556216 0.030964656 -0.054588754 -0.009058158 0.0036834015 0.011795617 -0.03055081 0.016315522
-0.0050374814 0.022041883 0.00013320215 -0.012509993 -0.01912213 0.0039276886 0.037185352 0.030815447
-0.02073966 0.00458934 0.0048025516 -0.0058111204 0.015915249 -0.04184086 -0.01416747 -0.0079777315
-0.019224161 -0.0008200292 0.015889391 -0.011762482 -0.0016664745 0.024323482 0.030022705 -0.005786411
-0.0030127529 -0.01586362 0.030000417 0.008914959 -0.011492405 0.0043277573 0.025663687 0.037090227
0.016924145 -0.012026643 0.019740598 -0.023424733 -0.0032865026 -0.011436418 0.027542546 -0.008761816
0.004219351 -0.012518145 -0.008686049 0.0041047083 -0.0025772522 0.043128807 0.0055208025 0.027800877
-0.016116299 0.0057920218 0.014621734 0.009230337 0.005460271 0.018889299 0.0061308895 0.03807059
-0.004197097 -0.0009634043 0.018577512 0.019826377 0.005136562 -0.011210502 0.0054355673 0.018747363
-0.0033844137 0.008489017 0.011180006 0.030608786 -0.01866163 0.029946607 -0.0012441167 0.007659219
-0.00045793352 0.0022730227 0.028577475 0.018443616 -0.010602665 -0.0034688564 -0.0061451425 -0.025628675
-0.015705997 0.0020087867 -0.009592854 -0.0054270285 -0.0040111034 -0.0005433738 0.00055539777 -0.03342885
0.0056381584 -0.008740997 0.013251584 -0.0047786683 0.0029233003 0.005946431 0.0035499935 -0.0049873414
-0.005520278 0.012296171 -0.005611495 -0.02089896 0.0009056178 -0.0002907654 0.000581385 0.01753683
-0.0031065587 0.0059399195 0.011134176 -0.0035793434 0.0061846683 0.010596794 0.0061390204 -0.00810138
0.03668959 -0.032790687 -0.029671835 0.028815927 0.0025110573 0.015316763 -0.008556044 -0.025031427
-0.018663319 0.011228534 0.002119999 -0.0063486146 0.016480753 -0.0043257643 -0.015817948 0.0026129934
0.008855265 -0.008464924 -0.0021856502 -0.018352507 0.009264939 -0.04212396 0.017383547 0.001016551
-0.014394256 0.033324078 0.003911483 -0.012648075 0.01412939 0.03008328 0.0013744675 0.009880944
-0.007338894 0.017591441 -0.027475169 -0.021147761 0.004160381 0.015085758 -0.012459606 0.021344682
0.0049405266 0.002780806 0.0067154397 -0.013416989 0.026621213 -0.007738133 0.010277385 -0.015033753
-0.014828269 -0.00041706912 0.015647996 -0.00027056097 -0.0067274813 -0.0078179855 0.008079297 0.0139660705
-0.0082247425 -0.010874053 0.01224061 -0.019383099 0.0050618094 -0.012582313 0.010203781 -0.01946611
-0.015452126 -0.00025101218 -0.015041535 0.015795793 -0.0009974735 -0.010559589 0.009263263 0.02695552
0.010828724 -0.012579577 0.002449499 -0.00034059226 -0.02318447 0.0057343952 0.0056958385 0.012556777
-0.0076768277 -0.00056393014 0.016789999 0.020255137 0.022506196 -0.022710709 0.015304968 0.012982844

action_model._continuous_distribution.mu.bias f4 [2]
00000000: a801 583a 4c46 6ebb
0.0008239993 -0.0036357818

exp_avg f4 [128, 8]
00000000: 2816 00ba 314b 91b8 9ef1 aeba 2658 ebba
00000010: e9c1 69b8 17c4 18bb dcb7 38ba 0bc3 09ba
00000020: 0185 a037 8033 93b6 e10b 11b8 89f0 50b9
00000030: 189d 58b6 d53a 0bb7 711b e3b7 57a4 e6b6
00000040: f21c 84b8 cfff 0db9 d01d 00bb 8248 0bbb
00000050: f3f5 ffb8 9a96 3abb 2bea 46ba e05b 32ba
00000060: 90bc bd39 c2dd e437 cb61 1f3a 73cd 213a
00000070: d5fa e237 2b0c 6739 9e2f 8639 525e 5e39
00000080: 9397 a7b9 a113 7b38 a2ae 253a a25d 583a
00000090: 4e31 6938 4288 aa3a d8c4 9339 35eb 1639
000000a0: 4a77 1538 746e 87b8 43bd 67ba 39ce aeba
000000b0: 75e6 57b8 f947 d4ba 790b feb9 6805 b5b9
000000c0: 1989 1d38 9507 0738 f639 f839 27de 2aba
000000d0: a34c d637 14ea 8f38 2ae9 58b8 a4e4 e938
000000e0: 0c24 40ba 34b9 9038 0d83 003a 1be8 ddba
000000f0: bd0c 8d38 bacb 7dba 389a 30b9 9f8a d2b8
00000100: ac1f 2139 9d50 5b38 228b 5c3a 3744 f23a
00000110: a8e4 2638 6d61 113b c521 173a 43a4 7239
00000120: b964 5139 c0da 2f37 e876 a539 18cb 923a
00000130: 10da f736 7f70 2e3a fbaa 9239 8b76 5338
00000140: b32f 9fb8 62e9 a6b6 983f 12b9 9096 d7b9
00000150: 0c57 82b6 8dff f9b9 1360 f1b8 802a d1b8
00000160: 8432 0439 8710 63b7 0cfc cab8 662e c2b9
00000170: 1ac7 4db7 7049 a6b9 187f 4cb8 d63c 2eb8
00000180: 2bc7 80b9 eab1 49b7 f27e adb9 b6ab bfba
00000190: fdc6 5336 ba74 f0ba a48b 01ba b0b8 9ab9
000001a0: 7f64 0838 2584 b935 aa81 9837 2110 5639
000001b0: 174b 0a35 d985 3639 d2cc 6437 a9db 99b7
000001c0: 3855 6837 ae5d a5b5 434f 7ab7 20ae 2e38
000001d0: a870 23b5 db2e 2938 fad2 6e37 7d61 8e37
000001e0: f762 deba 2f53 c838 e04e 6239 e7d1 0dbb
000001f0: 9f5d cd38 25ea beba 2db5 f5b9 761f 84b9
00000200: b527 e039 7450 2ab9 a4ae 02bb 00d0 2bbb
00000210: 3a63 27b9 34ce 4ebb eabe 51ba 04c2 14ba
00000220: 24ba a0b7 d9b3 5b39 41a0 3f3b 973a 7d3b
00000230: d7a7 4139 8288 9f3b edeb b53a 5853 823a
00000240: 228a b139 bd76 4fb9 fc61 26bb 59c5 65bb
00000250: 60af 40b9 5034 91bb 489c 69ba fd3f 12ba
00000260: 3421 2239 61ba cfb8 fb3b a6ba b5ac f6ba
00000270: 157f cbb8 4923 1bbb 9031 29ba 0f20 11ba
00000280: 1015 1f39 5cf2 02b8 6605 abb9 09fb c8b8
00000290: 8b6a 01b8 a66f 6737 1e3e f237 3f29 3239
000002a0: d412 b239 cf0d 5138 3b17 763a 41c4 263a
000002b0: cb1d 5138 ada7 9c3a 2d29 b739 8d70 d839
000002c0: 1dea 91b7 1283 95b8 683d 84ba 29ff 9dba
000002d0: ee5b 95b8 c01e d1ba bf1c e0b9 e391 d6b9
000002e0: 9ed7 97ba c737 a438 136f a239 6fe3 2aba
000002f0: 77ca a538 8037 2fb9 778c 1fb9 1e3c d0b8
00000300: 4341 46b9 2261 2337 9c6a e9b6 406b 2db9
00000310: 7e55 2e36 517c 9eb9 c77f 3bb8 cc77 98b8
00000320: 520f c0b9 f92f 1938 a04a 9239 a9f1 d6b9
00000330: ef60 1c38 ac0d 7cb9 d416 a5b8 eb9d 89b8
00000340: 0eeb 18b9 978e bb37 abf0 6639 379a bfba
00000350: a60d 0038 1b6f d8ba 8d76 b8b9 af3b f0b8
00000360: c135 18ba 3fca 2fb8 b3f5 7aba 0be4 13b9
00000370: af75 2db8 3850 053a b1d7 32b9 15c8 bdb8
00000380: a407 b3ba b516 1938 d9d9 d4b9 49eb d9ba
00000390: 8896 2d38 e522 89ba 67e1 06ba f2ef cbb9
000003a0: 94e1 54b8 4e77 b7b7 068e b1b9 80b8 ddb9
000003b0: dad9 e8b7 d576 1aba ba76 fab8 2142 0db9
000003c0: 8501 753a b42c a3b8 113d feb9 5d45 b03a
000003d0: 40ce a2b8 7d15 4e3a 097d 2c39 c375 b338
000003e0: ef12 5f39 c0d2 52b8 4548 0fba f8b5 5eba
000003f0: 9118 5fb8 c90f 30ba 5ebc 40b9 0d81 20b9
-0.0004886114 -6.928144e-05 -0.0013347154 -0.0017955347 -5.5732122e-05 -0.0023310238 -0.000704644 -0.0005255199
1.9135421e-05 -4.386937e-06 -3.4581757e-05 -0.00019926032 -3.2277949e-06 -8.2987435e-06 -2.7073287e-05 -6.873666e-06
-6.299642e-05 -0.00013542104 -0.001954902 -0.0021252935 -0.00012205159 -0.0028471113 -0.00075879943 -0.00068038516
0.0003618938 2.7282982e-05 0.0006079941 0.0006172277 2.7058102e-05 0.0002203441 0.0002559395 0.00021206707
-0.00031965654 5.9861344e-05 0.0006320273 0.00082536985 5.5597447e-05 0.0013010579 0.00028184685 0.00014392736
3.5635465e-05 -6.457875e-05 -0.0008840153 -0.0013336606 -5.1474624e-05 -0.0016195766 -0.00048455203 -0.00034527038
3.75594e-05 3.219357e-05 0.0004734543 -0.00065180886 2.5546475e-05 6.862372e-05 -5.1715564e-05 0.000111528934
-0.000732959 6.900952e-05 0.00049023406 -0.0016930135 6.7257766e-05 -0.00096815417 -0.00016842119 -0.000100394005
0.00015365955 5.2288746e-05 0.00084130664 0.0018483464 3.9790437e-05 0.0022183314 0.0005765225 0.0002314011
0.00019969315 1.04817445e-05 0.00031559845 0.0011199443 7.3865594e-06 0.00066543365 0.0002797468 5.0416722e-05
-7.5905955e-05 -4.974355e-06 -0.00013947336 -0.00041120173 -3.8844355e-06 -0.0004768338 -0.00011509671 -9.973813e-05
0.0001260732 -1.3534102e-05 -9.679058e-05 -0.00037037133 -1.2265309e-05 -0.00031716703 -4.8755755e-05 -4.154149e-05
-0.00024562454 -1.2021957e-05 -0.00033091713 -0.0014623317 3.1557277e-06 -0.0018345334 -0.00049417675 -0.00029510772
3.251852e-05 1.3822033e-06 1.8180192e-05 0.00020414639 5.1518276e-07 0.00017406735 1.3637547e-05 -1.8341309e-05
1.3848119e-05 -1.2320722e-06 -1.4919616e-05 4.1647e-05 -6.088617e-07 4.0336377e-05 1.4235027e-05 1.6973116e-05
-0.001696675 9.552237e-05 0.00021582423 -0.0021640004 9.7926e-05 -0.001456563 -0.00046865028 -0.00025200442
0.00042754193 -0.00016242435 -0.001994052 -0.0026216507 -0.00015963326 -0.0031556012 -0.00080011657 -0.00056746625
-1.9160165e-05 0.00020952466 0.0029239806 0.0038639659 0.0001846844 0.004868568 0.0013879515 0.0009943051
0.00033862988 -0.00019785292 -0.0025387993 -0.0035060255 -0.00018375879 -0.004431285 -0.00089115323 -0.0005578993
0.00015461893 -9.905245e-05 -0.001268267 -0.0018819781 -9.703465e-05 -0.0023672155 -0.0006454224 -0.0005536088
0.00015171268 -3.122013e-05 -0.00032619684 -9.583502e-05 -3.0855223e-05 1.3794668e-05 2.8877574e-05 0.00016990768
0.00033964834 4.9842343e-05 0.0009387617 0.00063616416 4.985723e-05 0.0011951827 0.00034935158 0.00041282587
-1.7394364e-05 -7.1292874e-05 -0.0010089101 -0.0012054193 -7.121997e-05 -0.0015954599 -0.00042746027 -0.00040925955
-0.0011584645 7.830519e-05 0.00030981805 -0.00065188756 7.905525e-05 -0.00016709976 -0.00015215749 -9.9294106e-05
-0.00018907063 9.738173e-06 -6.956352e-06 -0.0001653852 2.5977783e-06 -0.0003022873 -4.4703276e-05 -7.270239e-05
-0.00036632508 3.652272e-05 0.0002790289 -0.00040997312 3.7283575e-05 -0.00024037686 -7.872065e-05 -6.5620836e-05
-0.00014583414 2.2358536e-05 0.00022024165 -0.0014618103 3.053029e-05 -0.0016512604 -0.00035183542 -0.00011455209
-0.000580635 -4.1911608e-05 -0.0009573355 -0.00014103965 -4.1356016e-05 0.0005085501 -0.00017055754 -9.0494905e-05
-0.0013658893 3.649919e-05 -0.000405981 -0.0016625907 4.1386607e-05 -0.001046267 -0.0005145282 -0.0003889795
-5.0754825e-05 -2.1870856e-05 -0.00033865887 -0.00042289868 -2.7758e-05 -0.0005892341 -0.000119430435 -0.00013471443
0.0009346235 -7.780772e-05 -0.00048492153 0.0013448406 -7.763179e-05 0.00078614784 0.00016449777 8.55732e-05
0.0002127399 -5.0264178e-05 -0.0005465786 -0.00084957434 -5.3190222e-05 -0.00067162194 -0.00018380719 -0.00015306864

exp_avg_sq f4 [128, 8]
00000000: 2ea4 1838 67da ee34 1e75 7238 cc83 7238
00000010: 0517 d334 5ac8 3d38 3be6 1a37 e87e bf36
00000020: 2900 0f38 43e5 b234 a796 6538 810c 1838
00000030: 991e a534 9ae9 8737 3905 0837 8665 5936
00000040: c79d 8a38 e135 5d35 4973 ca38 e851 dd38
00000050: 98df 4b35 7478 1f38 dbc3 9d37 6208 fc36
00000060: 7f56 5a37 b8a5 2934 3474 5b37 433c 7f37
00000070: e2d6 1934 736c cc37 6b6c 0b36 fd61 6b36
00000080: bed2 a937 4870 5134 eabc 8437 2a2b ea37
00000090: 8d68 3734 d79a 6c37 86d0 8636 0fcb 0336
000000a0: b1a2 5737 9c67 2634 a349 bc37 1fc8 d837
000000b0: b81f 1234 bbbf 3a37 aaa1 9b36 313e fe35
000000c0: b157 7937 e585 0b34 58be 7b37 2df8 a137
000000d0: 270e fc33 04d8 fb36 0b98 5936 10f1 8a35
000000e0: f459 a237 caa2 5734 30f6 da37 c358 1238
000000f0: 30f1 3c34 1ec4 6e37 fea9 b936 d54d 0436
00000100: 8290 0837 6b5a 0934 3d18 7537 cacb 5137
00000110: cb02 0234 ec33 1c37 2688 2036 96de ab35
00000120: f620 8837 910a 8c34 5186 aa37 5276 9737
00000130: c5b3 6d34 b4cb 3538 f9d6 2736 e36e df36
00000140: 20b9 1438 2734 af34 d809 3d38 b00a 9637
00000150: bf0b a234 0e7e 6837 48f9 9c36 b8c1 4236
00000160: 49a6 5637 44b5 2b34 19b3 b337 e554 8337
00000170: cbac 1e34 46a0 1537 f141 5b36 04d9 9f35
00000180: 1fb3 f437 de52 bf34 1906 7a38 0d21 4a38
00000190: d6f6 aa34 a8b9 d637 a500 1837 d8bd a336
000001a0: 8a28 4e37 86a3 0234 2e9a 7837 0e1c 7137
000001b0: ff02 e133 1206 9837 4fc0 2336 05bb ee35
000001c0: 9cd9 3c37 bcb5 f133 fc10 3937 29cc 2137
000001d0: 42bc db33 5df6 7037 2dfb 1736 5f14 b535
000001e0: aaa2 a537 4938 4834 889e 6e37 82ef 1038
000001f0: b266 3734 9bdf 0937 a0de db36 9543 cd35
00000200: 2c9b 1937 2ced 2934 29f4 a837 63f1 b037
00000210: af07 1834 0522 a637 a82e 5536 dbe0 2236
00000220: 94ee 0339 25f6 ba35 bf5f 6f39 258c bb38
00000230: e19b b035 b15d e238 6272 9a37 9137 7837
00000240: 6431 3538 04fd 1535 1988 9f38 9878 9338
00000250: 60e8 0e35 acfa 0b38 6835 7237 a74b bd36
00000260: d0fd 2c37 9dac 1e34 5dec b637 7907 e037
00000270: 75ab 0b34 d2c9 2037 4b8e ad36 4e3c f135
00000280: 1f5e 3e37 22f1 0e34 48ab a737 e03e d937
00000290: 7408 f633 96b7 0837 2660 a236 6f99 ae35
000002a0: 4cc7 ca37 a27d 9634 9b61 bb37 e2f0 f237
000002b0: 1149 8c34 2164 ad37 0409 6036 e518 4336
000002c0: 092d 2b37 8555 0d34 8aae b337 a0bf a237
000002d0: 44ed 0134 4fab 3e37 cd03 5336 ee02 ee35
000002e0: c977 8f37 d58d 6134 6501 9137 f1d2 c837
000002f0: c45e 4934 dbb3 9437 4c0f 7336 9795 4536
00000300: c87c 0d38 2bea b234 fe52 5f38 4a8f 0c38
00000310: 7370 a734 8119 6a37 241f f736 ff94 4136
00000320: 0f2e a737 4b7b 8234 59fd 0738 bb32 7937
00000330: c817 7734 0377 a337 b892 8936 bed3 3a36
00000340: a048 1338 6d81 fb34 da2f 8e38 bb7a 9c38
00000350: 7ff7 e434 60ff 0238 0581 6737 ebc0 a036
00000360: 6274 bc37 630f 9534 927b ae37 64de db37
00000370: b821 8534 511c 6a38 21a9 a736 21a3 d636
00000380: 2e00 9737 5c78 0d34 76b7 8137 8f61 0438
00000390: 6828 db33 db52 5c37 c501 8536 e5d0 1836
000003a0: 08b4 0337 cf62 b933 4cb4 1b37 d13f 7f36
000003b0: 7501 b233 eb16 8b36 68fb 5b35 4c5e 4c35
000003c0: a85d 4f37 4a05 f933 6ca4 7637 3bbc 3337
000003d0: 7fdf cd33 d2b8 8837 a776 0836 8da1 0436
000003e0: 4a09 d437 a1c3 a634 beff 4538 9b5a 1338
000003f0: 9708 9934 cfb1 8f37 6dcd da36 c95a 4236
3.639253e-05 4.4489863e-07 5.780637e-05 5.782004e-05 3.9318562e-07 4.5247703e-05 9.23272e-06 5.7070174e-06
3.4094006e-05 3.3321894e-07 5.473816e-05 3.625127e-05 3.0755908e-07 1.6202033e-05 8.107448e-06 3.2394614e-06
6.609741e-05 8.240732e-07 9.653584e-05 0.000105533574 7.5948765e-07 3.8020735e-05 1.880706e-05 7.511161e-06
1.30139515e-05 1.579964e-07 1.3080473e-05 1.5213215e-05 1.432741e-07 2.4369196e-05 2.0775722e-06 3.5074765e-06
2.0244504e-05 1.950549e-07 1.5823596e-05 2.7915074e-05 1.7081238e-07 1.4102748e-05 4.0177865e-06 1.9638717e-06
1.2852878e-05 1.5497648e-07 2.2445636e-05 2.5842395e-05 1.3608849e-07 1.1131105e-05 4.63818e-06 1.8942575e-06
1.4861974e-05 1.2994094e-07 1.5005084e-05 1.9308261e-05 1.1737239e-07 7.5055304e-06 3.242402e-06 1.035196e-06
1.9353793e-05 2.0082658e-07 2.6102265e-05 3.489178e-05 1.7596608e-07 1.4231568e-05 5.5332193e-06 1.9714837e-06
8.1398775e-06 1.2792013e-07 1.4608781e-05 1.2504819e-05 1.210821e-07 9.310414e-06 2.3921107e-06 1.2805274e-06
1.6227812e-05 2.608472e-07 2.0328125e-05 1.80557e-05 2.2137745e-07 4.3343476e-05 2.501007e-06 6.658827e-06
3.545836e-05 3.2634236e-07 4.507028e-05 1.788637e-05 3.0183398e-07 1.3857627e-05 4.6781824e-06 2.9021012e-06
1.279411e-05 1.599156e-07 2.1421862e-05 1.5655949e-05 1.4777758e-07 8.918409e-06 3.2671926e-06 1.1909583e-06
2.9170476e-05 3.5636816e-07 5.9610324e-05 4.8191334e-05 3.1844564e-07 2.559724e-05 9.060056e-06 4.8798793e-06
1.2287996e-05 1.2166683e-07 1.481785e-05 1.4371251e-05 1.0477924e-07 1.8122639e-05 2.440083e-06 1.7786812e-06
1.1256339e-05 1.1255494e-07 1.1030814e-05 9.643883e-06 1.0232226e-07 1.4362476e-05 2.2646957e-06 1.349148e-06
1.974528e-05 1.8646928e-07 1.4222816e-05 3.4555334e-05 1.7080563e-07 8.2178985e-06 6.5526256e-06 1.5293359e-06
9.155639e-06 1.5825634e-07 2.0140857e-05 2.109324e-05 1.4158898e-07 1.9804584e-05 3.176663e-06 2.4270764e-06
0.00012582011 1.3929717e-06 0.00022828484 8.942959e-05 1.3158389e-06 0.00010793971 1.8411494e-05 1.47948895e-05
4.319976e-05 5.587501e-07 7.607061e-05 7.0319686e-05 5.323727e-07 3.337364e-05 1.4436759e-05 5.641446e-06
1.0311094e-05 1.4777693e-07 2.1806156e-05 2.670636e-05 1.300776e-07 9.583733e-06 5.172367e-06 1.797345e-06
1.1346797e-05 1.3312504e-07 1.998771e-05 2.5897694e-05 1.1456805e-07 8.148976e-06 4.8391694e-06 1.3008665e-06
2.4173081e-05 2.8031087e-07 2.2337588e-05 2.8960818e-05 2.6130195e-07 2.0669833e-05 3.3383849e-06 2.9071755e-06
1.020288e-05 1.316276e-07 2.1419739e-05 1.9401137e-05 1.2100378e-07 1.1364768e-05 3.1443662e-06 1.7733234e-06
1.7102708e-05 2.1006356e-07 1.7285996e-05 2.3940085e-05 1.8754059e-07 1.7726727e-05 3.6218726e-06 2.944236e-06
3.373323e-05 3.3325463e-07 5.3244636e-05 3.351205e-05 3.1187992e-07 1.3953425e-05 7.364799e-06 2.8845968e-06
1.9929399e-05 2.4304094e-07 3.2422457e-05 1.4853368e-05 2.3012319e-07 1.9486533e-05 4.0999985e-06 2.783941e-06
3.511517e-05 4.6846563e-07 6.780001e-05 7.46152e-05 4.2648387e-07 3.123225e-05 1.3798713e-05 4.79083e-06
2.2465541e-05 2.7764608e-07 2.0799958e-05 2.6210393e-05 2.4797714e-07 5.581632e-05 4.996677e-06 6.3966877e-06
1.8000686e-05 1.3175435e-07 1.5463429e-05 3.156211e-05 1.0205332e-07 1.3132313e-05 3.963915e-06 2.2771358e-06
7.850125e-06 8.632707e-08 9.280699e-06 3.8035107e-06 8.289036e-08 4.145191e-06 8.19497e-07 7.613314e-07
1.23599675e-05 1.1595928e-07 1.4701025e-05 1.0713057e-05 9.58671e-08 1.6298527e-05 2.0334644e-06 1.9763568e-06
2.5276695e-05 3.1062248e-07 4.720664e-05 3.5131914e-05 2.850472e-07 1.7129727e-05 6.520821e-06 2.8961097e-06

exp_avg f4 [128]
00000000: 314b 11b9 8833 13b7 cfff 8db9 c2dd 6438
00000010: 9d13 fb38 756e 07b9 9507 8738 34b9 1039
00000020: 9e50 db38 f0da af37 67e9 26b7 8b10 e3b7
00000030: e0b1 c9b7 1884 3936 ac5d 25b6 2f53 4839
00000040: 7550 aab9 d9b3 db39 bc76 cfb9 63ba 4fb9
00000050: 5df2 82b8 cf0d d138 1183 15b9 c637 2439
00000060: 2761 a337 f82f 9938 8f8e 3b38 45ca afb8
00000070: b716 9938 4e77 37b8 b42c 23b9 c2d2 d2b8
00000080: 6b64 e6b7 d26e 53b8 72c9 16b9 8445 4939
00000090: 6854 e138 9e8d 5638 b5c5 20b9 5ed7 40b9
000000a0: f764 bf38 4387 14b9 1ed7 1339 a05d 48b8
000000b0: b928 0ab9 d48d e938 cb1e b5b8 f779 b238
000000c0: 04ec d7b7 f31e 4eb8 c5d5 2638 87d2 8cb8
000000d0: d4ce 9538 08e7 fc37 f5c5 0438 6be6 de35
000000e0: d6f5 5b39 99fa 90b9 091a 92b9 1e59 2ab9
000000f0: 287d d438 a860 9eb9 3db2 8eb8 a158 9cb8
00000100: 9a88 9139 8448 6b38 132e 2bb6 50cf f7b7
00000110: 3f26 02b9 a1a8 6fb9 e320 a0b7 4aa0 8bb8
00000120: 18d9 02b9 7d97 4d39 2432 2b37 d294 fab8
00000130: 6ea1 a436 3d09 3139 ff6b 9a39 da16 68b7
00000140: 26d4 50b9 e561 1c39 2cc2 6a39 f611 1038
00000150: d9ee 94b8 750e f5b9 f4be 0339 7458 7db9
00000160: ac2b 25b9 078b a938 18ac 7eb8 0011 69b9
00000170: c771 2d3a 7aab 7738 f971 bfb4 b44d c038
00000180: bbb6 01ba dd1b afb8 14da ccb8 ef59 c5b7
00000190: 4ad3 0339 fb73 2539 245f 92b9 8a6c cbb6
000001a0: 28fd 1939 73d5 d3b8 ddd0 33b9 a521 b1b7
000001b0: b6ca 1639 adf3 6bb8 1319 5139 9a7a 73b9
000001c0: bcd4 48b8 443a 2db9 d4ab 1139 32ff a035
000001d0: 1e81 08b9 9b66 2039 f49c 02b9 9b2c 56b8
000001e0: 9f1f a439 87b6 93b8 88d8 0039 97a1 a439
000001f0: 19de 3339 92cf 8939 9fc9 3737 c4c7 1eb9
-0.00013856289 -8.773881e-06 -0.00027084208 5.4565964e-05 0.00011972266 -0.00012915752 6.438714e-05 0.00013801904
0.0001045775 2.0963576e-05 -9.948714e-06 -2.7068212e-05 -2.4043897e-05 2.7644037e-06 -2.464144e-06 0.00019104475
-0.00032484872 0.00041904932 -0.0003957058 -0.00019810493 -6.244027e-05 9.968469e-05 -0.00014258573 0.00015661036
1.9476354e-05 7.3045434e-05 4.4717042e-05 -8.382326e-05 7.2998395e-05 -4.374171e-05 -0.00015561545 -0.00010052837
-2.7464897e-05 -5.040953e-05 -0.00014380159 0.0001919475 0.00010744558 5.1153467e-05 -0.0001533244 -0.00018390777
9.126396e-05 -0.00014164769 0.0001409915 -4.777091e-05 -0.00013175876 0.00011136723 -8.636488e-05 8.510419e-05
-2.57399e-05 -4.914305e-05 3.9776573e-05 -6.714934e-05 7.1433984e-05 3.0148323e-05 3.1655614e-05 1.6607349e-06
0.00020977049 -0.0002765253 -0.00027866688 -0.00016245662 0.0001013226 -0.00030208123 -6.804287e-05 -7.455168e-05
0.0002775833 5.60959e-05 -2.5507804e-06 -2.9541232e-05 -0.00012412014 -0.00022855635 -1.90888e-05 -6.657893e-05
-0.0001247864 0.00019606757 1.02040685e-05 -0.00011948649 4.9063738e-06 0.00016883477 0.00029453632 -1.3833598e-05
-0.00019915457 0.00014913788 0.00022388314 3.4349003e-05 -7.101679e-05 -0.00046740813 0.00012564269 -0.00024160912
-0.00015751895 8.084444e-05 -6.0718594e-05 -0.00022226945 0.00066163804 5.904909e-05 -3.5659448e-07 9.169747e-05
-0.00049481884 -8.34984e-05 -9.768098e-05 -2.3526109e-05 0.00012571845 0.00015778832 -0.00027918175 -6.062507e-06
0.00014685525 -0.00010101022 -0.00017148578 -2.1115711e-05 0.0001438063 -5.6255307e-05 0.00019941134 -0.00023219959
-4.788184e-05 -0.00016520271 0.00013892289 1.19952e-06 -0.0001301807 0.00015297013 -0.00012456236 -5.1063118e-05
0.00031304077 -7.0435046e-05 0.00012287695 0.0003140091 0.00017153508 0.00026285328 1.0954594e-05 -0.00015142473

exp_avg_sq f4 [128]
00000000: 66da ee35 44e5 b235 e235 5d36 b9a5 2935
00000010: 4870 5135 9d67 2635 e585 0b35 cba2 5735
00000020: 6b5a 0935 920a 8c35 2634 af35 44b5 2b35
00000030: de52 bf35 86a3 0235 bab5 f134 4838 4835
00000040: 2ded 2935 24f6 ba36 04fd 1536 9eac 1e35
00000050: 22f1 0e35 a27d 9635 8555 0d35 d58d 6135
00000060: 2cea b235 4b7b 8235 6d81 fb35 620f 9535
00000070: 5d78 0d35 cf62 b934 4a05 f934 a2c3 a635
00000080: 9d57 a234 01f4 7936 5986 0135 bb8b 4136
00000090: 2168 1236 08bd 4035 2288 c734 570b 4e35
000000a0: 44b0 8d34 32b7 9e35 42b2 1736 5c93 d935
000000b0: ad92 ce35 fd12 8035 1ef9 4734 df2f 8235
000000c0: 47ce 4735 d424 8035 d9c0 9a35 7445 3235
000000d0: c5b3 7c35 60bc ff34 ab04 d735 c054 b634
000000e0: 1afa 1c36 6e4b 0236 e1b1 9636 9ebc 3535
000000f0: b3c9 ae35 c6fa 9035 86f4 5e35 b70b fe34
00000100: 2fa7 3136 528a 0636 56f3 7035 c0ae 2735
00000110: 3dcd 3f35 8772 8535 d3a0 1735 b480 2a35
00000120: 0dd6 e535 0c87 bf35 ecea 1236 867a 1335
00000130: 9787 8e35 b7c7 1736 fd25 bf35 9125 d834
00000140: 2b70 cd35 e29d ac35 8d1f ec34 d3d3 5d36
00000150: 8a86 a735 b5dd 5935 5ed7 8c35 a9f5 d035
00000160: ad99 f135 d6a1 c334 1860 fb35 0f3a c535
00000170: 36ec 0f36 57a9 c434 4a50 ed34 ecd4 d735
00000180: fc41 c035 aace 7a35 d520 8a36 4f2b 0035
00000190: 4c74 1c35 7aa3 4236 9b9b eb35 70de 0035
000001a0: d91b be35 f931 5935 161a ac35 bcdd 1836
000001b0: 4cf4 d735 6e29 8335 bf18 0335 e383 9935
000001c0: 3d78 0936 79f7 3d35 2b8f 4135 300f 4a35
000001d0: 8bb1 ba35 d30e 3036 6aeb ed34 a660 2435
000001e0: f8b9 0f36 a4f9 4135 6162 3b35 2d4e 3435
000001f0: 5bc4 e934 401c a735 8954 2f35 ba12 ee35
1.7795944e-06 1.3328759e-06 3.296293e-06 6.3198564e-07 7.802196e-07 6.1990596e-07 5.197638e-07 8.0330636e-07
5.116805e-07 1.0433889e-06 1.3053693e-06 6.396624e-07 1.4254726e-06 4.866673e-07 4.5021972e-07 7.4587706e-07
6.330254e-07 5.5718865e-06 2.2350005e-06 5.911078e-07 5.3250017e-07 1.1212435e-06 5.265104e-07 8.4025424e-07
1.3330186e-06 9.721638e-07 1.8738625e-06 1.1105842e-06 5.2701745e-07 3.4530828e-07 4.6383713e-07 1.24249e-06
3.0238598e-07 3.724592e-06 4.8251746e-07 2.8840575e-06 2.1816306e-06 7.180065e-07 3.7165688e-07 7.675748e-07
2.6391547e-07 1.1825234e-06 2.2604513e-06 1.6210647e-06 1.5390884e-06 9.54227e-07 1.8623948e-07 9.699687e-07
7.443345e-07 9.547462e-07 1.153002e-06 6.6411235e-07 9.4138915e-07 4.7634512e-07 1.6020107e-06 3.3961805e-07
2.339139e-06 1.9415415e-06 4.491056e-06 6.770223e-07 1.3022712e-06 1.0801821e-06 8.3057273e-07 4.731971e-07
2.647237e-06 2.004807e-06 8.976107e-07 6.246664e-07 7.1451706e-07 9.942604e-07 5.6485914e-07 6.351722e-07
1.7124127e-06 1.4269913e-06 2.1892438e-06 5.494006e-07 1.0619286e-06 2.2617003e-06 1.4241665e-06 4.0260468e-07
1.5306335e-06 1.2860949e-06 4.3981382e-07 3.3054864e-06 1.2481626e-06 8.1161426e-07 1.0493493e-06 1.5568704e-06
1.8000625e-06 3.6439332e-07 1.8728924e-06 1.4694541e-06 2.1446153e-06 3.6631056e-07 4.4203108e-07 1.6080717e-06
1.4324319e-06 9.3432993e-07 4.1165426e-06 4.774674e-07 5.8283763e-07 2.9003409e-06 1.7554152e-06 4.8007405e-07
1.4164208e-06 8.091152e-07 1.2822591e-06 2.2778831e-06 1.6089848e-06 9.772318e-07 4.8837313e-07 1.1437772e-06
2.0484579e-06 7.0768107e-07 7.210644e-07 7.5272965e-07 1.3909752e-06 2.6234673e-06 4.4315976e-07 6.1235403e-07
2.1416909e-06 7.226138e-07 6.980609e-07 6.7168986e-07 4.35425e-07 1.2450691e-06 6.5315595e-07 1.7737832e-06
